app/src/main/ml/AppleDisease.tflite (tflite, 741920 bytes, 16 tensors)

sequential_2/dense/BiasAdd/ReadVariableOp f4 [64]
0.11666508 0.10287022 0.11830225 -0.034832593 0.009036481 0.103646055 -0.007989736 0.027967073
0.11850785 -0.014771312 0.019738737 -0.025409449 0.09285386 -0.031391636 -0.05768336 0.009686771
0.0984305 -0.021394001 0.030004889 -0.015216431 -0.03214979 0.080028355 -0.04400979 0.08344478
-0.039919414 -0.046232164 -0.002158354 -0.053555373 0.022543235 -0.023004375 -0.039374482 -0.013763158
-0.025189105 -0.050668295 -0.015480088 -0.044593666 -0.013329471 -0.010195105 0.0062488182 0.06588375
-0.007348199 -0.021185305 0.009715896 0.054803338 -0.014060011 0.12673634 -0.014584364 -0.030434618
0.070937485 -0.039853573 -0.040284164 -0.014979463 -0.016283624 0.037311994 -0.02374534 -0.024703251
-0.010311731 0.083764926 0.020796865 -0.029289218 -0.060041323 -0.02703889 0.08758381 -0.011664599
00000000: 1aee ee3d 9fad d23d 7348 f23d 9fac 0ebd
00000010: c00d 143c 6244 d43d 62e7 02bc 341b e53c
00000020: 3eb4 f23d 5f03 72bc 22b3 a13c 7a27 d0bc
00000030: 2a2a be3d 8494 00bd 6345 6cbd 43b5 1e3c
00000040: ee95 c93d 7942 afbc d0cc f53c 564e 79bc
00000050: 80af 03bd e8e5 a33d 9c43 34bd 19e5 aa3d
00000060: 8a82 23bd f05d 3dbd 2c73 0dbb e15c 5bbd
00000070: 97ac b83c ac73 bcbc 2347 21bd de7e 61bc
00000080: 6259 cebc 8f89 4fbd 32a0 7dbc d9a7 36bd
00000090: db63 5abc 5f09 27bc e3c2 cc3b 0fee 863d
000000a0: 29c9 f0bb ce8c adbc 6c2f 1f3c 7779 603d
000000b0: f65b 66bc 2cc7 013e 42f3 6ebc 0552 f9bc
000000c0: ac47 913d 803d 23bd 0201 25bd 6c6c 75bc
000000d0: 3c65 85bc 76d4 183d 9685 c2bc 795e cabc
000000e0: 89f2 28bc f28c ab3d 305e aa3c f1ef efbc
000000f0: e4ed 75bd aa80 ddbc 245f b33d e01c 3fbc

sequential_2/dense_1/BiasAdd/ReadVariableOp f4 [4]
-0.089625254 0.026950946 0.024619587 0.039943703
00000000: 728d b7bd 3bc8 dc3c 04af c93c 029c 233d

sequential_2/conv2d/BiasAdd/ReadVariableOp f4 [32]
-0.016003115 0.09505943 0.005428344 -0.023957388 -0.0004661007 0.024266345 0.020479636 0.010265835
-0.052735172 0.005442403 -0.026775042 -0.0012912474 -0.0057024173 0.0073610786 -0.0019998092 -0.022310922
-0.017297465 0.009465109 0.0020277007 0.009038907 0.018349253 -0.0019905032 0.054028887 0.0021845112
-0.017176986 0.033907108 0.008734938 0.012688605 -0.03681921 0.010569585 0.0050878064 -0.0009960704
00000000: f718 83bc 85ae c23d 40e0 b13b 4942 c4bc
00000010: fa5e f4b9 37ca c63c e9c4 a73c 0832 283c
00000020: d600 58bd 2f56 b23b 5557 dbbc 133f a9ba
00000030: 58db babb 3435 f13b 3b0f 03bb 65c5 b6bc
00000040: 6ab3 8dbc 8b13 1b3c 2ce3 043b ec17 143c
00000050: 2c51 963c 1a73 02bb 654d 5d3d 042a 0f3b
00000060: c0b6 8cbc 2ee2 0a3d fc1c 0f3c dee3 4f3c
00000070: bdcf 16bd 0d2c 2d3c 9db7 a63b 948e 82ba

sequential_2/conv2d_5/BiasAdd/ReadVariableOp f4 [64]
-0.035233587 0.012280283 -0.053525887 0.087836444 -0.03365609 -0.008653398 -0.009015765 -0.021899315
0.0730687 -0.00026578177 -0.04680089 -0.018847642 0.081675015 -0.016022967 0.087714635 -0.03501799
0.060748603 -0.009154185 0.040564135 0.054350283 0.014669561 -0.011682885 0.09121292 -0.037686545
-0.082917444 0.066871405 -0.036862366 -0.017740622 -0.008616283 -0.032957032 0.041584592 -0.032881532
0.008662439 -0.037481483 0.04266757 -0.04245338 0.031437926 -0.018994633 -0.03732505 -0.011261786
0.09855205 0.039527833 -0.01385327 0.03636167 0.14206274 -0.05666242 0.10040528 -0.050586384
-0.015386335 -0.017498229 -0.014595809 -0.009218032 0.0492423 -0.023671607 0.089286454 -0.011917446
-0.060802538 0.051839717 -0.009041186 -0.05848477 -0.011706888 -0.05628413 0.030352244 -0.017110499
00000000: 1851 10bd 3d33 493c f63d 5bbd 98e3 b33d
00000010: f8da 09bd fbc6 0dbc dcb6 13bc 3166 b3bc
00000020: 0ba5 953d a058 8bb9 4ab2 3fbd 5f66 9abc
00000030: 3b45 a73d 9942 83bc bba3 b33d 066f 0fbd
00000040: 87d3 783d 6ffb 15bc 9426 263d 679e 5e3d
00000050: 9958 703c 9269 3fbc d7cd ba3d 355d 1abd
00000060: 9fd0 a9bd e0f3 883d fefc 16bd c854 91bc
00000070: 4f2b 0dbc f4fd 06bd 9b54 2a3d c9ae 06bd
00000080: e7ec 0d3c 2f86 19bd 31c4 2e3d 98e3 2dbd
00000090: 0ec5 003d a29a 9bbc 27e2 18bd 5b83 38bc
000000a0: a8d5 c93d f0e7 213d d3f8 62bc f9ef 143d
000000b0: e578 113e db16 68bd 49a1 cd3d ab33 4fbd
000000c0: f716 7cbc 7258 8fbc 4323 6fbc 3a07 17bc
000000d0: 4bb2 493d f5ea c1bc d1db b63d 6441 43bc
000000e0: 150c 79bd e255 543d 7c21 14bc ba8d 6fbd
000000f0: 3fce 3fbc 308a 66bd 45a5 f83c 512b 8cbc

sequential_2/conv2d_4/BiasAdd/ReadVariableOp f4 [64]
-0.05517531 -0.008667266 -0.0049578734 -0.0065982826 0.010080274 -0.0113948975 -0.048084997 0.016222578
-0.028767224 0.059331603 0.05069452 -0.021289106 0.10811603 0.07314805 0.052722275 -0.026666358
-0.02118541 0.026712848 0.07003204 0.07171426 0.044284333 -0.0289655 -0.0472903 -0.011460782
-0.05451472 -0.012279137 0.080533355 -0.036653038 0.07740972 0.050198883 0.008610609 0.07658083
0.08216522 -0.03309983 -0.028510984 0.0029314416 -0.01977568 0.012178283 0.064041436 -0.062120125
0.045555346 -0.04612874 -0.042291988 0.0523799 -0.026029421 0.104340024 -0.046528794 -0.0061506713
-0.045728445 -0.021760717 -0.02581494 -0.06062561 -0.0256161 -0.0231452 -0.0573812 -0.0024693394
-0.03872897 -0.031975564 -0.04359141 -0.02012445 0.06280042 -0.002966887 -0.06747527 -0.051180754
00000000: 81ff 61bd 2601 0ebc a875 a2bb 6836 d8bb
00000010: bc27 253c aab1 3abc c6f4 44bd 36e5 843c
00000020: 3ea9 ebbc b205 733d 0fa5 4f3d 7e66 aebc
00000030: f06b dd3d a5ce 953d 50f3 573d 6873 dabc
00000040: 068d adbc e7d4 da3c f56c 8f3d edde 923d
00000050: 7d63 353d 0e49 edbc 79b3 41bd 01c6 3bbc
00000060: d44a 5fbd 6f2e 49bc acee a43d 7f21 16bd
00000070: fd88 9e3d 589d 4d3d 8313 0d3c 69d6 9c3d
00000080: 3d46 a83d b093 07bd de8f e9bc 6e1d 403b
00000090: 9b00 a2bc 6c87 473c 2828 833d ac71 7ebd
000000a0: 3e98 3a3d 7df1 3cbd 5d3a 2dbd 4e8c 563d
000000b0: a73b d5bc 39b0 d53d fa94 3ebd 928b c9bb
000000c0: c04d 3bbd 8843 b2bc da79 d3bc 8f52 78bd
000000d0: dbd8 d1bc 019b bdbc 8d08 6bbd a4d4 21bb
000000e0: 45a2 1ebd cff8 02bd e88c 32bd 08dc a4bc
000000f0: 829d 803d 1b70 42bb 7930 8abd e9a2 51bd

sequential_2/conv2d_3/BiasAdd/ReadVariableOp f4 [64]
-0.03341674 -0.0022931043 0.012603901 0.015565497 -0.030170718 0.036891546 -0.10242811 0.06533263
-0.022881996 -0.0716486 -0.042825647 -0.025668299 -0.021905454 -0.049239017 0.08438525 -0.07622812
0.022937672 -0.024888106 -0.0073900647 0.044785652 -0.013923044 -0.028480776 -0.025433762 0.025697902
0.0039339345 -0.020979624 0.019235106 -0.070830315 -0.03513635 0.0028224546 0.0105879735 -0.105203226
-0.0262208 0.0034892815 -0.04814387 -0.038847174 -0.011936247 -0.051603474 0.059320237 -0.026021298
-0.0053456696 0.06921748 -0.062275488 -0.039986257 0.0052228095 -0.04251752 -0.05796268 -0.025715737
-0.020214967 -0.09587397 0.014206962 -0.045069 -0.048635323 0.013301469 -0.029818902 0.020304678
0.040821813 0.008594436 -0.023393866 0.034956433 -0.05599695 -0.043501608 0.024269266 0.035814293
00000000: fedf 08bd e847 16bb 9880 4e3c 6d06 7f3c
00000010: 9528 f7bc 971b 173d d4c5 d1bd 1dcd 853d
00000020: 0673 bbbc 80bc 92bd f269 2fbd 5346 d2bc
00000030: 1173 b3bc daae 49bd 2dd2 ac3d 7d1d 9cbd
00000040: c9e7 bb3c 24e2 cbbc 5b28 f2bb 2971 373d
00000050: 7b1d 64bc 8450 e9bc 775a d0bc 6884 d23c
00000060: 3ce8 803b 76dd abbc f192 9d3c 7c0f 91bd
00000070: 22eb 0fbd eef8 383b 2e79 2d3c ca74 d7bd
00000080: 01cd d6bc 6eac 643b 8232 45bd 371e 1fbd
00000090: 4090 43bc 2a5e 53bd c7f9 723d 9e2a d5bc
000000a0: ba2a afbb e5c1 8d3d 9514 7fbd a1c8 23bd
000000b0: 1a24 ab3b da26 2ebd 466a 6dbd cfa9 d2bc
000000c0: dc99 a5bc 9259 c4bd 51c4 683c 469a 38bd
000000d0: d535 47bd 68ee 593c c546 f4bc ff55 a63c
000000e0: c634 273d adcf 0c3c 7ea4 bfbc 7a2e 0f3d
000000f0: 0f5d 65bd be2e 32bd 57d0 c63c 02b2 123d

sequential_2/conv2d_2/BiasAdd/ReadVariableOp f4 [64]
-0.036810365 -0.05360011 -0.016376795 -0.036002606 -0.06813583 -0.013696519 -0.0378452 0.0317413
-0.015915072 -0.029039385 -0.028956413 -0.09250885 -0.090823874 -0.015020926 0.02295196 -0.01770777
-0.030507319 -0.0014481174 -0.03577047 -0.033544075 -0.018994723 -0.04220724 -0.005478816 0.012652849
0.037920732 -0.07329022 -0.01645109 -0.016638065 0.011503714 -0.049259655 -0.006141386 -0.034738593
-0.0058902637 -0.021991817 -0.010870599 -0.061003026 -0.015697544 -0.013878631 0.0027947698 0.020961829
-0.011902635 -0.09083676 -0.015323055 0.027864067 -0.02854711 -0.10368663 0.01744002 -0.0864077
-0.021120347 -0.044433422 -0.028879492 -0.023241006 -0.031977776 -0.07458657 0.0024002637 -0.011224429
-0.0030057647 -0.021809535 0.034744 0.011264187 -0.019060897 -0.06195903 0.0057187746 0.015748782
00000000: 77c6 16bd ca8b 5bbd a128 86bc 7877 13bd
00000010: cc8a 8bbd 5d67 60bc 9203 1bbd 2a03 023d
00000020: 5360 82bc 01e4 edbc 0036 edbc 4875 bdbd
00000030: de01 babd 541a 76bc c005 bc3c e30f 91bc
00000040: 7cea f9bc c2ce bdba 0e84 12bd 8365 09bd
00000050: d29a 9bbc 80e1 2cbd a487 b3bb e54d 4f3c
00000060: c552 1b3d 2f19 96bd 70c4 86bc 8d4c 88bc
00000070: 137a 3c3c 7ec4 49bd ae3d c9bb 0e4a 0ebd
00000080: 1d03 c1bb 2f28 b4bc 991a 32bc 4fde 79bd
00000090: 2398 80bc 3363 63bc 7528 373b 24b8 ab3c
000000a0: 4503 43bc a008 babd 8d0d 7bbc 2f43 e43c
000000b0: a1db e9bc a859 d4bd 5fde 8e3c 85f6 b0bd
000000c0: 9404 adbc d2ff 35bd af94 ecbc ec63 bebc
000000d0: 21fb 02bd d8c0 98bd be4d 1d3b abe6 37bc
000000e0: 5dfc 44bb e9a9 b2bc b94f 0e3d 6d8d 383c
000000f0: 9925 9cbc c0c8 7dbd 8f64 bb3b 9703 813c

sequential_2/conv2d_1/BiasAdd/ReadVariableOp f4 [64]
-0.039972737 -0.0063301534 0.023584263 -0.012674478 -0.036579803 -0.0038807292 -0.024208356 -0.00656837
-0.02086786 -0.029896112 -0.014972124 -0.023187786 -0.05247998 -0.032786515 0.0140210595 -0.021095844
-0.0006671576 -0.017493533 -0.03798867 -0.04966669 0.009460688 -0.0044545415 0.00060814415 -0.030742534
0.011201505 -0.036627673 0.010050717 0.0035940183 -0.029570322 -0.019570563 -0.063339815 -0.022259185
0.0051934263 -0.013934123 0.01618664 -0.011790761 -0.023595802 -0.020950183 0.049716897 -0.032447305
-0.013496421 -0.021904612 0.007659559 -0.025084851 -0.018621445 -0.007688507 -0.07061227 -0.053173196
-0.026532158 -0.01928018 -0.022115065 0.04161933 -0.01301184 0.03903807 0.012597963 -0.04198025
-0.02758231 0.0031669654 -0.020036543 -0.017847959 -0.024902515 -0.0078807585 0.04682253 -0.037858624
00000000: 74ba 23bd 2d6d cfbb c933 c13c 9da8 4fbc
00000010: b4d4 15bd d553 7ebb 9a50 c6bc 7b3b d7bb
00000020: 13f3 aabc b1e8 f4bc a44d 75bc 50f4 bdbc
00000030: 3ff5 56bd 274b 06bd 96b8 653c 31d1 acbc
00000040: 30e4 2eba 994e 8fbc 029a 1bbd 4d6f 4bbd
00000050: 0001 1b3c 67f7 91bb dd6b 1f3a c4d7 fbbc
00000060: 8486 373c e606 16bd c3ab 243c 9f89 6b3b
00000070: 763d f2bc 7252 a0bc 4eb8 81bd e558 b6bc
00000080: 9e2d aa3b f34b 64bc d899 843c 092e 41bc
00000090: fc4b c1bc b89f abbc f2a3 4b3d 77e7 04bd
000000a0: 1820 5dbc 4d71 b3bc 0afd fa3b bf7e cdbc
000000b0: 008c 98bc dfef fbbb 2a9d 90bd 23cc 59bd
000000c0: f859 d9bc 78f1 9dbc a72a b5bc 0879 2a3d
000000d0: 9d2f 55bc 62e6 1f3d b067 4e3c 7cf3 2bbd
000000e0: 4cf4 e1bc dd8c 4f3b ad23 a4bc e235 92bc
000000f0: 5c00 ccbc 4c1e 01bc fbc8 3f3d a511 1bbd

sequential_2/dense/MatMul f4 [64, 256]
0.050941844 0.07872131 -0.16694182 0.027323164 0.024952149 0.001237127 0.08223661 -0.13002634
-0.013102204 -0.065803275 -0.14055838 -0.0093823625 0.108829625 -0.010078685 -0.1168123 0.07811582
0.17072818 -0.014694178 0.035594594 0.05524547 0.087518774 -0.08908751 0.13376479 0.13661182
-0.060615264 -0.047663014 -0.1024034 0.04771111 0.017946703 0.023758259 -0.22152138 0.00017078436
-0.06643321 -0.13125665 0.12559736 -0.079640895 0.040722385 -0.06321168 -0.11021904 0.13696305
0.074114285 0.106083736 0.077228025 -0.0952624 0.07503657 -0.13329811 -0.007690869 -0.15163071
-0.040679514 -0.08791232 -0.07865791 0.06874184 0.010101649 -0.107775606 0.058899805 -0.12176503
0.04480371 -0.08541231 0.061084244 0.08129627 -0.04957804 -0.18119483 0.04189444 -0.07158529
-0.1402858 -0.088320844 -0.13366103 -0.09873465 0.016151218 0.076770544 0.012860368 -0.2149779
-0.07534383 -0.0043441923 0.023325043 0.09297525 0.10477719 0.11621168 -0.021050094 0.017691124
0.12500162 0.06367657 0.12594038 0.09934119 0.03637893 -0.0275911 0.108485386 0.10688732
0.0055090687 0.11719767 -0.01295946 -0.009103559 0.000904326 0.055549912 0.08236229 -0.00505434
-0.049761415 -0.05933974 0.03687055 -0.10189625 -0.0915389 -0.029371984 -0.07507094 -0.113751665
-0.057615403 -0.012219343 0.08049851 -0.17030816 -0.035580058 -0.15514521 0.14806241 -0.009898779
0.055191156 0.052935522 -0.2151863 -0.11135667 0.050173186 -0.039427694 0.020339629 -0.14142522
-0.05465204 -0.124711186 0.01202767 -0.10819803 -0.005015969 0.023516357 -0.106414765 -0.02536614
-0.06719163 0.013280444 0.06951499 0.07997315 0.07288064 0.05734816 -0.070190795 -0.05795072
-0.13096297 -0.061058506 -0.13147934 0.1419689 0.09070068 -0.097060665 -0.04946853 0.02412099
-0.00028585052 -0.13644533 0.06759704 -0.044803966 -0.058315013 -0.008503353 0.13772339 0.07558671
0.053710543 -0.022353163 -0.026667563 0.14851554 -0.012546974 0.11371585 -0.16950618 0.026467213
-0.044631798 0.057881907 -0.070956826 0.08199721 -0.12399431 -0.09773549 0.021693306 0.062450457
0.17334071 -0.0365924 0.035894156 -0.13798322 0.0898134 -0.0927001 -0.021931456 -0.12375069
0.040514138 -0.1564335 -0.15521143 -0.054386385 -0.1152614 -0.04780164 0.10943612 -0.04018122
0.01855511 -0.19366798 0.016039053 0.044725146 -0.10588006 0.10243463 0.013244966 -0.0229617
0.014818904 -0.08028181 -0.049370814 -0.0503045 0.105144404 -0.09897716 0.118448235 -0.19044545
-0.020401614 0.08563658 0.04403645 -0.08922966 -0.08963653 0.12386073 -0.025792683 0.03633301
0.038819365 -0.0182026 0.15073667 0.07719493 0.1265429 -0.15610956 -0.05523505 0.16308777
-0.016373912 0.0077324696 -0.16179514 0.07734727 -0.01999615 0.11587475 0.09304462 -0.054816455
-0.111450434 -0.009323692 0.05186204 -0.074778646 -0.18113236 0.049800314 -0.0036749644 -0.013249734
-0.023073876 -0.025091061 -0.15155739 -0.10764853 -0.102131315 -0.1277314 0.056236878 -0.18068987
0.11169284 0.055345863 -0.1241645 -0.11303657 -0.10067079 -0.061751757 -0.08273067 -0.08212045
0.03221121 -0.19844863 0.041764904 0.10034623 0.0659342 -0.08985546 0.068915516 0.13553114
00000000: 65a8 503d a338 a13d ccf2 2abe d4d4 df3c
00000010: 7368 cc3c 1827 a23a ab6b a83d a025 05be
00000020: a0aa 56bc dec3 86bd 89ee 0fbe 7bb8 19bc
00000030: 11e2 de3d 1221 25bc 4a3b efbd 30fb 9f3d
00000040: 5ed3 2e3e d9bf 70bc a3cb 113d 1349 623d
00000050: 0b3d b33d 8373 b6bd a3f9 083e f8e3 0b3e
00000060: b647 78bd 4b3a 43bd e0b8 d1bd ba6c 433d
00000070: f704 933c aea0 c23c 80d6 62be 9414 3339
00000080: 230e 88bd 2568 06be 989c 003e c41a a3bd
00000090: 84cc 263d 2075 81bd 85ba e1bd 0b40 0c3e
000000a0: 3bc9 973d 6e42 d93d ba29 9e3d ef18 c3bd
000000b0: c6ac 993d 4d7f 08be af03 fcbb 1545 1bbe
000000c0: 909f 26bd 600b b4bd 6617 a1bd 86c8 8c3d
000000d0: 6381 253c 75b9 dcbd ec40 713d f25f f9bd
000000e0: 1884 373d a6ec aebd 7933 7a3d a97e a63d
000000f0: 5812 4bbd 238b 39be 8199 2b3d 4f9b 92bd
00000100: 15a7 0fbe 8fe1 b4bd 70de 08be 6435 cabd
00000110: 8f4f 843c e039 9d3d 4bb4 523c 2b23 5cbe
00000120: de4d 9abd ba59 8ebb 2914 bf3c cf69 be3d
00000130: 6c95 d63d 6400 ee3d 3f71 acbc faec 903c
00000140: 6d00 003e dd68 823d 84f6 003e 6573 cb3d
00000150: 1302 153d bb06 e2bc 962d de3d bde7 da3d
00000160: 6b85 b43b 5505 f03d ea53 54bc 1827 15bc
00000170: 4a10 6d3a 4e88 633d 8fad a83d e19e a5bb
00000180: a0d2 4bbd 3a0e 73bd 9305 173d fbae d0bd
00000190: bf78 bbbd 849d f0bc cbbe 99bd a2f6 e8bd
000001a0: 21fe 6bbd a433 48bc 67dc a43d 4365 2ebe
000001b0: 65bc 11bd 63de 1ebe ac9d 173e 7d2e 22bc
000001c0: 1f10 623d ebd2 583d cc59 5cbe f70e e4bd
000001d0: 6682 4d3d ef7e 21bd 4b9f a63c c6d1 10be
000001e0: d1da 5fbd 9468 ffbd b40f 453c ee96 ddbd
000001f0: ff5c a4bb 60a5 c03c fcef d9bd a7cc cfbc
00000200: c49b 89bd 3896 593c e05d 8e3d f6c8 a33d
00000210: 7242 953d e7e5 6a3d 31c0 8fbd bc5d 6dbd
00000220: 281b 06be 7c18 7abd 85a2 06be 4c60 113e
00000230: 47c1 b93d bec7 c6bd 839f 4abd 6299 c53c
00000240: 35de 95b9 53b8 0bbe 5170 8a3d 5d84 37bd
00000250: b9db 6ebd a651 0bbc 5c07 0d3e 34cd 9a3d
00000260: 96ff 5b3d fb1d b7bc ef75 dabc 7514 183e
00000270: d391 4dbc dbe3 e83d 0793 2dbe c5d1 d83c
00000280: d5cf 36bd 9415 6d3d d051 91bd 27ee a73d
00000290: bbf0 fdbd 8b29 c8bd 29b6 b13c 0dcc 7f3d
000002a0: 3a80 313e eae1 15bd c005 133d 794b 0dbe
000002b0: 16f0 b73d 8dd9 bdbd 99a9 b3bc 0071 fdbd
000002c0: 27f2 253d 1a30 20be bfef 1ebe 42c4 5ebd
000002d0: 2b0e ecbd a7cb 43bd 0b20 e03d 1095 24bd
000002e0: e300 983c e650 46be 5564 833c b731 373d
000002f0: a5d7 d8bd 3fc9 d13d 6a01 593c 2d1a bcbc
00000300: fdca 723c ca6a a4bd 0d39 4abd 170c 4ebd
00000310: f355 d73d 8ab4 cabd fd94 f23d 2204 43be
00000320: 4921 a7bc 3b62 af3d 915f 343d 0abe b6bd
00000330: 5b93 b7bd b2aa fd3d 2d4b d3bc ecd1 143d
00000340: 0e01 1f3d 9e1d 95bc b75a 1a3e 6018 9e3d
00000350: 7694 013e 2fdb 1fbe 263e 62bd 7b00 273e
00000360: 9522 86bc a860 fd3b a0ad 25be 3f68 9e3d
00000370: f7ce a3bc be4f ed3d 2d8e be3d 3887 60bd
00000380: 2040 e4bd 66c2 18bc 4a6d 543d 8c25 99bd
00000390: c37a 39be 6afb 4b3d acd7 70bb 6a15 59bc
000003a0: 6d05 bdbc c58b cdbc dc31 1bbe d576 dcbd
000003b0: 392a d1bd 05cc 02be a458 663d c406 39be
000003c0: 37bf e43d 58b2 623d f549 febd b87f e7bd
000003d0: 7d2c cebd 69ef 7cbd b36e a9bd c42e a8bd
000003e0: e7ef 033d 1e36 4bbe ad11 2b3d 5382 cd3d
000003f0: 8308 873d 2406 b8bd 9423 8d3d adc8 0a3e

sequential_2/dense_1/MatMul f4 [4, 64]
-0.3651249 -0.3353412 -0.21034743 -0.22677408 -0.07126468 -0.3180297 -0.23314694 -0.05190161
-0.37962434 0.26430154 0.06592516 0.31261054 -0.18746088 0.045627937 0.2840603 0.050320983
-0.3292411 0.20957789 -0.13914104 -0.0021148229 0.26130697 -0.115571335 0.16242477 -0.18479392
0.1569552 0.20101635 0.25720835 0.10205276 -0.23708084 -0.0629454 -0.25946352 0.12287206
-0.11788841 0.16227965 0.17766665 0.15280473 -0.30563778 -0.031615686 -0.13863514 -0.29468945
0.15544708 -0.08842812 0.14998858 0.011797827 0.1992202 -0.33443624 0.21846017 0.23086858
-0.1984462 0.23163185 0.2825403 -0.18843904 0.23194295 -0.10305431 -0.039745487 0.1647529
-0.25687915 -0.22612649 0.026873915 0.21621437 0.2876168 0.2052902 -0.27273527 0.19490324
-0.2879733 -0.011051625 -0.019473154 -0.119833715 0.07765132 0.014752165 -0.2344935 -0.031346973
0.23672543 -0.03372344 0.23430684 -0.2790383 0.22284454 0.08237956 -0.17112951 0.17552266
-0.027869854 0.26689634 0.2689431 0.17757738 0.14425452 -0.22661194 0.06643804 0.2581975
-0.21628018 -0.1297775 0.21681476 -0.2107626 -0.06715336 -0.29208556 -0.09006366 -0.2095837
-0.038323823 -0.10161504 0.19335167 -0.105891086 -0.25229967 0.023265421 -0.16746378 -0.017890798
0.16875619 0.21290171 0.060563363 -0.20718671 0.22207862 -0.08173659 -0.110337965 -0.08380519
0.14994317 0.1880253 0.13170348 -0.15838997 0.25237447 0.27464136 -0.24946262 -0.13574252
-0.21057083 0.0679358 -0.08581903 0.11695839 -0.1785578 -0.19452545 -0.22011669 -0.15415953
0.04357342 0.026935719 0.15047087 0.028281333 -0.04034627 0.18182744 -0.17518488 -0.27467248
0.25495204 0.21046813 -0.056241993 -0.15161192 0.043871153 -0.20219302 0.019932201 -0.115488455
0.045942925 -0.1088263 -0.32284552 -0.23231894 0.14428608 -0.05520249 -0.1555149 0.31339642
-0.115820214 -0.047161184 -0.26725787 0.08541362 -0.26687345 -0.08491634 -0.13525306 -0.17032327
-0.038086705 -0.05205033 0.3036079 0.17863841 -0.042540867 0.07875115 0.11789351 0.17986257
0.044098813 0.0850486 0.22674704 0.06911157 0.23593284 0.16691375 -0.07119443 0.26331103
-0.07446627 0.09770004 0.052746907 0.24658667 0.21035199 -0.2996975 0.103025235 0.14264247
0.019965641 0.108454116 0.2540998 0.18834352 0.13116072 0.2502952 0.16529405 -0.041283578
0.13222577 0.2418668 0.33352408 0.27501893 -0.15955846 0.059951916 0.035817623 0.32461506
0.13688338 -0.25454968 0.045234136 0.11253186 0.24514468 -0.056361813 0.232458 -0.27925622
0.21191776 -0.0918884 -0.2599067 -0.18786459 -0.01291889 0.09566852 0.08419471 -0.13087529
0.16303498 -0.009684772 -0.111359544 0.16130465 0.15590584 -0.1046715 -0.11764637 -0.114899635
0.25070006 -0.076907754 -0.25311205 -0.08715931 -0.24649759 -0.18921429 0.13161081 0.2227956
0.22704251 0.08009857 -0.26881924 0.25215727 -0.0011018948 0.09715374 -0.23293367 0.18999836
-0.0022305222 -0.06586857 -0.27872214 -0.02700342 -0.09908271 -0.2445767 -0.24885382 -0.21271554
-0.11070144 -0.31981152 0.05180709 -0.05524018 -0.21370922 -0.24858266 0.025530852 0.13710243
00000000: a7f1 babe d7b1 abbe 5165 57be 7737 68be
00000010: 37f3 91bd cad4 a2be 12be 6ebe c896 54bd
00000020: 1f5e c2be 8852 873e c503 873d 7d0e a03e
00000030: bff5 3fbe 5ce4 3a3d 5a70 913e 601d 4e3d
00000040: 4a92 a8be 969b 563e fd7a 0ebe d798 0abb
00000050: 07ca 853e aab0 ecbd ae52 263e 9e3a 3dbe
00000060: ddb8 203e 3bd7 4d3e d0b0 833e 0a01 d13d
00000070: 52c5 72be 85e9 80bd 67d8 84be 59a4 fb3d
00000080: 7b6f f1bd a32c 263e 3fee 353e d878 1c3e
00000090: 8e7c 9cbe 737f 01bd 5ff6 0dbe 89e1 96be
000000a0: 852d 1f3e cd19 b5bd 9b96 193e ac4b 413c
000000b0: 6100 4c3e 3a3b abbe 06b4 5f3e d068 6c3e
000000c0: 7b35 4bbe e630 6d3e 1fa9 903e 2af6 40be
000000d0: 7482 6d3e 230e d3bd 2acc 22bd fcb4 283e
000000e0: aa85 83be b48d 67be af26 dc3c 4d67 5d3e
000000f0: 8242 933e 9837 523e f5a3 8bbe b794 473e
00000100: 3d71 93be e011 35bc 2a86 9fbc 616b f5bd
00000110: a807 9f3d 11b3 713c 101f 70be af65 00bd
00000120: 2768 723e 9721 0abd 22ee 6f3e 1cde 8ebe
00000130: 5c31 643e 9db6 a83d 933c 2fbe 36bc 333e
00000140: 524f e4bc a3a6 883e e9b2 893e d8d6 353e
00000150: 75b7 133e f60c 68be ab10 883d 7632 843e
00000160: 8d78 5dbe 65e4 04be b004 5e3e 27d2 57be
00000170: b387 89bd 3d8c 95be 4c73 b8bd 1c9d 56be
00000180: 71f9 1cbd 8c1b d0bd fbfd 453e 6ddd d8bd
00000190: 6c2d 81be 2097 be3c a07b 2bbe b98f 92bc
000001a0: 6cce 2c3e e802 5a3e 4a11 783d c128 54be
000001b0: 9468 633e 8365 a7bd dff8 e1bd 0ea2 abbd
000001c0: b48a 193e b489 403e 47dd 063e fb30 22be
000001d0: 3a37 813e cb9d 8c3e 2173 7fbe 1600 0bbe
000001e0: e19f 57be ed21 8b3d e3c1 afbd e187 ef3d
000001f0: dbd7 36be ae31 47be 4566 61be ffdb 1dbe
00000200: 0b7a 323d 4ca8 dc3c 0915 1a3e 41ae e73c
00000210: 2142 25bd f930 3a3e aa63 33be dfa1 8cbe
00000220: 1389 823e f584 573e 015e 66bd 2840 1bbe
00000230: 3db2 333d b00b 4fbe db48 a33c 3685 ecbd
00000240: a62e 3c3d 53e0 debd 024c a5be 04e5 6dbe
00000250: bbbf 133e 021c 62bd 4c3f 1fbe 7f75 a03e
00000260: 2633 edbd 162c 41bd 06d6 88be 56ed ae3d
00000270: a3a3 88be 9ee8 adbd c77f 0abe 3969 2ebe
00000280: ce00 1cbd ba32 55bd 7f72 9b3e fdec 363e
00000290: 553f 2ebd 4848 a13d 2772 f13d e52d 383e
000002a0: f5a0 343d f62d ae3d 6030 683e 5e8a 8d3d
000002b0: 6198 713e 70eb 2a3e 63ce 91bd b4d0 863e
000002c0: c681 98bd f516 c83d 240d 583d 3781 7c3e
000002d0: 8366 573e f371 99be e5fe d23d de10 123e
000002e0: fc8e a33c 311d de3d 5e19 823e 20dd 403e
000002f0: ff4e 063e b126 803e d842 293e f818 29bd
00000300: 3166 073e eeab 773e abc3 aa3e 48cf 8c3e
00000310: 4b63 23be 2490 753d 80b5 123d f233 a63e
00000320: 282b 0c3e 5654 82be 6e47 393d 1b77 e63d
00000330: 3507 7b3e a5db 66bd 7809 6e3e acfa 8ebe
00000340: f800 593e fc2f bcbd 7e12 85be 935f 40be
00000350: c1a9 53bc dbed c33d 476e ac3d 2c04 06be
00000360: a4f2 263e e1ac 1ebc 7910 e4bd 0c2d 253e
00000370: c8a5 1f3e 035e d6bd 94f0 f0bd 8050 ebbd
00000380: c25b 803e d081 9dbd e797 81be 9580 b2bd
00000390: dd69 7cbe 64c1 41be fcc4 063e 8824 643e
000003a0: d57d 683e b80a a43d ada2 89be c21a 813e
000003b0: 746d 90ba 8af8 c63d 2a86 6ebe ee8e 423e
000003c0: f42d 12bb 1ae6 86bd abb4 8ebe 4736 ddbc
000003d0: e0eb cabd 5072 7abe 89d3 7ebe 1ad2 59be
000003e0: 70b7 e2bd 56be a3be ac33 543d 8743 62bd
000003f0: 97d6 5abe 748c 7ebe 1426 d13c 9464 0c3e

sequential_2/conv2d_1/Conv2D f4 [64, 3, 3, 32]
0.027210338 0.05740513 0.0926665 0.006390263 0.032773852 0.06494025 0.011986943 0.04897447
0.029445698 0.099091165 -0.107497655 -0.07895779 -0.030069817 0.06301707 0.020630628 -0.0397303
-0.020067012 0.043342195 -0.0712247 0.01928397 -0.0805214 -0.115068875 -0.002711077 -0.04743265
-0.0706937 -0.005177052 0.046001893 0.024409099 0.07186038 0.03268954 -0.09565656 0.044985965
0.007070604 0.06268623 -0.023705753 0.08080186 0.06822481 0.047584347 0.065636106 -0.031529535
-0.114386305 -0.011457558 -0.08148316 0.10104416 0.06746923 0.13341999 0.10349359 0.020386564
-0.043384198 0.06376716 0.013607957 -0.09518284 -0.031179585 0.039647922 0.031608585 -0.07201256
-0.04368561 -0.042246874 -0.0059413356 -0.078443944 -0.035046708 0.0045001362 -0.09586824 -0.090429954
0.01926777 -0.11109729 -0.099557966 0.067782804 -0.033510957 0.006314216 -0.05098337 0.031113967
-0.03826826 -0.012715924 0.04811255 -0.029489633 0.023827631 0.06387849 0.059034538 -0.043336853
0.033959508 -0.03748434 -0.1333364 -0.008695725 0.06472233 0.0852663 -0.08171044 -0.053217724
-0.0267958 -0.07987959 -0.091218814 -0.035914294 -0.08230553 -0.036110546 0.008674929 -0.14262795
0.011970313 0.052298263 0.03363265 -0.096691824 -0.12297004 -0.031000556 0.09654255 -0.079391986
0.039314047 0.083329946 -0.11261058 -0.051535685 0.07395022 -0.05833176 0.0013092597 -0.008297628
0.0113882795 -0.0047298367 -0.07124823 0.11014265 -0.08310766 -0.06332667 0.038945768 -0.027116343
-0.08586144 -0.03604924 0.12718818 0.036366045 0.0013813343 0.053692434 0.0038327412 0.09381427
-0.017832153 -0.042527147 0.009575166 -0.009170988 0.06953711 0.023940872 0.008843149 -0.043566294
-0.06486749 0.07091985 -0.0028279023 -0.029426893 0.013510729 0.21173497 0.0044375206 0.023767041
-0.03292434 0.10247451 -0.007064365 -0.03541527 0.063994795 -0.00993164 -0.051735256 -0.044808127
0.005368642 -0.03611654 -0.07493466 0.015706407 -0.035669036 0.029637747 -0.008737843 -0.102086626
0.008313013 -0.013659965 -0.039963044 -0.020362685 0.022066537 0.029528381 -0.07903239 -0.049068965
-0.09189191 0.02163315 0.0027974767 0.040865883 -0.07258131 0.035392262 0.0007067644 -0.063526675
-0.03863631 -0.003034208 -0.09528192 -0.03736481 0.051319618 0.07494857 -0.06673652 -0.017246192
-0.0049359645 -0.022266543 -0.0350099 -0.101772234 -0.017414128 0.087934226 -0.0076264343 -0.1444167
-0.024468478 0.104678966 0.079957426 -0.0026859727 0.0054044453 -0.027265199 0.0888923 -0.04599408
-0.09357026 0.08952027 -0.055653457 -0.07809449 0.09553533 -0.04340892 -0.095627755 -0.02316406
-0.072781645 0.03182704 -0.04058766 0.017064476 -0.1027382 -0.09940101 0.017951429 0.020349806
-0.08699853 -0.077297844 0.073038384 -0.052109577 0.027792988 -0.05298377 -0.055385303 0.0024539356
-0.023597084 5.44636e-05 -0.036672756 -0.022936426 -0.041858748 0.18194732 0.082003206 -0.0409187
-0.12731245 0.010713667 -0.025335308 -0.053204905 -0.049933735 0.16647959 -0.01287298 -0.09424393
-0.044878397 0.14622529 -0.058123294 0.020907272 -0.037148587 0.0074087013 -0.03239022 -0.04408904
0.024344377 0.018490661 0.055737063 -0.029001053 0.025935324 0.051069655 -0.06705583 -0.08243415
00000000: 37e8 de3c a421 6b3d efc7 bd3d 6965 d13b
00000010: e03d 063d 65ff 843d e264 443c 7499 483d
00000020: 1b38 f13c 4ff0 ca3d bb27 dcbd 9fb4 a1bd
00000030: fa54 f6bc 180f 813d 9001 a93c 3dbc 22bd
00000040: 9363 a4bc 9687 313d 41de 91bd 6bf9 9d3c
00000050: 67e8 a4bd 3ba9 ebbd 53ac 31bb bd48 42bd
00000060: dcc7 90bd 43a4 a9bb 7b6c 3c3d 97f5 c73c
00000070: 892b 933d 78e5 053d 96e7 c3bd 3443 383d
00000080: 86b0 e73b a361 803d 9132 c2bc 727b a53d
00000090: 73b9 8b3d cee7 423d 396c 863d 1d25 01bd
000000a0: 5e43 eabd 7bb8 3bbc a5e0 a6bd 3ef0 ce3d
000000b0: 4f2d 8a3d 409f 083e 73f4 d33d b901 a73c
000000c0: a1b3 31bd 5b98 823d e9f3 5e3c 39ef c2bd
000000d0: 546c ffbc dc65 223d 0178 013d 527b 93bd
000000e0: afef 32bd 0f0b 2dbd 89af c2bb 38a7 a0bd
000000f0: 238d 0fbd e175 933b 9156 c4bd 5733 b9bd
00000100: 71d7 9d3c fa86 e3bd 0ce5 cbbd b6d1 8a3d
00000110: c942 09bd 7ce7 ce3b f0d3 50bd b8e2 fe3c
00000120: 2ebf 1cbd 7356 50bc aa11 453d 3e94 f1bc
00000130: 2a32 c33c bad2 823d 33ce 713d fc81 31bd
00000140: 2019 0b3d 2e89 19bd 5689 08be 8478 0ebc
00000150: 248d 843d 19a0 ae3d ce57 a7bd d4fa 59bd
00000160: de82 dbbc e997 a3bd eed0 babd de1a 13bd
00000170: cd8f a8bd a7e8 13bd 4a21 0e3c 100d 12be
00000180: 221f 443c b436 563d 64c2 093d 5d06 c6bd
00000190: b7d7 fbbd e1f4 fdbc 1ab8 c53d 4498 a2bd
000001a0: c407 213d e4a8 aa3d 60a0 e6bd 1517 53bd
000001b0: 3773 973d 49ed 6ebd 779b ab3a c6f2 07bc
000001c0: e895 3a3c bffc 9abb 98ea 91bd 7892 e13d
000001d0: 5934 aabd 6ab1 81bd 9985 1f3d 1823 debc
000001e0: 1fd8 afbd 5ea8 13bd 9e3d 023e 90f4 143d
000001f0: e30d b53a 99ec 5b3d ba2e 7b3b b221 c03d
00000200: bc14 92bc f230 2ebd 28e1 1c3c e941 16bc
00000210: 7969 8e3d a61f c43c dbe2 103c 9272 32bd
00000220: 3fd9 84bd 6d3e 913d 5454 39bb ab10 f1bc
00000230: 1b5c 5d3c 0dd1 583e 9f68 913b 19b3 c23c
00000240: acdb 06bd 28de d13d 307c e7bb 9a0f 11bd
00000250: b40f 833d 51b8 22bc 59e8 53bd ba88 37bd
00000260: 6feb af3b f0ee 13bd 5877 99bd b9aa 803c
00000270: b219 12bd dcca f23c 2b29 0fbc cb12 d1bd
00000280: 4e33 083c 0cce 5fbc 4ab0 23bd a5cf a6bc
00000290: e2c4 b43c 81e5 f13c bcdb a1bd 8afc 48bd
000002a0: d331 bcbd 0138 b13c df55 373b fc62 273d
000002b0: 83a5 94bd 7af7 103d 2846 393a 461a 82bd
000002c0: 1b41 1ebd 90d9 46bb 2b23 c3bd d80b 19bd
000002d0: 8534 523d a37e 993d 28ad 88bd e347 8dbc
000002e0: dfbd a1bb 5368 b6bc 8a66 0fbd f66d d0bd
000002f0: 13a8 8ebc dc16 b43d 2be7 f9bb f9e1 13be
00000300: 1e72 c8bc ed61 d63d b8c0 a33d 2507 30bb
00000310: c617 b13b 445b dfbc 2b0d b63d 4a64 3cbd
00000320: c4a1 bfbd 6756 b73d e1f4 63bd 01f0 9fbd
00000330: 07a8 c33d 8dcd 31bd 7cd8 c3bd 8ec2 bdbc
00000340: 8b0e 95bd 125d 023d 3f3f 26bd cdca 8b3c
00000350: 6868 d2bd c292 cbbd e00e 933c a3b4 a63c
00000360: 492c b2bd 554e 9ebd 2695 953d da70 55bd
00000370: 1fae e33c 8205 59bd b3db 62bd 35d2 203b
00000380: ac4e c1bc d86f 6438 2c36 16bd 2ce5 bbbc
00000390: 1474 2bbd 6650 3a3e 4cf1 a73d 5e9a 27bd
000003a0: 325e 02be 6088 2f3c fe8b cfbc 63ed 59bd
000003b0: 5187 4cbd a079 2a3e 31e9 52bc f602 c1bd
000003c0: 69d2 37bd 15bc 153e b112 6ebd ba45 ab3c
000003d0: 1e29 18bd b1c4 f23b 9bab 04bd b696 34bd
000003e0: dc6d c73c ba79 973c 8c4c 643d 9e93 edbc
000003f0: 5176 d43c 6a2e 513d 9154 89bd 3cd3 a8bd

sequential_2/conv2d_2/Conv2D f4 [64, 3, 3, 64]
0.13810502 -0.010140947 0.0525421 -0.07817246 0.0918448 -0.027163146 0.02387554 0.0283491
0.043699194 -0.02905616 -0.04763898 -0.079029255 -0.021772802 0.033651914 0.024080673 0.021517832
0.13443172 0.035925496 0.09865121 -0.042454846 0.038447 0.05252839 -0.004713797 -0.0043303473
-0.061120063 -0.011561849 0.038277194 0.06514465 -0.049369313 -0.059080716 0.03591324 0.08654343
-0.11322005 0.03914733 0.030409664 -0.011452974 -0.07933535 -0.008921136 -0.09369327 0.013457701
-0.019612515 0.0110115325 -0.029094238 0.023003409 -0.0037675616 -0.07698147 -0.04100227 0.013340339
-0.011428473 -0.04602041 0.051825695 0.035493013 -0.044447284 -0.096893266 0.0096299695 0.017390525
0.04075979 0.023279006 -0.004667757 0.023594016 0.011610719 -0.030140873 0.0025647727 -0.0350975
-0.071207896 -0.0047471067 -0.002157166 -0.11633224 -0.039354768 0.02433857 -0.115070455 -0.0113940155
0.052217267 0.025513792 -0.074412175 0.019090777 -0.05420852 0.0029795093 -0.0052911686 -0.0033620554
0.048318222 -0.01301868 -0.07888925 -0.04825041 -0.0035161579 0.06129344 0.023629664 -0.059046272
-0.17038484 0.041945457 0.024517031 -0.06983176 0.08789066 0.011594057 -0.12544127 -0.0150728775
0.006263487 -0.01809319 0.02322366 -0.04720227 0.0492931 0.051265415 -0.08532605 -0.045005966
-0.12047015 -0.077991 -0.015732093 -0.06276739 0.034376003 -0.019670926 0.019658392 -0.007836543
-0.07514999 -0.008296808 -0.020500861 0.029504772 -0.0104561495 -0.07247823 0.010409289 -0.10839287
-0.0914468 -0.090314105 -0.0047247293 -0.09118932 0.0170432 -0.11537569 -0.055970583 -0.04855483
-0.011866931 0.016539214 0.035536706 0.0038189357 -0.060334567 -0.020674989 -0.13927221 -0.047224417
0.05519763 -0.061721016 0.044316392 0.043925192 -0.100475006 0.020181058 -0.086402155 -0.04467609
-0.036664475 -0.07067809 -0.06505273 -0.0018241557 -0.014573158 0.07756376 0.036379986 -0.04018295
-0.122171886 0.09832447 0.056354813 -0.107994854 0.06162495 0.048056856 -0.04035492 -0.035090446
0.017316695 -0.05841972 -0.033099454 -0.095702164 0.04835275 0.06425869 -0.06226294 -0.04927738
-0.069991164 -0.07773455 0.05437683 0.043005448 -0.028502433 -0.06969075 -0.04777885 -0.06420227
-0.08258414 0.00086349156 -0.048095375 0.005328183 0.037169173 -0.05681276 -0.037381627 -0.10130784
-0.06401255 0.016872585 0.005561538 0.0017063126 -0.0038753427 -0.073273115 -0.10603558 -0.091476254
0.042343516 -0.008222644 -0.048048183 0.053601343 0.06632559 -0.03102174 0.0050118724 -0.0663656
0.052832842 0.0252221 -0.07924024 -0.044563446 0.092021555 0.016866507 0.12561467 -0.07567431
0.0792065 -0.0215685 0.054922402 -0.11519384 -0.08265299 0.047715504 -0.000598132 -0.020695616
0.079191536 -0.10231129 -0.049013797 0.03771131 -0.051952295 -0.012634361 0.070493124 0.07474317
-0.09205302 -0.05033262 -0.0024502473 0.069783725 -0.0046458486 0.024241144 -0.06683996 0.009975158
0.030579044 0.012434168 0.0026235129 0.044396974 0.024226375 0.051785465 0.056486607 0.052517008
0.059696727 0.016963644 -0.05360932 -0.007009858 0.060453735 0.02530918 -0.017873421 0.054801118
-0.06234875 -0.002155239 -0.045082156 -0.00097197434 0.0145894345 0.064464554 0.048672654 0.055293173
00000000: 676b 0d3e 3726 26bc 6336 573d e218 a0bd
00000010: 2019 bc3d 3f85 debc a396 c33c 5f3c e83c
00000020: edfd 323d 2f07 eebc 1721 43bd 17da a1bd
00000030: e05c b2bc 97d6 093d d544 c53c 2a46 b03c
00000040: 78a8 093e 9d26 133d a509 ca3d 22e5 2dbd
00000050: 9a7a 1d3d 0228 573d 3276 9abb 96e5 8dbb
00000060: 0859 7abd e96d 3dbc 8cc8 1c3d 8f6a 853d
00000070: 7a37 4abd 9ffe 71bd c319 133d af3d b13d
00000080: eadf e7bd f358 203d b01d f93c 41a5 3bbc
00000090: 927a a2bd f529 12bc 42e2 bfbd b07d 5c3c
000000a0: 6daa a0bc b769 343c 0a57 eebc a571 bc3c
000000b0: 32e9 76bb 76a8 9dbd fff1 27bd 7091 5a3c
000000c0: 7d3e 3bbc e67f 3cbd 2e47 543d 1f61 113d
000000d0: 5b0e 36bd fa6f c6bd 05c7 1d3c 9376 8e3c
000000e0: bdf3 263d 9db3 be3c fcf3 98bb 3d48 c13c
000000f0: e33a 3e3c fee9 f6bc bf15 283b 65c2 0fbd
00000100: 72d5 91bd 9e8d 9bbb 3d5f 0dbb 993f eebd
00000110: 7732 21bd ae61 c73c 0faa ebbd f7ad 3abc
00000120: c6e1 553d 4d02 d13c 6965 98bd 4364 9c3c
00000130: c109 5ebd df43 433b 8a61 adbb ee55 5cbb
00000140: 54e9 453d 4d4c 55bc b090 a1bd 39a2 45bd
00000150: 576f 66bb d50e 7b3d ff92 c13c 81da 71bd
00000160: 5d79 2ebe 00cf 2b3d f1d7 c83c f403 8fbd
00000170: 0500 b43d 00f5 3d3c ad73 00be 3bf4 76bc
00000180: f03d cd3b 2b38 94bc 8c3f be3c 2b57 41bd
00000190: 90e7 493d affb 513d 6dbf aebd 2d58 38bd
000001a0: 0eb9 f6bd bfb9 9fbd 97e0 80bc 308c 80bd
000001b0: dacd 0c3d ec24 a1bc a30a a13c d864 00bc
000001c0: 3de8 99bd 56ef 07bc 6cf1 a7bc feb3 f13c
000001d0: 4550 2bbc 776f 94bd b98b 2a3c 15fd ddbd
000001e0: 7648 bbbd 9af6 b8bd e7d1 9abb 77c1 babd
000001f0: 2e9e 8b3c 174a ecbd 6941 65bd 6ee1 46bd
00000200: 846d 42bc 3f7d 873c f08e 113d 1c47 7a3b
00000210: 6121 77bd 985e a9bc 609d 0ebe 646e 41bd
00000220: e916 623d 2dcf 7cbd 1b85 353d e7ea 333d
00000230: d7c5 cdbd bf52 a53c 9df3 b0bd 47fe 36bd
00000240: 7d2d 16bd adbf 90bd 5e3a 85bd 8218 efba
00000250: 41c4 6ebc c0d9 9e3d 2e03 153d e196 24bd
00000260: 4135 fabd 575e c93d 4ed4 663d 682c ddbd
00000270: 726a 7c3d 44d7 443d 334b 25bd 00bb 0fbd
00000280: bedb 8d3c 8449 6fbd 4b93 07bd 7fff c3bd
00000290: 880d 463d 0f9a 833d 6d07 7fbd 14d7 49bd
000002a0: 8757 8fbd 4b33 9fbd 3dba 5e3d 7b26 303d
000002b0: ef7d e9bc 06ba 8ebd c1b3 43bd 7b7c 83bd
000002c0: e021 a9bd f05b 623a a8ff 44bd 0a98 ae3b
000002d0: b43e 183d 7fb4 68bd 7a1d 19bd 7c7a cfbd
000002e0: 0319 83bd 6038 8a3c 903d b63b 5aa6 df3a
000002f0: 76f9 7dbb 3710 96bd 2f29 d9bd e757 bbbd
00000300: 6570 2d3d 45b8 06bc 2cce 44bd 158d 5b3d
00000310: b6d5 873d 4e21 febc a23a a43b b0ea 87bd
00000320: 4067 583d 949e ce3c b548 a2bd 2988 36bd
00000330: cc75 bc3d a12b 8a3c 22a1 003e 22fb 9abd
00000340: 0437 a23d 6cb0 b0bc 50f6 603d bfea ebbd
00000350: f945 a9bd 5571 433d f6cb 1cba da89 a9bc
00000360: 2c2f a23d 9588 d1bd b1c2 48bd 2d77 1a3d
00000370: eecb 54bd 5a00 4fbc b35e 903d f212 993d
00000380: 4b86 bcbd 9429 4ebd 5494 20bb c5ea 8e3d
00000390: 343c 98bb 5d95 c63c 64e3 88bd d86e 233c
000003a0: e780 fa3c aeb8 4b3c 3eef 2b3b 9ad9 353d
000003b0: 6476 c63c ff1c 543d 805e 673d 131c 573d
000003c0: 8e84 743d 57f7 8a3c 7295 5bbd f3b2 e5bb
000003d0: 569e 773d 3355 cf3c 486b 92bc 2377 603d
000003e0: 6761 7fbd e93e 0dbb 11a8 38bd 18cc 7eba
000003f0: 8608 6f3c fe05 843d fa5c 473d 187b 623d

sequential_2/conv2d_3/Conv2D f4 [64, 3, 3, 64]
0.024570594 -0.025538074 -0.029544145 -0.019817742 0.018198 0.04072626 0.029574309 -0.1103808
-0.0062294714 0.062415715 0.057169102 0.015654894 -0.0035265274 -0.081208766 0.0056114267 0.0041787256
0.05571626 0.015217449 0.026340336 -0.062904865 0.06479224 -0.10421081 0.031398006 0.038436297
-0.034931447 -0.04667125 -0.08007894 0.04079572 0.019957269 -0.05146083 0.054248564 0.03194847
-0.031229705 -0.015031943 0.050140847 -0.07744078 0.004384339 0.0017711242 -0.003499399 -0.08540535
0.05039276 -0.0067285444 0.0032196005 -0.036123518 -0.048914377 0.02589838 -0.03717267 -0.09178862
-0.03909533 -0.017184962 -0.03250646 0.004600649 -0.023162534 -0.025471756 -0.18872394 -0.07958974
-0.047891263 0.032253377 -0.09023676 0.027080862 -0.05885845 0.020289725 -0.013905131 -0.05258173
-0.037792746 0.059811354 -0.025217501 -0.08182157 0.021502323 0.07142558 0.04627569 0.0647408
0.060627032 0.03114322 -0.0732074 -0.11572117 -0.04290678 -0.089527324 -0.026229402 0.068601795
-0.001111578 -0.048180692 0.04011461 -0.043981384 0.021573912 0.03402754 0.03426058 -0.066387236
-0.062205482 -0.06992415 0.001923008 0.025865057 0.027345791 0.014294199 -0.022201015 -0.02474581
-0.009997577 -0.012973828 -0.04475441 -0.0021103565 -0.019545864 0.0030223106 0.086138524 -0.038499597
-0.050346434 0.05150149 -0.022136554 -0.058888838 -0.07151329 -0.023256931 0.045470685 0.0056934655
-0.05975298 0.0719524 0.021634236 0.059960518 0.07261022 -2.10984e-05 0.15070868 0.019592203
-0.08300352 0.00129776 -0.0022969537 0.05368114 -0.021201672 -0.044110253 -0.02248468 -0.055092406
-0.07631386 -0.00047161186 -0.0443951 -0.010858614 -5.886019e-05 -0.046056338 -0.06770806 0.06788407
0.06109269 0.04955468 -0.03171142 -0.07148702 0.037398595 -0.03844458 -0.02420567 -0.058540866
-0.006685163 -0.06249024 -0.062298562 -0.018421678 -0.035659514 0.07945736 0.025952851 0.008762048
0.032931898 0.046642665 0.062185496 0.005183934 0.026308052 0.05193117 0.05379487 0.07051477
-0.009126889 -0.011343799 0.013571425 0.05379812 0.021631086 -0.05489586 0.07309567 0.049721733
0.046241015 -0.043645807 -0.09682141 -0.016071888 0.00606085 0.08341228 0.0897073 -0.05002266
-0.014650858 -0.013301728 -0.06254369 0.04776443 -0.014557761 0.07080915 0.1129683 0.051003926
-0.046619207 0.04948626 0.06262914 -0.024643648 -0.020211669 -0.07390629 0.052671507 -0.06669218
0.06483995 -0.04730264 0.007124946 -0.043138783 0.012001873 0.0067565283 -0.030812982 -0.07859644
-0.05932675 0.019981034 -0.036468357 -0.11922486 -0.106505506 -0.079419985 -0.04699136 0.03183442
-0.07831025 0.0024028989 0.037522312 -0.027713034 0.071801655 -0.17402846 -0.08301294 -0.017341172
-0.021933999 -0.002505226 0.03901099 -0.017837707 -0.1095566 -0.10449874 0.03369902 -0.042257924
-0.050223842 -0.07614429 0.0029313061 0.03257229 0.03290289 0.046750665 -0.12405336 -0.101664
-0.053617883 -0.08387742 -0.0826239 -0.0032182718 -0.040633984 -0.12366539 0.028108828 -0.1189834
-0.06232841 0.012240526 0.04292992 -0.023740407 0.013572684 -0.043971244 -0.15663654 0.016614355
-0.076737165 -0.04212032 -0.15103862 0.054844547 -0.033942103 -0.0051072952 -0.08917835 -0.0033227766
00000000: 4548 c93c 3935 d1bc 9006 f2bc d158 a2bc
00000010: f913 953c 94d0 263d d245 f23c 540f e2bd
00000020: 9820 ccbb 9fa7 7f3d 262a 6a3d b13e 803c
00000030: 501d 67bb c850 a6bd 0fe0 b73b b1ed 883b
00000040: bc36 643d 9b52 793c b0c7 d73c 44d4 80bd
00000050: cbb1 843d 7a6c d5bd 329b 003d 616f 1d3d
00000060: 4714 0fbd 5a2a 3fbd 6d00 a4bd 6a19 273d
00000070: 6d7d a33c 97c8 52bd be33 5e3d 66dc 023d
00000080: 70d5 ffbc 8a48 76bc 7d60 4d3d 4699 9ebd
00000090: 80aa 8f3b 1125 e83a 2c56 65bb 00e9 aebd
000000a0: a468 4e3d 1f7b dcbb efff 523b 41f6 13bd
000000b0: 715a 48bd d728 d43c 5f42 18bd acfb bbbd
000000c0: 6d22 20bd 7ac7 8cbc 7e25 05bd 0ac1 963b
000000d0: 5bbf bdbc 25aa d0bc d940 41be f2ff a2bd
000000e0: a129 44bd 1e1c 043d 0dce b8bd afd8 dd3c
000000f0: 8f15 71bd a336 a63c 59d2 63bc f15f 57bd
00000100: 91cc 1abd c0fc 743d ef94 cebc 1192 a7bd
00000110: a425 b03c 9347 923d 948b 3d3d d396 843d
00000120: 0d54 783d 1120 ff3c c3ed 95bd 39ff ecbd
00000130: 05bf 2fbd 1a5a b7bd 0bdf d6bc 197f 8c3d
00000140: 5eb2 91ba 1e59 45bd 384f 243d d325 34bd
00000150: c6bb b03c 7660 0b3d d254 0c3d 08f6 87bd
00000160: 2dcb 7ebd 6534 8fbd 710d fc3a f5e2 d33c
00000170: 4804 e03c 3732 6a3c e7de b5bc bab7 cabc
00000180: e1cc 23bc 2e90 54bc 6650 37bd e84d 0abb
00000190: a61e a0bc f511 463b 6569 b03d c1b1 1dbd
000001a0: 1038 4ebd 3af3 523d b857 b5bc 6c35 71bd
000001b0: 8f75 92bd 5285 bebc 783f 3a3d 4090 ba3b
000001c0: 8abf 74bd c85b 933d 483a b13c 2999 753d
000001d0: abb4 943d 78fc b0b7 6053 1a3e d47f a03c
000001e0: c0fd a9bd 9a19 aa3a 7d88 16bb c1e0 5b3d
000001f0: 21af adbc f4ac 34bd cb31 b8bc 93a8 61bd
00000200: 714a 9cbd ac42 f7b9 a3d7 35bd 54e8 31bc
00000210: a6e0 76b8 92a5 3cbd 86aa 8abd ce06 8b3d
00000220: 543c 7a3d d9f9 4a3d d5e3 01bd c967 92bd
00000230: 452f 193d 1078 1dbd f84a c6bc 8cc8 6fbd
00000240: 360f dbbb c4f5 7fbd c72c 7fbd 0fe9 96bc
00000250: b60f 12bd 8aba a23d 139b d43c b18e 0f3c
00000260: 99e3 063d 610c 3f3d 38b6 7e3d fddd a93b
00000270: fc83 d73c c7b5 543d 0258 5c3d 0c6a 903d
00000280: f288 15bc 57db 39bc af5a 5e3c 6b5b 5c3d
00000290: ad33 b13c 7bda 60bd 2fb3 953d 04a9 4b3d
000002a0: 3867 3d3d f2c5 32bd 4e4a c6bd 31a9 83bc
000002b0: 189a c63b 0fd4 aa3d 76b8 b73d 90e4 4cbd
000002c0: 270a 70bc 7eef 59bc e816 80bd a3a4 433d
000002d0: ad83 6ebc 6304 913d ed5b e73d 7ee9 503d
000002e0: c8f3 3ebd 1bb2 4a3d b543 803d 7ae1 c9bc
000002f0: f192 a5bc 2e5c 97bd 14be 573d e995 88bd
00000300: cfca 843d 6ac0 41bd 6178 e93b 4bb2 30bd
00000310: 81a3 443c de65 dd3b 826b fcbc 2cf7 a0bd
00000320: 9b00 73bd 44af a33c d85f 15bd 2a2c f4bd
00000330: 8f1f dabd f2a6 a2bd 037a 40bd cf64 023d
00000340: 2061 a0bd f479 1d3b ffb0 193d 7206 e3bc
00000350: bf0c 933d 8434 32be b002 aabd 130f 8ebc
00000360: eeae b3bc b82e 24bb fdc9 1f3d 6220 92bc
00000370: 365f e0bd 6f03 d6bd fc07 0a3d a516 2dbd
00000380: 84b7 4dbd 8af1 9bbd 281b 403b 866a 053d
00000390: 2ec5 063d a07d 3f3d b00f febd 3735 d0bd
000003a0: 6d9e 5bbd edc7 abbd b836 a9bd a4e9 52bb
000003b0: d26f 26bd 4844 fdbd 7c44 e63c 92ad f3bd
000003c0: 134c 7fbd 7d8c 483c 49d7 2f3d 3e7b c2bc
000003d0: f65f 5e3c 311b 34bd 5465 20be d41a 883c
000003e0: 6028 9dbd 5b86 2cbd dea9 1abe ada4 603d
000003f0: e006 0bbd 195b a7bb 24a3 b6bd f1c2 59bb

sequential_2/conv2d_4/Conv2D f4 [64, 3, 3, 64]
0.08970182 0.017500717 -0.066679545 0.033911075 -0.06518797 -0.038868334 0.00067316287 0.013707869
-0.053601824 -0.002362015 -0.0020868876 0.027215032 -0.081260994 -0.0042894525 0.079477146 -0.09927698
0.027289638 0.0025292207 0.0089932205 -0.0029204807 0.038327716 0.034350764 0.05574688 -0.12452771
-0.06008461 0.0633828 0.019721404 -0.012562803 0.032916203 -0.02736802 -0.023303278 -0.06871977
-0.016904037 -0.05178041 0.060528833 -0.06377251 -0.07474823 0.0018151845 -0.10967704 -0.013857076
0.020088362 -0.07372611 0.022441737 0.13353108 -0.06411415 0.018045055 -0.046456356 0.016659798
-0.02818061 0.038452588 -0.05713028 -0.0038847239 -0.1009248 -0.01840465 -0.047331437 0.011071857
-0.11200693 0.07855931 -0.018648278 -0.016707463 -0.07312397 0.007290802 -0.03418943 -0.03328991
0.05748737 0.063084394 0.022500154 -0.0049235527 -0.022954455 0.042814344 0.030811453 -0.027149038
0.08037588 -0.03662116 -0.008622236 -0.0041346923 0.0104609355 -0.051216688 0.08642153 -0.009679453
-0.003949444 0.085618444 0.0070354505 0.042295486 -0.058633693 0.0016949761 -0.05599437 -0.04939868
0.024474483 0.04693308 -0.019813491 -0.061611526 0.03463475 -0.028543262 0.03424325 -0.047328465
0.05106556 -0.04031177 0.09483238 0.024303563 0.021696653 -0.00094473787 -0.0044946363 -0.04089232
0.055144604 -0.041937117 -0.022755506 0.088006385 -0.061338633 -0.030746447 0.0024624122 -0.041438468
-0.01986505 0.022519924 0.0729212 -0.0773651 -0.022075934 -0.038227502 -0.04246638 -0.056097522
-0.022203937 -0.001978539 0.043929517 -0.0024269316 -0.043905646 0.17747803 -0.0016323158 0.049824696
0.06296341 0.00047909084 0.03453917 0.09024571 -0.040851753 -0.048463397 0.0045255153 0.080158114
0.037559982 0.14057924 -0.0019876554 0.037213705 0.08244506 -0.034549106 0.002080284 0.09117584
0.07564584 0.073391445 0.0146170845 0.10460576 0.01638899 0.038731407 0.044603642 -0.011166215
0.026443444 -0.028204175 0.0010449999 0.11932233 0.013771086 0.104045704 -0.10010887 0.026825048
-0.0035470568 0.022773731 0.13869599 0.03100248 0.061531547 0.02231645 -0.009843514 -0.056464892
-0.04874707 -0.009899886 0.09768911 -0.05389234 -0.027364325 -0.022787632 0.079110175 -0.012427277
-0.0013938176 -0.002996259 0.10982445 0.08349344 0.06693497 0.11271921 -0.03923149 0.12562124
0.02903222 0.06661322 0.04045038 0.0080164615 0.11137087 0.10345823 0.010959347 0.04757378
-0.024794761 0.028892532 -0.10407737 -0.045612797 -0.046419106 0.06813812 0.0112414 -0.06853636
-0.05299998 -0.022858737 0.0013882145 0.0114279855 -0.10524674 -0.055788875 -0.020540785 -0.11548591
-0.029712211 0.08907442 -0.015495618 -0.08691184 0.051707212 -0.08304543 -0.054317124 -0.04623804
0.039269727 0.054014303 -0.040634673 -0.035658594 0.048874836 -2.1070478e-05 -0.060630318 -0.047995534
-0.061175726 -0.079136804 0.09192187 0.0011092077 0.015629701 -0.10171477 -0.10911561 -0.027220033
-0.032493513 0.009088561 -0.084653795 0.01008776 0.007901357 0.02657558 -0.08189976 -0.054838307
-0.02157836 -0.028062955 0.014997754 -0.12605973 -0.094876975 -0.118269004 0.005902812 -0.09317344
-0.074374214 0.01537497 0.05610502 -0.04862048 0.0076741725 -0.062236972 0.05806158 -0.10065883
00000000: 96b5 b73d aa5d 8f3c 498f 88bd 57e6 0a3d
00000010: 4581 85bd 6734 1fbd 3277 303a f896 603c
00000020: 968d 5bbd 09cc 1abb 2ac4 08bb 0ff2 de3c
00000030: 2a6c a6bd 898e 8cbb eac4 a23d bb51 cbbd
00000040: 858e df3c 48c1 253b 4d58 133c 8965 3fbb
00000050: 86fd 1c3d 63b3 0c3d d756 643d 6208 ffbd
00000060: 481b 76bd d7ce 813d c88e a13c 37d4 4dbc
00000070: 24d3 063d e632 e0bc 84e6 bebc f3bc 8cbd
00000080: 567a 8abc b217 54bd 15ed 773d 299b 82bd
00000090: 9a15 99bd 7ceb ed3a 5b9e e0bd ca08 63bc
000000a0: 5990 a43c b7fd 96bd bcd7 b73c 5fbc 083e
000000b0: 484e 83bd 39d3 933c 0549 3ebd 217a 883c
000000c0: 06db e6bc 7680 1d3d 7101 6abd da96 7ebb
000000d0: a9b1 cebd 59c5 96bc 9cde 41bd bc66 353c
000000e0: e463 e5bd b4e3 a03d 46c4 98bc 17de 88bc
000000f0: 05c2 95bd aee7 ee3b 370a 0cbd 005b 08bd
00000100: e077 6b3d 6432 813d 3e52 b83c c155 a1bb
00000110: fb0a bcbc 185e 2f3d 4d68 fc3c a967 debc
00000120: 1c9c a43d 1200 16bd 4744 0dbc 507c 87bb
00000130: 5864 2b3c 97c8 51bd c5fd b03d 9296 1ebc
00000140: 566a 81bb b958 af3d a389 e63b 083e 2d3d
00000150: e229 70bd f629 de3a 5a5a 65bd 4556 4abd
00000160: b67e c83c e73c 403d e74f a2bc 5e5c 7cbd
00000170: 2bdd 0d3d 8fd3 e9bc a642 0c3d 7edb 41bd
00000180: 1f2a 513d f41d 25bd 7b37 c23d 4418 c73c
00000190: 2ebd b13c 49a8 77ba be47 93bb b57e 27bd
000001a0: 4fdf 613d 41c6 2bbd c169 babc b13c b43d
000001b0: 383e 7bbd f9df fbbc 6c60 213b 62bb 29bd
000001c0: 08bc a2bc b47b b83c b657 953d 9871 9ebd
000001d0: 97d8 b4bc 7194 1cbd 3af1 2dbd 84c6 65bd
000001e0: 08e5 b5bc 60aa 01bb 70ef 333d 280d 1fbb
000001f0: 68d6 33bd cdbc 353e 6ef3 d5ba fb14 4c3d
00000200: f6f2 803d 7c2e fb39 f278 0d3d bed2 b83d
00000210: 2b54 27bd 8e81 46bd c64a 943b f029 a43d
00000220: 7fd8 193d 01f4 0f3e 5343 02bb 666d 183d
00000230: f5d8 a83d 5d83 0dbd 6055 083b 66ba ba3d
00000240: 35ec 9a3d 414e 963d 7f7c 6f3c 8b3b d63d
00000250: 3442 863c d3a4 1e3d 4fb2 363d 80f2 36bc
00000260: ec9f d83c 710c e7bc 61f8 883a 445f f43d
00000270: 1fa0 613c ea15 d53d e105 cdbd 34c0 db3c
00000280: bd75 68bb fa8f ba3c 5206 0e3e eaf8 fd3c
00000290: 8108 7c3d fdd0 b63c b146 21bc bb47 67bd
000002a0: 02ab 47bd 2233 22bc 3a11 c83d 37be 5cbd
000002b0: 262b e0bc 21ad babc 8404 a23d c79b 4bbc
000002c0: c2b0 b6ba e25c 44bb a4eb e03d 9cfe aa3d
000002d0: 3415 893d 54d9 e63d 33b1 20bd dba2 003e
000002e0: fad4 ed3c 836c 883d 4caf 253d 7a57 033c
000002f0: 6916 e43d e9e1 d33d d58e 333c b9dc 423d
00000300: 621e cbbc 08b0 ec3c 8426 d5bd 7cd4 3abd
00000310: f621 3ebd 008c 8b3d d92d 383c cb5c 8cbd
00000320: 8216 59bd 3f42 bbbc c0f4 b53a 723c 3b3c
00000330: 9a8b d7bd e082 64bd 2645 a8bc e083 ecbd
00000340: 0667 f3bc a66c b63d 55e1 7dbc d6fe b1bd
00000350: f1ca 533d b913 aabd a27b 5ebd 1964 3dbd
00000360: 4bd9 203d 1a3e 5d3d 8b70 26bd bf0e 12bd
00000370: fb30 483d 82c0 b0b7 7f57 78bd f796 44bd
00000380: 6693 7abd 7a12 a2bd 8941 bc3d d662 913a
00000390: dc09 803c d54f d0bd 0178 dfbd 8cfc debc
000003a0: eb17 05bd 30e8 143c f85e adbd 2247 253c
000003b0: b174 013c 08b5 d93c 10bb a7bd 229e 60bd
000003c0: 1ac5 b0bc 48e4 e5bc 24b9 753c cd15 01be
000003d0: dc4e c2bd 0537 f2bd 606c c13b b7d1 bebd
000003e0: 8251 98bd 4ce7 7b3c 61ce 653d 4526 47bd
000003f0: a077 fb3b 32ec 7ebd fbd1 6d3d 3726 cebd
