app/src/main/ml/BananaDisease.tflite (tflite, 741920 bytes, 16 tensors)

sequential_2/dense/BiasAdd/ReadVariableOp f4 [64]
0	0xbbf333d9	-0.007421952
1	0x3c4e75b3	0.012601304
2	0x3c480214	0.012207527
3	0xbb6edd97	-0.0036447996
4	0x3c06dd95	0.00823154
5	0xbc70ebdf	-0.014704674
6	0xba4d5648	-0.00078329863
7	0xb9ecc548	-0.00045160414
8	0xbab60f96	-0.0013890143
9	0xb9c9beda	-0.00038479903
10	0xbc0cbe59	-0.008590304
11	0xbc88c76f	-0.01669666
12	0xbc44faa1	-0.012022645
13	0x3c3afdf0	0.0114130825
14	0xbc8205c9	-0.0158719
15	0x3cd648b2	0.02615771
16	0x3c51596f	0.01277767
17	0x3d02075c	0.0317453
18	0xbc811343	-0.015756255
19	0xbb80744b	-0.003920113
20	0x3a1b5111	0.00059248606
21	0x3c9b38c1	0.01894796
22	0xbc3a2923	-0.011362347
23	0xbbeffb92	-0.0073236907
24	0xbc005f85	-0.007835274
25	0xbc4d1cea	-0.012519101
26	0xbc264ff1	-0.010150895
27	0x3c4376da	0.011930192
28	0x3c815e6b	0.015792092
29	0x3c5d79fe	0.013517855
30	0xbc83ed16	-0.016104262
31	0xbbf11103	-0.0073567643
32	0xbc17f195	-0.009273906
33	0xbcb23578	-0.021754012
34	0xbc86cd62	-0.016455356
35	0x3cc41279	0.02393459
36	0x3d181fec	0.037139818
37	0x3c9e7cf8	0.0193467
38	0x3c521a79	0.012823694
39	0x398248e3	0.00024849837
40	0xbb8e2f74	-0.004339153
41	0x3cc7eda6	0.024405312
42	0xbc270537	-0.010194114
43	0xbc63f34c	-0.013912987
44	0xbc8bb149	-0.01705231
45	0xbbfe2412	-0.0077557648
46	0xbc6b0035	-0.014343311
47	0xbc977278	-0.0184872
48	0xbbeb4ee9	-0.0071810377
49	0xbb2623c0	-0.0025350899
50	0x39fcdf2b	0.0004823146
51	0x3b70e1a8	0.0036755595
52	0x3cc59ed5	0.024123589
53	0xbb776b72	-0.0037753251
54	0x3d46215b	0.048371654
55	0x3bd70f6b	0.0065631173
56	0xbc126f4d	-0.008937669
57	0x3cad8468	0.0211813
58	0xbac0e971	-0.0014718008
59	0x3b5fb3e0	0.0034134313
60	0x39aa8403	0.00032523283
61	0x3ba195be	0.0049311807
62	0x3b101229	0.002198348
63	0xbcf9c4f4	-0.030489422

sequential_2/dense_1/BiasAdd/ReadVariableOp f4 [4]
0	0xbcb41485	-0.02198244
1	0xbbe870f0	-0.0070935413
2	0x3c5d27a5	0.0134982215
3	0x3ba22522	0.004948274

sequential_2/conv2d/BiasAdd/ReadVariableOp f4 [32]
0	0xbbbb688e	-0.005719251
1	0x3c8871d2	0.016655836
2	0xbc9125b2	-0.01771817
3	0xbc510ef7	-0.012759916
4	0xbc270cf3	-0.010195958
5	0x3bd13b5a	0.006385249
6	0xb990cf6f	-0.0002762037
7	0x3a518a62	0.0007993338
8	0xbca641dc	-0.020295076
9	0xbc070206	-0.0082402285
10	0x3d813a42	0.0630994
11	0xbb69040f	-0.0035555398
12	0xbc9323a6	-0.017961334
13	0xbb961c46	-0.004581007
14	0xbac04dce	-0.0014671625
15	0x3c8d6729	0.017261105
16	0xbc9ac2f9	-0.018891798
17	0x3c338653	0.010957318
18	0x3b190c84	0.0023353407
19	0xbc3945d1	-0.011308149
20	0xbd097cd0	-0.033566296
21	0x3d71f3f9	0.05907056
22	0xbc81c192	-0.015839372
23	0xbbe14e52	-0.0068757916
24	0xbcafdf54	-0.021468796
25	0xbba1502e	-0.0049228882
26	0xbc64a2f9	-0.013954871
27	0x3b4e4c6e	0.003147866
28	0xbc81d380	-0.015847921
29	0xbbcaeb04	-0.006192567
30	0xbb8244af	-0.003975473
31	0x3bfc807a	0.0077057453

sequential_2/conv2d_5/BiasAdd/ReadVariableOp f4 [64]
0	0xbb70841b	-0.0036699835
1	0xbbaa4450	-0.0051961318
2	0xbc218b4f	-0.009859874
3	0x3cfef568	0.031122878
4	0x3b9948a5	0.0046778494
5	0xbac1b0c2	-0.0014777409
6	0x3c56544b	0.01308162
7	0x3b604d54	0.0034225779
8	0x3caf25ab	0.021380266
9	0xbc1e576f	-0.0096644005
10	0xbc808dd8	-0.015692636
11	0x3caf9650	0.02143398
12	0x3bc5b0d3	0.006033042
13	0xbc03d9cd	-0.008047533
14	0x3c3dcc0b	0.011584292
15	0xbbca9a7a	-0.006182966
16	0xbbf80f20	-0.0075701624
17	0xbc7e457f	-0.015519499
18	0xbc10e277	-0.008843056
19	0x3c9ba47f	0.018999336
20	0xbc486275	-0.012230505
21	0xbc42efff	-0.01189804
22	0xbb215524	-0.0024617398
23	0xbbda93f0	-0.0066704676
24	0xbbc7fd01	-0.0061031585
25	0x3c8a3604	0.01687146
26	0x3b885a2f	0.0041611413
27	0xb98f085f	-0.00027281322
28	0x391a9167	0.00014740751
29	0xbc8d053f	-0.017214416
30	0x3c7e95a5	0.015538608
31	0x3bae6948	0.005322609
32	0xbbc636d8	-0.0060490184
33	0x3d79f7a7	0.061027195
34	0xbb083e47	-0.0020789073
35	0xbc218b2a	-0.009859839
36	0xbbaa4b52	-0.005196967
37	0xbb9f0392	-0.0048527205
38	0xbbc59777	-0.006030019
39	0xbbc96a7f	-0.0061467285
40	0xbc01478f	-0.007890596
41	0xbc458ac8	-0.012057014
42	0xbc4aa110	-0.012367502
43	0x3bb53ecf	0.005531169
44	0x3b74df38	0.0037364494
45	0xbc380e1a	-0.011233831
46	0xbbc4c99a	-0.006005478
47	0x3be8457c	0.0070883613
48	0xbc30c3af	-0.010788842
49	0xbb1fb6f6	-0.0024370528
50	0x3c035b44	0.008017365
51	0xbbf2ad54	-0.007405916
52	0x3a69450b	0.0008898533
53	0xbc76c578	-0.015061729
54	0x3c15440d	0.009110463
55	0xbc1c3438	-0.009533934
56	0x3cf283fd	0.029603953
57	0xb904f465	-0.00012679545
58	0x3c067081	0.008205534
59	0x3c4d9b3c	0.012549218
60	0x3aad10c5	0.001320385
61	0xbc0eda90	-0.008719102
62	0xbc87a261	-0.01655692
63	0xbbc2ef3a	-0.005948928

sequential_2/conv2d_4/BiasAdd/ReadVariableOp f4 [64]
0	0xbb1eb4af	-0.0024216583
1	0xbbd4967b	-0.006487665
2	0xbbce0390	-0.006287046
3	0xbb86e375	-0.0041164705
4	0x3cdae8de	0.026722368
5	0xbb22b913	-0.002482955
6	0x3af879ba	0.0018957176
7	0xbc1302a1	-0.008972795
8	0x3cd61a2c	0.026135527
9	0xbc3d9669	-0.011571505
10	0xbc12a4a4	-0.008950386
11	0xbc250d62	-0.0100739915
12	0x3ce9f0bc	0.028557174
13	0xba92a415	-0.0011187816
14	0x3cc3871c	0.023868136
15	0xbbb58616	-0.005539666
16	0xbc716d16	-0.014735481
17	0xbc578480	-0.013154149
18	0xbc0bb6b5	-0.0085274475
19	0xbc118b42	-0.008883299
20	0xbbaf302a	-0.005346318
21	0xbad1798e	-0.0015981661
22	0xbc343dcb	-0.011001061
23	0xbc0ce65d	-0.008599845
24	0xbc267b23	-0.010161194
25	0xbcb595bb	-0.022166124
26	0xbbaf74cd	-0.0053545
27	0xbc3f0a17	-0.01166012
28	0x38818314	6.1756145e-05
29	0xbbc4c7e8	-0.006005276
30	0xbc234df9	-0.009967321
31	0xbc1ae33d	-0.009453592
32	0xbc2f6721	-0.01070574
33	0xbb3827a3	-0.0028099797
34	0xbc28ff06	-0.010314709
35	0x3cb13f94	0.021636762
36	0xbc28551b	-0.010274197
37	0xbc1d36a8	-0.009595551
38	0xbb99d06e	-0.004694036
39	0xbbe879c3	-0.0070945933
40	0xbbace2a0	-0.0052760392
41	0xbb5f3781	-0.0034060183
42	0x3d2f3c03	0.04278184
43	0x3d20bad7	0.039240684
44	0xbc2db10c	-0.010601293
45	0x39495ae0	0.00019202707
46	0xbb046d1e	-0.002020664
47	0xbc0f49be	-0.008745609
48	0xbc3df322	-0.011593612
49	0xbc295ef8	-0.010337584
50	0x3d0043e2	0.031314738
51	0x3d318689	0.043341193
52	0x3d343b31	0.04400176
53	0xbc70b2a0	-0.014691025
54	0xba3f54cc	-0.00072987075
55	0xbc661abc	-0.01404446
56	0x3cf03ace	0.029324915
57	0x372aa340	1.0170799e-05
58	0xbc25e162	-0.010124536
59	0xbbcd18ae	-0.0062590456
60	0xbc10937b	-0.008824225
61	0xbc5955d3	-0.013265091
62	0xbc6cd1f8	-0.014454357
63	0x3bb7fa67	0.005614567

sequential_2/conv2d_3/BiasAdd/ReadVariableOp f4 [64]
0	0xbbf8b18d	-0.007589525
1	0xbbd9327a	-0.0066283317
2	0xbcb4811f	-0.022034226
3	0xbb99a4e2	-0.004688845
4	0xbbb5550e	-0.005533821
5	0xbc30619f	-0.010765462
6	0xbbb9b3cd	-0.005667186
7	0xbc3710c2	-0.011173429
8	0xbbfd6441	-0.0077328985
9	0xbc63472f	-0.013871952
10	0xbc0bf45e	-0.008542148
11	0xbc225cf4	-0.009909857
12	0xbbbddd02	-0.0057941684
13	0x3d0eb387	0.03483918
14	0x3b31d4c6	0.002713488
15	0xbbd9f940	-0.0066520274
16	0x3d0c5eff	0.034270283
17	0xbc82ae1b	-0.01595216
18	0xbc926da4	-0.017874546
19	0xbc33d058	-0.010974966
20	0xbcc13cf2	-0.023588631
21	0xbbf0d257	-0.007349293
22	0xbc1953d2	-0.009358363
23	0xbc57c822	-0.013170274
24	0xbb32466a	-0.0027202615
25	0xbc294e22	-0.01033357
26	0x3d224d6d	0.03962462
27	0x3bb6f9ae	0.0055839634
28	0xbba23180	-0.0049497485
29	0xbc3793f1	-0.011204706
30	0xbc54b106	-0.012981659
31	0xbaa71a85	-0.0012748992
32	0xbc617b19	-0.013762259
33	0xbbd25f90	-0.0064200833
34	0x3c6444b1	0.013932393
35	0xbbdeaf3f	-0.0067957933
36	0xbc892ee8	-0.016746
37	0xbc034e5e	-0.00801429
38	0xbb8d0592	-0.0043036425
39	0xbc56ab80	-0.013102412
40	0xbc7fb5c8	-0.015607305
41	0xbbd189d5	-0.0063946047
42	0x3bfb819f	0.007675364
43	0xbc2abee9	-0.010421493
44	0x3b195e0b	0.0023402001
45	0xbc789cfc	-0.015174147
46	0xbbdb2243	-0.006687434
47	0x3aaa166e	0.0012976655
48	0xbb35b5a8	-0.0027726684
49	0xbc4ea2a1	-0.012612016
50	0xbc24b9ce	-0.010054065
51	0x3d04e1a1	0.03244174
52	0xbbbf994f	-0.005847133
53	0xbd0ec584	-0.034856334
54	0xbbb414cd	-0.0054956437
55	0xbbee34dd	-0.0072694854
56	0xbccb4c44	-0.02481664
57	0x3d1ee742	0.038794763
58	0xbab9ff7f	-0.0014190524
59	0xbc1de063	-0.0096360175
60	0xbc800a8e	-0.015630033
61	0xbc85df8e	-0.01634195
62	0x3d134fc6	0.03596475
63	0x3d13ed5a	0.036115028

sequential_2/conv2d_2/BiasAdd/ReadVariableOp f4 [64]
0	0xbcc72d29	-0.024313526
1	0x3be91502	0.0071131
2	0x3bc4f269	0.006010343
3	0xbc689e24	-0.01419786
4	0xbc00e73e	-0.007867632
5	0x3c18e209	0.009331235
6	0xbc3a8899	-0.0113851065
7	0xbc5448cc	-0.012956809
8	0xbc8f2408	-0.017473236
9	0xbc2f3747	-0.0106943315
10	0xbbbe388b	-0.0058050803
11	0x3cc155fc	0.02360057
12	0xbc50dc2b	-0.012747805
13	0x3c9b6eac	0.01897367
14	0xbbe2bfb3	-0.006919825
15	0xbca9f5f1	-0.020747157
16	0xbbaf2b1f	-0.0053457166
17	0xbbf57c0d	-0.0074915946
18	0x3cb98198	0.022644803
19	0xbcac6df4	-0.021048523
20	0xbb2fa06c	-0.00267985
21	0xbc53a4b6	-0.012917688
22	0x3cb696df	0.022288738
23	0xbb1f4599	-0.0024302958
24	0xbc5e5c9f	-0.013571887
25	0xbc6f4626	-0.014604127
26	0x3ce4c2c9	0.027924912
27	0xba804a65	-0.0009787796
28	0xbc007c38	-0.007842116
29	0x3bdc9d4c	0.0067326184
30	0xbca60696	-0.020266812
31	0xbc5d3a8c	-0.013502728
32	0xbb00d2cc	-0.0019656895
33	0xbc985aad	-0.018597925
34	0xbc8bb4f1	-0.017054053
35	0xbc15af8c	-0.009136092
36	0xbccae8e3	-0.024769252
37	0xbc1a0740	-0.009401143
38	0xbc870792	-0.016483102
39	0xbbe9974d	-0.007128632
40	0xbc0ea822	-0.008707078
41	0xbc068124	-0.0082095
42	0x3c9036c2	0.017604236
43	0xbc6c1d0b	-0.014411221
44	0xbc0facc6	-0.00876922
45	0xbca35cfa	-0.019941796
46	0x3b03683c	0.0020051142
47	0xbbd6baad	-0.006553015
48	0xbacaff41	-0.0015487449
49	0x39609336	0.00021417145
50	0xbbe1872b	-0.0068825684
51	0xbbb3fc89	-0.005492751
52	0xbca61e13	-0.020278012
53	0xbbef65df	-0.007305845
54	0x3c488f44	0.012241188
55	0xbb610964	-0.0034337873
56	0xbcc6cca6	-0.024267506
57	0x3bf413c8	0.007448647
58	0xbc71645d	-0.014733401
59	0xbc8dbdae	-0.01730236
60	0x3d0f05dd	0.0349177
61	0x3c2530e2	0.010082455
62	0xbc037ebd	-0.008025822
63	0xbc1a3dab	-0.009414117

sequential_2/conv2d_1/BiasAdd/ReadVariableOp f4 [64]
0	0x3b1e9113	0.0024195358
1	0xbbd2145d	-0.006411119
2	0xba45dd73	-0.0007547952
3	0xbcade705	-0.021228323
4	0xbc131eab	-0.00897948
5	0xbb9bea67	-0.0047581675
6	0x3b47ab74	0.0030467184
7	0xbbd8af8a	-0.0066127228
8	0xbc110152	-0.008850412
9	0x3ab1e93b	0.0013573536
10	0xbd03763d	-0.032095183
11	0x3c76274a	0.015024016
12	0x3bca2b48	0.0061697103
13	0xbca59045	-0.020210395
14	0x3c297f27	0.010345257
15	0xbc8c65b9	-0.017138349
16	0xbc14b1ea	-0.009075621
17	0xbc98a3c2	-0.018632773
18	0xbca71a68	-0.020398334
19	0xbc13a8cb	-0.009012411
20	0xbb014521	-0.0019725042
21	0x3bd6f109	0.0065594953
22	0x3b2de474	0.0026533874
23	0x3c649c12	0.013953226
24	0x3ca14ebb	0.019690862
25	0x3b3cfb84	0.0028836438
26	0xbb4ddc2e	-0.0031411755
27	0xbcd5d2fc	-0.026101582
28	0xbbe410ea	-0.006960024
29	0xbbb3a4be	-0.0054822853
30	0xbc9ea12c	-0.019363962
31	0xbbfdefc8	-0.0077495314
32	0x39e454f2	0.00043550838
33	0xbc800342	-0.015626553
34	0xbc2434d6	-0.010022363
35	0x3a157d40	0.00057025626
36	0x3b65b085	0.003504784
37	0x3b3851ea	0.0028124996
38	0xbc097178	-0.008388869
39	0xbb1defbb	-0.002409919
40	0x3b5bb26f	0.0033523103
41	0xbbf44b40	-0.0074552596
42	0xbbcc4b7c	-0.0062345844
43	0x3c2e4bd2	0.010638194
44	0xbb83c08b	-0.0040207556
45	0x3c4ce6bc	0.012506183
46	0x39de05e6	0.00042347534
47	0xbc899648	-0.016795292
48	0xbc1084c2	-0.008820714
49	0xbb66f752	-0.003524263
50	0xbc63b4c7	-0.013898081
51	0x3c8b887f	0.01703286
52	0xbc7c5e2a	-0.01540331
53	0x3c4bc889	0.012437948
54	0x3b2fcc45	0.0026824635
55	0x3bda45e5	0.006661164
56	0xbc81d42b	-0.01584824
57	0xbc32d43e	-0.01091486
58	0x3c19279e	0.009347824
59	0x3c4f5df9	0.012656682
60	0x3be1deee	0.0068930304
61	0x3c3925af	0.011300488
62	0xbc33b4a3	-0.01096836
63	0xbc30384e	-0.010755612

sequential_2/dense/MatMul f4 [64, 256]
0	0x3dcd12bb	0.10013338
1	0x3cd1f7a5	0.025630781
2	0xbd76f7eb	-0.060295027
3	0x3e056f5d	0.13030763
4	0x3d5d7350	0.05406505
5	0x3d15b38a	0.036548175
6	0x3e0e15ea	0.13875547
7	0x3cab7212	0.020928416
8	0xbd985ecc	-0.07439956
9	0x3d9d97d5	0.07694975
10	0x3dcd8f84	0.10037139
11	0x3bfcc6b1	0.0077141155
12	0x3df68d72	0.12038697
13	0xbc2b0ca8	-0.010440029
14	0xbc056f78	-0.008144252
15	0xbc48fc7f	-0.012267231
16	0x3daa703e	0.0832219
17	0x3d9d5ab8	0.07683319
18	0x3cf09e44	0.029372342
19	0xbddab995	-0.10679928
20	0x3e1c88f9	0.15286626
21	0x3dfc251c	0.123117656
22	0x3e040260	0.12891531
23	0xbd3f77ee	-0.046745233
24	0x3dcd7715	0.10032479
25	0x3ccaea21	0.024769844
26	0x3bd80061	0.006591842
27	0x3da78079	0.08178801
28	0xbd27a0c5	-0.040924806
29	0x3e04e9fe	0.12979886
30	0x3d960bea	0.07326491
31	0xbca12c32	-0.019674394
32	0x3d2b0947	0.041756894
33	0xbd225865	-0.03963508
34	0x3ca488a9	0.020084696
35	0x3b204015	0.0024452258
36	0xbd98ca38	-0.07460445
37	0x3dd24618	0.102672756
38	0x3d8ebeda	0.06969996
39	0xbde2e378	-0.110785425
40	0xbe06e0cb	-0.13171689
41	0x3cdc8778	0.026920065
42	0x3d86c8d0	0.06581271
43	0x3ce39c31	0.027784439
44	0xbaf5f99f	-0.001876641
45	0x3b90e100	0.0044213533
46	0xbbd6921d	-0.00654818
47	0xbdbb6003	-0.09149172
48	0xbd8cae7b	-0.06869217
49	0x3d7c909c	0.061661348
50	0x3c0157f5	0.007894506
51	0x3dbd6802	0.092483535
52	0x3d3115bc	0.04323362
53	0xbc50c82a	-0.012743035
54	0x3d57acbf	0.052654978
55	0x3dbe41d3	0.09289899
56	0x3e0538d2	0.13009956
57	0xbc5573cd	-0.013028097
58	0xbdcb5f90	-0.099303365
59	0xbb724a9b	-0.0036970738
60	0x3d5cdf1a	0.053923704
61	0xbcf51e22	-0.029921595
62	0xbd1ed92c	-0.03878133
63	0x3ca83327	0.020532204
64	0xbd98a357	-0.074530296
65	0x3d9ef380	0.07761288
66	0x3d91fdce	0.071284875
67	0x3d4fd8b4	0.050743774
68	0x3d1b497e	0.037911884
69	0x3d8a1d16	0.06743829
70	0xbde0b9c1	-0.1097293
71	0xbc373155	-0.011181195
72	0x3c87d993	0.01658324
73	0x3d0dc4dd	0.03461157
74	0xbd41daf5	-0.047327954
75	0x3df222e7	0.11823063
76	0xbd3ca826	-0.046058796
77	0x3d4a77da	0.049430706
78	0x3d13b979	0.036065552
79	0xbe03cc68	-0.12870944
80	0x3bb601ba	0.005554405
81	0x3d191d41	0.037381414
82	0xbc90fedc	-0.017699651
83	0xbbeab903	-0.0071631684
84	0xbc848c70	-0.016180247
85	0x3c08e6e2	0.008355828
86	0xbdbd8423	-0.09253719
87	0xbc99fd84	-0.018797643
88	0x3debece7	0.11519795
89	0xbddb132a	-0.10697015
90	0x3e19efd3	0.15032892
91	0x3d141ddf	0.0361613
92	0xbb9e1adf	-0.0048249806
93	0x3da1b577	0.0789594
94	0xbd03cc58	-0.0321773
95	0xbde153ae	-0.11002289
96	0xbdf179ce	-0.117908105
97	0x3db58259	0.088627525
98	0x3cd86033	0.026413059
99	0xbd37eb92	-0.04490239
100	0x3dd02a2e	0.10164295
101	0xbcffaf89	-0.031211631
102	0x3d2352b3	0.03987379
103	0x3df1b08b	0.11801251
104	0x3d84523e	0.06460999
105	0xbc9c7a59	-0.019101309
106	0x3dafb95e	0.08580278
107	0x3d530495	0.05151804
108	0xbe042e94	-0.12908393
109	0x3da436e0	0.08018279
110	0x3d7048b8	0.0586631
111	0x3d93e5c1	0.072215565
112	0x3de09a2f	0.10966908
113	0x3e17cd67	0.14824449
114	0x3c86cd89	0.016455429
115	0xbd4e899e	-0.05042421
116	0xbdcc95b5	-0.09989492
117	0xbdc95357	-0.09830349
118	0x3d21d877	0.039513078
119	0x3e11a96f	0.1422479
120	0xbd40c179	-0.04705951
121	0xbdee602a	-0.116394356
122	0xba412e03	-0.0007369222
123	0xbe0f27c4	-0.13980013
124	0xbd40f0f2	-0.047104783
125	0x3dd0a15e	0.10187028
126	0x3d49a711	0.049231593
127	0x3de52b52	0.11189903
128	0x3c6a2c2d	0.014292759
129	0x3dabb37c	0.08383843
130	0x3d97f12a	0.07419045
131	0xbdf909f3	-0.12160101
132	0x3dd4daab	0.1039327
133	0xbc8dfdb0	-0.017332882
134	0xbdf5f2c5	-0.12009195
135	0xbd25b4d8	-0.04045567
136	0xbdb76dba	-0.089564756
137	0x3d9f3021	0.07772852
138	0xbd12712d	-0.035752464
139	0xbdb038b2	-0.08604564
140	0x3df7f2e9	0.12106878
141	0xbdfc653f	-0.12323999
142	0xbdb7d466	-0.08976059
143	0xbcab9176	-0.020943385
144	0xbd7176da	-0.058951236
145	0x3d9b9ceb	0.07598289
146	0xbd8a69bb	-0.06758448
147	0x3d0d868e	0.03455215
148	0x3ded8d0d	0.11599169
149	0x3daaebe6	0.08345775
150	0x3e082ef5	0.13299163
151	0xbd182c88	-0.037151843
152	0x3e04c282	0.12964824
153	0xbdecdafd	-0.11565206
154	0x3d9e1db8	0.07720512
155	0xbd9e928c	-0.07742795
156	0x3e0a50f6	0.13507447
157	0x3c1e7b30	0.009672925
158	0x393d6f57	0.00018065922
159	0xbc9edd8d	-0.019392753
160	0x3baf369a	0.005347085
161	0xbdcdda17	-0.10051363
162	0xbdbab85d	-0.09117196
163	0x3de9c0be	0.11413716
164	0xbe0d8503	-0.13820271
165	0x3d4e1a25	0.050317902
166	0xbc4498b9	-0.011999303
167	0x3dd21f13	0.10259833
168	0xbda375d4	-0.07981458
169	0x3dd33579	0.103129335
170	0x3d75028c	0.059816882
171	0x3ddeedf4	0.1088523
172	0x3c1d87e5	0.009614919
173	0x3d9a3e50	0.075314164
174	0xbc31a81e	-0.010843305
175	0x3d9c0c88	0.07619578
176	0x3d7ec990	0.062203944
177	0xbcb1a498	-0.02168493
178	0x3d099035	0.033584792
179	0xbd377bbf	-0.044795748
180	0xbddb7db3	-0.107173346
181	0x3d77a58a	0.060460605
182	0xbc9f5a22	-0.019452158
183	0xbd118a78	-0.035532445
184	0x3dac8a8e	0.08424865
185	0xbdb12441	-0.08649493
186	0xbdf16c33	-0.117882155
187	0xbd90bdee	-0.07067476
188	0x3e18526b	0.1487519
189	0x3ddb8354	0.10718408
190	0x3e1956d7	0.14974533
191	0x3db87c36	0.09008066
192	0x3d9b78bd	0.075913884
193	0xbd61c5c9	-0.055120263
194	0xbdc82fad	-0.097747184
195	0x3de26487	0.1105433
196	0xbdc138f9	-0.09434695
197	0xbe0d67a6	-0.1380907
198	0xbcdef5e0	-0.027216852
199	0xbd9bc1d5	-0.0760533
200	0x3db2eeaf	0.087369315
201	0xbccb11f8	-0.024788842
202	0xbd33ed1c	-0.043927297
203	0xbbda45d2	-0.0066611553
204	0x3e0016cd	0.12508698
205	0x3d8d5ed5	0.069028534
206	0xbaf687f0	-0.0018808823
207	0x3c0bc2a4	0.008530293
208	0xbde37736	-0.11106722
209	0xbe07df6c	-0.13268822
210	0x3d8120bb	0.06305071
211	0xbdbbd83f	-0.09172105
212	0x3db69e11	0.089168675
213	0xbe00c2d7	-0.12574326
214	0xbc437fe0	-0.011932343
215	0xbdd4c222	-0.103885904
216	0xbdc9f31c	-0.098608226
217	0xbe14b3e7	-0.14521752
218	0xbd986e99	-0.0744297
219	0x3d393ee4	0.045225993
220	0x3daba53a	0.08381124
221	0xbd6b856f	-0.0575003
222	0x3b7b574e	0.0038351598
223	0x3d1fe57f	0.039037224
224	0x3e008e07	0.12554179
225	0xbe0bf47e	-0.13667485
226	0xbe0cd833	-0.13754348
227	0x3d97bb68	0.07408792
228	0xbde396a5	-0.111127175
229	0x3d60f9dc	0.054925784
230	0x3d29d5ee	0.041463785
231	0xbd984af6	-0.07436173
232	0x3dd36906	0.10322766
233	0xbd318398	-0.04333839
234	0xbb874e7c	-0.004129229
235	0xbd1bf2ed	-0.03807347
236	0x3d41d5aa	0.047322907
237	0x3dc31f9e	0.09527515
238	0xbd73d98a	-0.059533633
239	0xba04449a	-0.0005045623
240	0x3d04ed55	0.0324529
241	0xbdcbdd41	-0.0995431
242	0xbadb7df0	-0.0016745906
243	0x3db9ac93	0.09066119
244	0x3bf02145	0.007328185
245	0xbdc5ea54	-0.09663835
246	0x3d8b48af	0.06800973
247	0x3d94292e	0.07234417
248	0x3cf97fbb	0.030456414
249	0x3db90914	0.09034935
250	0x3c1c0ee9	0.009525039
251	0xbdc53e33	-0.09631004
252	0x3d93c46b	0.07215198
253	0xbd3d6a27	-0.046243813
254	0x3d88d9d3	0.06682172
255	0xbdd88eb4	-0.105740935

sequential_2/dense_1/MatMul f4 [4, 64]
0	0x3e7c04cc	0.24611205
1	0xbe7b97f6	-0.24569687
2	0xbe09173c	-0.1338777
3	0xbdd50218	-0.1040079
4	0xbe486c7d	-0.19572635
5	0x3e76918d	0.2407896
6	0x3e439cab	0.19102733
7	0x3e0d6e4b	0.13811605
8	0xbd092eff	-0.033492085
9	0x3c0bb48a	0.008526931
10	0x3e469996	0.19394526
11	0xbd9646a4	-0.073376924
12	0x3dcb2ac8	0.09920269
13	0x3e0c9497	0.13728558
14	0x3caa84d1	0.020815285
15	0xbdce4045	-0.10070852
16	0xbdc9387f	-0.09825229
17	0xbe2ccee8	-0.16875803
18	0x3e6e3739	0.23263253
19	0xbe440f9e	-0.19146582
20	0x3e9a8350	0.30178308
21	0xbdf9d2c5	-0.12198404
22	0x3e184c63	0.14872889
23	0x3e46b38a	0.19404426
24	0xbe28326c	-0.16425484
25	0x3e280eb4	0.16411859
26	0x3e8519c8	0.25996232
27	0x3e153e25	0.14574488
28	0xbe8bb3b0	-0.27285528
29	0xbc44513c	-0.011982258
30	0x3d2208ed	0.039559294
31	0xbe9057fb	-0.28192124
32	0x3d7ce34a	0.061740197
33	0x3c5bdc9c	0.013419297
34	0xbd15c718	-0.036566824
35	0xbe931b47	-0.28731748
36	0xbe149653	-0.14510469
37	0xbe630a4a	-0.22171894
38	0xbcff5f06	-0.03117324
39	0xbe81c991	-0.25349095
40	0x3e237e15	0.15966065
41	0xbdd02113	-0.101625584
42	0x3b066dae	0.0020512152
43	0x3cce76bf	0.025203107
44	0x3e861b05	0.2619249
45	0xbb194032	-0.002338421
46	0x3db91f2f	0.09039151
47	0x3e16a25f	0.14710377
48	0xbd5235a7	-0.051320698
49	0x3d8af654	0.067852646
50	0xbe0071cd	-0.12543412
51	0xbe47ff84	-0.19531065
52	0xbe88dcb7	-0.26730892
53	0x3d3c3374	0.045947507
54	0xbe8685da	-0.26273996
55	0x3e066073	0.1312273
56	0x3d74b8e8	0.059746653
57	0xbe9a970d	-0.30193368
58	0xbe68dabb	-0.22739689
59	0x3d94d9cb	0.07268103
60	0xbe6aaf24	-0.22918373
61	0x3df63af6	0.12022965
62	0xbe8eedab	-0.279157
63	0x3e18d77c	0.14925951
64	0x3e3642f1	0.17798974
65	0xbd8ad92b	-0.06779703
66	0xbe4d88fc	-0.20071787
67	0xbe819e00	-0.25315857
68	0xbe9066b8	-0.28203368
69	0x3dc905d2	0.09815563
70	0x3e8546c7	0.2603056
71	0xbe4bd3f5	-0.19905074
72	0x3e603ad2	0.21897438
73	0x3e21de4e	0.15807459
74	0x3e329872	0.17440966
75	0xbdbabb60	-0.0911777
76	0x3caf2f6f	0.021384923
77	0xbe5b3897	-0.21408306
78	0x3e87459d	0.26420298
79	0xbd81ce4c	-0.06338176
80	0xbbc6a9d4	-0.0060627256
81	0xbdb88e91	-0.090115674
82	0x3e5c794f	0.2153065
83	0x3d38a133	0.045075607
84	0xbe96d218	-0.29457164
85	0x3e073e05	0.13207252
86	0x3c269664	0.010167692
87	0xbdea54b0	-0.11441934
88	0xbe87aac6	-0.26497477
89	0xbe2761c2	-0.16345885
90	0x3d363277	0.04448172
91	0x3e508fff	0.2036743
92	0xbe77dab2	-0.2420452
93	0x3d84b675	0.064801134
94	0x3e11e5b0	0.14247775
95	0xbd6539f6	-0.05596348
96	0xbdd5d1e3	-0.10440423
97	0xbd85cd3e	-0.065332875
98	0x3d915437	0.07096141
99	0x3e5c056c	0.21486443
100	0x3e8b0e66	0.27159423
101	0x3dfffe99	0.124997325
102	0xbe074b22	-0.13212255
103	0xbe56e50c	-0.20985812
104	0x3b87bba4	0.0041422416
105	0x3abb21f1	0.0014277083
106	0x3df54dee	0.119777545
107	0xbe1b9f73	-0.15197544
108	0x3e76edbb	0.24114124
109	0x3e4281d2	0.18994835
110	0x3e60a1e4	0.21936756
111	0xbde0373d	-0.10948036
112	0xbdd4d912	-0.103929654
113	0x3e91414c	0.2837013
114	0xbd943e2c	-0.07238421
115	0x3c9f79cc	0.019467257
116	0xbd9ab73d	-0.07554481
117	0xbdc92c7f	-0.0982294
118	0x3e5bb9aa	0.21457544
119	0x3db88abe	0.09010838
120	0x3e883b2f	0.26607653
121	0x3e8eda78	0.27901053
122	0x3e52d5b3	0.20589332
123	0x3dd15f07	0.10223203
124	0x3d9e21f4	0.0772132
125	0xbde3f647	-0.11130958
126	0xbced55f6	-0.028971653
127	0x3e202e5c	0.15642685
128	0xbe822541	-0.25419047
129	0xbdaae37c	-0.083441705
130	0x3e32331d	0.1740231
131	0xbe9dbf84	-0.30810177
132	0xbe24071c	-0.16018337
133	0xbe4ad061	-0.19806053
134	0x3da2dd42	0.07952358
135	0x3db5a955	0.08870188
136	0xbe318761	-0.17336799
137	0x3e8ed7c8	0.27899003
138	0xbe8772c2	-0.2645474
139	0xbdd4174b	-0.10356005
140	0xbdbb3fa1	-0.091429956
141	0x3e19beff	0.15014265
142	0xbe8ded8c	-0.27720296
143	0x3db55bf0	0.08855426
144	0x3d4f7e80	0.05065775
145	0x3e42aee4	0.19012028
146	0xbe734d64	-0.23759991
147	0xbe956ef6	-0.2918622
148	0xbdcc1037	-0.0996403
149	0x3e06a310	0.13148141
150	0x3dabac1f	0.08382439
151	0xbe7abde1	-0.24486496
152	0x3e448faf	0.19195436
153	0x3b251cd7	0.0025194192
154	0x3e5ca7d0	0.2154839
155	0x3e19b1da	0.15009251
156	0xbe77aa1c	-0.24185985
157	0x3db15d29	0.08660347
158	0xbe9947b2	-0.29937512
159	0x3e175a86	0.14780626
160	0xbe3ec2a2	-0.18628934
161	0xbe8070d6	-0.25086087
162	0xbdd32b0b	-0.10310944
163	0xbd00588e	-0.031334452
164	0x3e30632c	0.17225331
165	0x3e2832cc	0.16425627
166	0xbc5b4d04	-0.013385061
167	0xbd4482ce	-0.047976308
168	0x3de810e3	0.11331346
169	0x3e89858c	0.268597
170	0xbe2e7598	-0.17037046
171	0xbd80b131	-0.062837966
172	0x3d528cb6	0.051403724
173	0x3e007bdd	0.1254725
174	0xbe65ec2f	-0.22453378
175	0xbdbea6f9	-0.09309191
176	0x3de59195	0.11209408
177	0x3c8621e4	0.016373582
178	0xbd89100b	-0.06692513
179	0xbe75ab88	-0.23991215
180	0x3cebb07b	0.028770676
181	0x3dd8cf92	0.10586466
182	0x3e34401e	0.17602584
183	0xbdfb55be	-0.122722134
184	0xbd2de83d	-0.042457808
185	0x3e2fe343	0.17176537
186	0xbbb8b785	-0.0056371116
187	0x3e232069	0.15930332
188	0xbe9317f6	-0.28729218
189	0xbe522439	-0.2052163
190	0xbe21531b	-0.15754358
191	0xbe178471	-0.14796616
192	0xbd5d627f	-0.05404901
193	0x3c85ee3e	0.016348954
194	0xbe0518d7	-0.12997757
195	0xbe7ec592	-0.24880055
196	0x3e77d03d	0.2420053
197	0xbdd7c6ea	-0.10535987
198	0x3e35c44b	0.17750661
199	0xbe0e7bc3	-0.13914399
200	0xbe99aa84	-0.30012906
201	0xbe888bd6	-0.26669186
202	0x3e158ad0	0.14603734
203	0x3e85c1b9	0.2612436
204	0x3dd24f5c	0.10269043
205	0x3e0b5aa9	0.13608803
206	0xbdb7a2c1	-0.0896659
207	0xbd469b3c	-0.048487887
208	0x3e154d9d	0.14580388
209	0x3d5ffa38	0.054681987
210	0x3c49ec64	0.012324426
211	0x3dbd8c82	0.09255315
212	0x3c51c1a2	0.012802513
213	0xbde14414	-0.10999313
214	0xbd75c055	-0.059997875
215	0xbe78d062	-0.24298242
216	0xbdc699e0	-0.09697318
217	0xbda44901	-0.08021737
218	0x3d3bf228	0.045885235
219	0x3e18df2e	0.14928886
220	0xbe8bae14	-0.2728125
221	0xbe02046b	-0.12696998
222	0xbe0f8294	-0.14014655
223	0x3e90b7de	0.2826528
224	0xbcbfd4fb	-0.023416987
225	0xbe91fb49	-0.28512028
226	0xbe155fc6	-0.14587316
227	0xbe63d18a	-0.22247902
228	0xbe0cd5c9	-0.13753428
229	0x3e73f066	0.23822173
230	0x3d94befc	0.0726299
231	0x3e0a2d49	0.13493837
232	0x3d05d7a8	0.03267637
233	0xbe55a043	-0.20861916
234	0xbdc1c6ef	-0.09461772
235	0xbe60d85e	-0.21957538
236	0xbe1f89cc	-0.15579909
237	0x3c9aab12	0.0188804
238	0xbd60a21b	-0.054842096
239	0xbe4fa11c	-0.20276302
240	0xbe0d019d	-0.13770147
241	0xbe5de9a9	-0.21671166
242	0x3d238042	0.039917238
243	0x3d845bbe	0.06462811
244	0x3e5a7143	0.21332268
245	0xbde3b374	-0.11118212
246	0x3e88297d	0.26594153
247	0x3e8ccc57	0.2749965
248	0xbe91db64	-0.28487694
249	0xbe60d945	-0.21957882
250	0x3e4af6ed	0.19820757
251	0xbdfa05f4	-0.12208167
252	0xbe0f7005	-0.14007576
253	0x3e20b72a	0.15694872
254	0xbd668b1f	-0.05628502
255	0xbd85b993	-0.06529536

sequential_2/conv2d_1/Conv2D f4 [64, 3, 3, 32]
0	0xbc742a50	-0.014902666
1	0x3d8a8c87	0.06765085
2	0xbd14a2ba	-0.036288
3	0xbce48ee3	-0.027900165
4	0xbd519e7f	-0.051176544
5	0x3d629f28	0.055327564
6	0x3da432e5	0.0801752
7	0x3cd4ddb0	0.025984615
8	0x3c955b02	0.018231872
9	0xbc954514	-0.018221416
10	0x3d59d9ba	0.053186156
11	0x3c7e424c	0.015518736
12	0x3d8debd1	0.06929744
13	0xbd9012a0	-0.070348024
14	0x3d5d4e90	0.05403
15	0xbcf5b71b	-0.029994538
16	0x3d70fab3	0.058832835
17	0x3d035c35	0.032070357
18	0xbc045f93	-0.008079427
19	0xbd8d4c31	-0.06899298
20	0xbd0b9412	-0.034076758
21	0x3d7105d5	0.058843452
22	0x3d1ffb70	0.03905815
23	0x3c202ab7	0.009775809
24	0x3d46b27e	0.048510067
25	0xbcefe64f	-0.029284624
26	0x3ccea2a9	0.025224047
27	0x3d9b3f99	0.0758049
28	0x3d7ab195	0.06120451
29	0xbdb178c8	-0.08665615
30	0x3cdec985	0.027195701
31	0x3d8012e4	0.06253603
32	0x3d207bda	0.039180614
33	0xbd13c30c	-0.036074683
34	0x3bf79452	0.007555523
35	0x3c306d5e	0.010768263
36	0x3c3f1d42	0.01166469
37	0x3d8bdb3c	0.06828925
38	0x3db4f488	0.08835703
39	0xbd04d095	-0.03242548
40	0xbd878706	-0.066175506
41	0x3cd89de1	0.02644247
42	0x3dd02d5f	0.10164904
43	0xbcf4bb0d	-0.029874349
44	0xbc5aaa25	-0.01334623
45	0x3d4eb7cd	0.050468255
46	0x3cda6370	0.026658744
47	0xbcb3621e	-0.021897372
48	0x3bef5566	0.0073038815
49	0x3c487adb	0.012236322
50	0xbc97869e	-0.018496808
51	0x3d7ed45d	0.062214244
52	0x3d84d462	0.06485821
53	0x3e0bb7f3	0.1364439
54	0xbd86dbc5	-0.065848865
55	0xbd7a7b1d	-0.061152566
56	0x3cff92f5	0.031198004
57	0x3d54afe8	0.05192557
58	0xbd396842	-0.045265444
59	0x3aaf0b2e	0.0013354772
60	0x3caa1ed7	0.020766659
61	0xbd587cad	-0.052853275
62	0x3c82a330	0.015946954
63	0xbbc4667c	-0.0059936624
64	0x3d408c72	0.04700894
65	0x3d6f1429	0.058368836
66	0x3d616f67	0.055037882
67	0x3ce17576	0.02752183
68	0xbd95c101	-0.07312203
69	0x3cd6d33b	0.02622377
70	0x3d1dbe98	0.038511842
71	0xbb2b81c2	-0.002616987
72	0xbc83e2e0	-0.016099393
73	0xbd7b1c84	-0.06130649
74	0xbce4890c	-0.02789738
75	0x3d2c0ba2	0.04200328
76	0x3d8620c5	0.06549219
77	0x3af44a77	0.0018637915
78	0xbdc0a377	-0.094061784
79	0xbdcd39d3	-0.10020795
80	0xba1d1f24	-0.0005993715
81	0xbd0537ec	-0.032524034
82	0xbd34e08c	-0.044159457
83	0x3d4deff6	0.050277673
84	0xbd189ab7	-0.037256923
85	0x3d18dc82	0.037319668
86	0x3d7591bf	0.059953447
87	0x3af7ad97	0.0018896338
88	0xbb8992f9	-0.0041984287
89	0xbc58dd9a	-0.013236428
90	0x3d5526ba	0.052038886
91	0x3dc4a963	0.096026205
92	0x3daa6908	0.08320814
93	0x3d50f63a	0.05101607
94	0x3bee6234	0.0072748903
95	0xbb6104af	-0.0034335067
96	0xbd10f2dc	-0.03538786
97	0x3c94beef	0.01815745
98	0x3d804466	0.06263046
99	0xbc138da8	-0.009005941
100	0xbc983bed	-0.018583262
101	0xbc8f096c	-0.017460547
102	0xbd42548e	-0.04744392
103	0xbd80826e	-0.062748775
104	0x3d6e0d14	0.05811794
105	0xbc7321a9	-0.014839568
106	0x3d856942	0.06514217
107	0x3d3a1456	0.04542955
108	0xbad7eb4f	-0.0016473326
109	0x3d86eef5	0.06588546
110	0x3a96d25d	0.0011506785
111	0xbdaceb68	-0.08443338
112	0xbba1755e	-0.0049273213
113	0xbd177938	-0.036980838
114	0x3d820e56	0.063503906
115	0xbc2c3b2d	-0.0105121555
116	0xbc602fc2	-0.013683261
117	0x3e0da9c6	0.13834295
118	0x3a175785	0.00057732343
119	0x3c02afcb	0.007976483
120	0xbd5bef9a	-0.0536953
121	0xbd57ad5f	-0.052655574
122	0x3cb85f64	0.022506423
123	0xbd144ec3	-0.036207926
124	0xbd955d7c	-0.07293221
125	0xbc00380b	-0.007825862
126	0xbd27a733	-0.040930938
127	0x3d2d0aa9	0.042246494
128	0x3dd4f881	0.10398961
129	0x3d6ce067	0.057831194
130	0x3d93b13f	0.072115414
131	0x3cb01f2e	0.021499243
132	0xbd61429d	-0.054995168
133	0x3ceaefc1	0.028678777
134	0xbd1eddf3	-0.038785886
135	0x3c1ff26c	0.009762388
136	0xbd6d48ff	-0.057930943
137	0xbc047bd9	-0.008086168
138	0x3dcc7990	0.09984124
139	0xbb4258b6	-0.0029654927
140	0xbc317f28	-0.010833539
141	0xbd8bd53e	-0.06827782
142	0x3d51398d	0.051080275
143	0xbcff89f3	-0.031193709
144	0xbb45c32f	-0.0030176153
145	0x3d9a0ca6	0.07521944
146	0xbd762f84	-0.06010391
147	0x3d781836	0.060569964
148	0xbbe98454	-0.0071263704
149	0x3c638bdc	0.013888326
150	0x3d4f374f	0.050589856
151	0xbda50a9e	-0.08058666
152	0x3c8e62ea	0.01738115
153	0xbd95a21a	-0.07306309
154	0x3c59fd80	0.013305068
155	0x3dacd83c	0.08439681
156	0x3c71c1c6	0.014755672
157	0xbd0fcd5a	-0.035107948
158	0x3d867e36	0.065670416
159	0xbb3fd69b	-0.0029272202
160	0xbb912c5a	-0.004430336
161	0x3c4b9a61	0.0124269435
162	0xbd8865cf	-0.066600434
163	0x3d5b416d	0.05352919
164	0xbba8523c	-0.005136756
165	0xbd16ec75	-0.036846597
166	0x3d691321	0.05690301
167	0x3dbbdcac	0.09172949
168	0xbd3e3c82	-0.046444423
169	0xbd8c79c4	-0.068591624
170	0x3cfa0d24	0.030523844
171	0x3d5a8492	0.053349085
172	0x3d03b290	0.032152712
173	0x3d682de6	0.056684397
174	0xbd1f397b	-0.038873177
175	0xbcf70f55	-0.030158678
176	0x3d42c3f2	0.04755015
177	0x3dda0234	0.106449515
178	0xbda86314	-0.08222023
179	0x3cf7e498	0.03026037
180	0xbd45a12f	-0.04824942
181	0x3cd57d4a	0.026060719
182	0x3d610db0	0.054944694
183	0xbc9fde1d	-0.019515092
184	0xbd90677d	-0.07050989
185	0x3d8d83ba	0.069098905
186	0xbc729d00	-0.0148079395
187	0xbd0354da	-0.032063343
188	0x3c929ea6	0.017897915
189	0xbd38e38f	-0.04513889
190	0xbc70046d	-0.014649493
191	0xbd9de317	-0.077093296
192	0x3ddd6fc0	0.1081233
193	0xbcd7b2b1	-0.026330324
194	0xbd9e5146	-0.077303454
195	0x3cd13f89	0.025542991
196	0x3cdbbd77	0.026823742
197	0xbce1a588	-0.027544752
198	0x3c1e7c96	0.009673258
199	0xbcab9936	-0.02094708
200	0xbccd92d4	-0.025094427
201	0x3bcbaa89	0.0062153977
202	0x3d1d5cbf	0.038418528
203	0x3d8d95ac	0.06913313
204	0x3b265be9	0.0025384373
205	0xbd562a80	-0.052286625
206	0x3c6c3e2e	0.014419122
207	0xbddc84b6	-0.107675
208	0x3d2662ec	0.040621683
209	0x3daf43d8	0.08557862
210	0xbd8671d2	-0.06564678
211	0x3d7498b5	0.059715945
212	0xbb26bbfc	-0.0025441637
213	0x3e0bce97	0.13653027
214	0xbdaa9ba5	-0.08330468
215	0xbd27b072	-0.040939756
216	0x3c010ebd	0.007877049
217	0xbc60fc0a	-0.013731966
218	0x3d1371ff	0.035997387
219	0x3bc2f8b8	0.0059500597
220	0x3d49c85a	0.049263336
221	0xbcb01496	-0.021494191
222	0x3c69c3d6	0.014267882
223	0x3db75662	0.08952023
224	0x3cc69485	0.024240742
225	0xbd783e38	-0.06060621
226	0xbd7a722d	-0.061144043
227	0xbcbe1e6a	-0.023207862
228	0xbc5e58b3	-0.013570952
229	0x3c64b046	0.0139580425
230	0xbd19f8e3	-0.037590872
231	0xba1cab46	-0.00059764495
232	0xbc80e794	-0.015735425
233	0x3daf2b03	0.08553126
234	0x3e0366f6	0.12832245
235	0x3ce299e9	0.02766128
236	0xbd86e4f5	-0.06586639
237	0x3d6b7369	0.05748311
238	0x3d1e87ea	0.038703837
239	0xbc7257ef	-0.014791473
240	0x3cf4ae63	0.02986831
241	0xbb432f88	-0.002978297
242	0x3d5a799a	0.053338625
243	0xbda06abb	-0.07832857
244	0x3d00cfed	0.031448293
245	0xbce0dcf3	-0.027449107
246	0xbd8297d5	-0.06376616
247	0xbc57ff0b	-0.013183366
248	0xbd5bdaa6	-0.053675316
249	0xbc18d35e	-0.009327738
250	0xbd9698e2	-0.07353379
251	0x3c6d65cb	0.014489601
252	0x3cd631ab	0.02614673
253	0x3c985c91	0.018598827
254	0xbd953553	-0.072855614
255	0x3dacf9ff	0.084461205

sequential_2/conv2d_2/Conv2D f4 [64, 3, 3, 64]
0	0x3c05420d	0.0081334235
1	0x3d77baff	0.060481068
2	0xbd86b78e	-0.06577979
3	0x3d7d2cf0	0.061810434
4	0xbcd16dae	-0.025564995
5	0x3d3ae6e0	0.045630336
6	0xbd7b4aa3	-0.061350476
7	0xbd6f7da2	-0.058469422
8	0xbcee6163	-0.029099172
9	0xbda03e2d	-0.07824359
10	0xbd07992d	-0.033105064
11	0xbd92326b	-0.07138523
12	0xbc9d2eed	-0.019187415
13	0xbd88a2d6	-0.066716835
14	0x3bbdb839	0.0057897833
15	0xbc73cd33	-0.014880466
16	0x3a5dc403	0.0008459689
17	0xbd2a3052	-0.041549988
18	0xbd14bdc4	-0.036313787
19	0xbd8e8905	-0.06959728
20	0x3d73b6a8	0.059500366
21	0xbab149bd	-0.0013526004
22	0x3d36d7ba	0.044639327
23	0x38e7b94b	0.00011049452
24	0x3c8fe321	0.017564358
25	0xbd9c5598	-0.07633513
26	0x3d1b2766	0.03787937
27	0x3c9608c3	0.018314725
28	0x3c073470	0.008252248
29	0xbd577281	-0.052599434
30	0x3ca54633	0.020175075
31	0x3ccc3f44	0.024932511
32	0xbda151ec	-0.078769535
33	0x3d886e5c	0.066616744
34	0x3d688ed4	0.056776837
35	0xbd77c46f	-0.060490068
36	0xbcfe4ab2	-0.031041477
37	0x3bc2cc3b	0.0059447563
38	0x3ca3fcd4	0.020018019
39	0xbd503064	-0.0508274
40	0xb9a6c4dd	-0.00031808662
41	0xbcbecd81	-0.023291351
42	0x3cc68721	0.024234356
43	0x3b1e79ed	0.002418156
44	0x3afab940	0.0019128695
45	0xbccb214c	-0.02479615
46	0x3d49b144	0.04924132
47	0xbd8f1cd6	-0.06987922
48	0xbc927399	-0.017877387
49	0xbc735942	-0.014852824
50	0xbd003eb0	-0.031309783
51	0x3d607d67	0.054807093
52	0xbc0a9fa6	-0.008460915
53	0xbcec3f27	-0.028838707
54	0xbda17510	-0.07883656
55	0xbc44236a	-0.011971334
56	0xbd41e757	-0.047339763
57	0xbcbc5e90	-0.02299431
58	0xbd5011e3	-0.050798308
59	0xbda86308	-0.08222014
60	0xbd7f1b10	-0.06228167
61	0x3cc11bf6	0.023572903
62	0x3d405174	0.04695268
63	0x3baf4c71	0.0053496887
64	0xbc837af5	-0.016049841
65	0x3c575e62	0.013145061
66	0xbda548a2	-0.08070494
67	0x3d150a76	0.03638693
68	0xbc9fba1c	-0.019497924
69	0xbcf38d4b	-0.02973046
70	0x3d4d1170	0.050065458
71	0x3c998884	0.018741854
72	0x3c82e092	0.015976224
73	0xbc1a4355	-0.009415467
74	0x3d5f1833	0.054466438
75	0x3d2cca2d	0.042184997
76	0x3d0063c1	0.031345133
77	0xbd1de217	-0.038545694
78	0xbd1ea555	-0.03873189
79	0x3d43b6ef	0.04778188
80	0xbd4b7e66	-0.04968109
81	0x3cda3686	0.026637327
82	0xbb4caa10	-0.0031229295
83	0x3bdac037	0.006675746
84	0xbd5a47df	-0.053291198
85	0x3c1d328e	0.009594573
86	0x3d001cb2	0.031277366
87	0xbd773f7e	-0.060363285
88	0xbc51ccbe	-0.012805162
89	0x3cd34ea0	0.025794327
90	0xbd0cf701	-0.03441525
91	0xbdb9a124	-0.09063938
92	0x3c1a1147	0.009403533
93	0xbd88523e	-0.066563115
94	0xbc1fb38c	-0.009747397
95	0xbd6e4746	-0.05817344
96	0xbd87a300	-0.06622887
97	0xbd14e4e1	-0.03635109
98	0xbd16205e	-0.03665196
99	0xbd18c79f	-0.03729975
100	0xbd5e9268	-0.054338843
101	0xbd25056a	-0.040288366
102	0xbc3aa72c	-0.011392396
103	0xbd1208f9	-0.03565309
104	0x3d92249d	0.0713589
105	0xbd8096ab	-0.06278738
106	0x3ccc558a	0.024943132
107	0xba203e67	-0.00061128143
108	0xbc61d554	-0.013783772
109	0xbd559cae	-0.052151375
110	0xbd506e66	-0.050886534
111	0x3d80ca3c	0.06288573
112	0xbcd33638	-0.02578269
113	0xbcb4b4c4	-0.022058852
114	0x3bfdfc52	0.007751026
115	0x3d75f7a4	0.06005062
116	0xbd6a3b4d	-0.05718546
117	0xbd23a2de	-0.039950244
118	0xbd15eb92	-0.03660161
119	0xbdb4df63	-0.0883167
120	0xbd372eaa	-0.044722237
121	0x3b654eac	0.003498952
122	0x3b8e3016	0.0043392284
123	0xbd9757f8	-0.073898256
124	0x3d0d33fc	0.034473404
125	0xbba91903	-0.0051604523
126	0x3d8374b3	0.06418743
127	0x3d6faf20	0.05851662
128	0xbd236957	-0.03989538
129	0x3cfad21a	0.030617762
130	0xbd454500	-0.048161507
131	0xbd39b16d	-0.045335222
132	0xbc1d2ab3	-0.0095927
133	0x3ccd3e05	0.025053987
134	0x3c215cb7	0.009848765
135	0xbd68e214	-0.05685623
136	0xbd85fa45	-0.06541876
137	0x3c380b64	0.0112331845
138	0xbd15e956	-0.03659948
139	0xbd342e8c	-0.043989703
140	0xbcf6a534	-0.030108072
141	0xbc860b52	-0.01636282
142	0x3d4c8597	0.04993209
143	0xbd84be64	-0.06481627
144	0xbd84567f	-0.0646181
145	0x3d01b82d	0.031669784
146	0xbd8119be	-0.06303738
147	0xbd0ab2e7	-0.03386202
148	0x3cc50ecc	0.024054907
149	0xbd1a5002	-0.037673958
150	0xbd2c5248	-0.042070657
151	0xbda6171f	-0.08109879
152	0xbbeaeeb5	-0.0071695694
153	0xbdb5192a	-0.0884269
154	0x3d6584a8	0.056034714
155	0x3d32fad4	0.04369624
156	0xbbf6f181	-0.0075361137
157	0x3c73f135	0.014889051
158	0xbd45b9fc	-0.04827307
159	0x3cdd862c	0.027041517
160	0xbd328709	-0.04358581
161	0xb9f06d5a	-0.0004585784
162	0xbd17f724	-0.037100926
163	0xbd7e2bae	-0.062053375
164	0x3c6b52c0	0.014362991
165	0x3d48458b	0.048894446
166	0xbd849691	-0.06474031
167	0xbd0fd052	-0.03511078
168	0xbc07fcb5	-0.008299996
169	0xbbccd1d3	-0.006250599
170	0xbd928731	-0.07154692
171	0xbcd0ba09	-0.025479333
172	0xbd149c76	-0.036282025
173	0xbd80e173	-0.06293001
174	0x3d1170aa	0.035507835
175	0xbca0c29c	-0.019624047
176	0xbccc5e95	-0.024947444
177	0xbd052034	-0.032501414
178	0x3d32acff	0.043622013
179	0x3d0d285e	0.034462325
180	0x3cc524fe	0.02406549
181	0xbc171f0c	-0.009223711
182	0xbd89a622	-0.067211404
183	0x3cdac825	0.026706764
184	0x3d3405f0	0.043950975
185	0xbd0f14cc	-0.034931943
186	0xbd2b9375	-0.041888673
187	0xbd0d0071	-0.03442425
188	0x3d2c9904	0.042138115
189	0xbd44348f	-0.047901686
190	0x3d2cb0cf	0.042160805
191	0xbd8eec1a	-0.069786265
192	0xbcb1c961	-0.02170247
193	0xbc6236a1	-0.01380697
194	0x3c33c350	0.010971859
195	0xbd8308ba	-0.06398149
196	0x3d536948	0.051614076
197	0xbd95dc3d	-0.07317398
198	0x3cbf9ce7	0.023390247
199	0xbccf8781	-0.025333168
200	0xbd287456	-0.04112657
201	0x3d5d223e	0.053987734
202	0x3b620d8f	0.0034492945
203	0xbd1dc69a	-0.03851948
204	0xbd950ff2	-0.07278432
205	0xbd0d0613	-0.03442962
206	0x3c34d726	0.0110376235
207	0xb9cdf4de	-0.00039283087
208	0xbcb2a5fd	-0.021807665
209	0xbc86d04a	-0.016456742
210	0xbda5b43a	-0.08091016
211	0xbd642158	-0.05569586
212	0xbcfea8b9	-0.031086313
213	0xbdc0adc9	-0.09408147
214	0x3d1181ae	0.035524063
215	0xbcbcb378	-0.023034796
216	0xbb901ef8	-0.004398223
217	0xbd1a1605	-0.037618656
218	0x3d389cde	0.045071475
219	0xbdab5d81	-0.08367444
220	0x3b8a9fd9	0.004230481
221	0xbc77d57b	-0.015126581
222	0x3d3a5eef	0.045500692
223	0xbd768cb0	-0.060192764
224	0xbc32cfe5	-0.010913824
225	0xbcbf8b59	-0.023381876
226	0x3d808506	0.06275372
227	0x3cb8a0a5	0.022537539
228	0xbd809046	-0.06277518
229	0xbc5cf691	-0.01348652
230	0xbc48c910	-0.012254968
231	0xbc044fd8	-0.008075677
232	0xbd8e9d65	-0.069636144
233	0x3cc1c3c4	0.023652919
234	0x3d54897f	0.05188894
235	0xbd9979e3	-0.07493951
236	0x3c649ad0	0.013952926
237	0xbd10e050	-0.03537017
238	0xbc7baa10	-0.01536037
239	0x3d378466	0.044804
240	0x3c4f7c26	0.012663877
241	0xbd0194f1	-0.031636182
242	0x3bc601cb	0.006042694
243	0xbd5eb95f	-0.054376002
244	0x3d6dabba	0.0580251
245	0xbcc8e204	-0.024521835
246	0xbdb3f769	-0.08787424
247	0xbd99a88b	-0.0750285
248	0xbd725aba	-0.059168555
249	0x3ccd374a	0.025050778
250	0xbd9d4f74	-0.0768117
251	0x3d168e64	0.036756888
252	0xbd957bce	-0.072990045
253	0xbd28326d	-0.041063715
254	0xbba2f550	-0.004973091
255	0x3ca85079	0.020546185

sequential_2/conv2d_3/Conv2D f4 [64, 3, 3, 64]
0	0x3c535b87	0.01290024
1	0x3cf144a2	0.029451672
2	0xbd5a061c	-0.053228483
3	0x3d7a7b9f	0.06115305
4	0x3d9281fc	0.07153699
5	0x3d2d5906	0.042321227
6	0xbb0a617a	-0.002111523
7	0x3bcf8b20	0.0063337237
8	0x3d6903db	0.056888442
9	0xbca175fb	-0.019709578
10	0xbd257312	-0.040392943
11	0xbbf86f95	-0.007581661
12	0x3d539009	0.051651035
13	0x3d0670b4	0.032822326
14	0xbb8523e5	-0.004063117
15	0x3c2c339f	0.010510354
16	0xbd5f690b	-0.054543536
17	0x3ce6b0d5	0.028160492
18	0x3bd0b664	0.006369399
19	0xbd03aa58	-0.032144874
20	0x3d810429	0.062996216
21	0xbc4b050f	-0.012391343
22	0xbc19415d	-0.009353963
23	0x3d72304e	0.0591281
24	0xbd5e417e	-0.054261677
25	0x3d4d724f	0.05015784
26	0xbd563d53	-0.052304577
27	0xbd1d8b06	-0.03846266
28	0xbd7bbbbb	-0.06145833
29	0x3ca0c62b	0.019625744
30	0x3c9edf9f	0.01939374
31	0xbd7bb551	-0.061452214
32	0xbd368b50	-0.044566453
33	0x3c267682	0.01016009
34	0x3c23faea	0.010008553
35	0x3ca13b39	0.01968156
36	0x3c11e112	0.008903759
37	0xbcb45c23	-0.02201659
38	0x3d83943f	0.0642476
39	0xbd44451e	-0.047917478
40	0x3d1157f3	0.035484266
41	0x3cd4dfc9	0.025985615
42	0xba6bc48a	-0.0008993825
43	0xbcd1bef5	-0.02560375
44	0xbd847cb3	-0.06469097
45	0x3d7b2cf0	0.061322153
46	0xbd3383ca	-0.043826856
47	0x3d935fce	0.07196008
48	0x3b9d1e5c	0.004794879
49	0xb9f99b46	-0.0004760867
50	0x3b54ce13	0.0032471463
51	0x3d9a1e7d	0.075253464
52	0xbc6b71cd	-0.014370394
53	0x3cbae709	0.022815244
54	0x3cd1ceaf	0.02561125
55	0xbd4362ca	-0.047701634
56	0x3d959b2e	0.07304989
57	0x3c065d13	0.008200902
58	0xbd100a70	-0.035166204
59	0x3d535e3b	0.051603537
60	0xbd94b6b0	-0.072614074
61	0xbd3a3f20	-0.045470357
62	0x3d5693a5	0.0523869
63	0x3c00bc75	0.007857432
64	0xbd346f69	-0.04405156
65	0x3d59dd8c	0.0531898
66	0x3d69e006	0.05709841
67	0xbd88c0a9	-0.06677372
68	0x3d948f98	0.07253951
69	0x3c622340	0.01380235
70	0xbcb88550	-0.022524506
71	0x3cb8eae6	0.022572946
72	0xbd66449e	-0.056217782
73	0x3cc5fb56	0.024167698
74	0xbd6f9e0b	-0.05850033
75	0x3c922e28	0.017844275
76	0x3d23cb28	0.039988667
77	0xbd766fc5	-0.060165185
78	0xbd3071e6	-0.043077372
79	0x3d483877	0.048881974
80	0xbd96c76b	-0.07362255
81	0x3d59082f	0.05298632
82	0xbda800ee	-0.08203302
83	0xbc733065	-0.014843081
84	0xbd8f4ef7	-0.06997483
85	0x3cad53f6	0.0211582
86	0x3c77470a	0.015092621
87	0xbba33107	-0.0049802097
88	0x3d1aaba1	0.037761334
89	0xbcccce51	-0.025000723
90	0x3ca0194e	0.019543316
91	0xbc67c24e	-0.014145447
92	0x3c9dc1e6	0.019257497
93	0xbbf2fa28	-0.007415075
94	0xbdac2cf5	-0.084070124
95	0xbc9a7750	-0.01885572
96	0xbc8be4a3	-0.017076796
97	0xbbbbd22c	-0.0057318415
98	0x3d59d7d3	0.05318434
99	0xbc490535	-0.012269308
100	0xbb0c5249	-0.002141135
101	0xbd322362	-0.043490775
102	0xbc82c81a	-0.015964556
103	0x3d3152a5	0.043291707
104	0x3cecbe6a	0.02889939
105	0xbd00434b	-0.031314176
106	0x3b3944ff	0.0028269885
107	0x3d9c6127	0.07635718
108	0xbd171b1f	-0.0368911
109	0x3d17fde4	0.037107363
110	0x3d9b76e7	0.07591038
111	0xbd74f1ec	-0.059801027
112	0xbd09ee07	-0.033674266
113	0xbbcda124	-0.006275313
114	0xbd5fa7b2	-0.054603286
115	0x3d183b46	0.037165903
116	0xbd9bdd2a	-0.07610543
117	0x3d5d535f	0.054034587
118	0xbcbaa913	-0.022785699
119	0xbd5b44ff	-0.053532597
120	0x3ad4b55f	0.0016228369
121	0x3da653a2	0.081214204
122	0x3c9f5029	0.019447403
123	0xbd7450b8	-0.059647292
124	0xbd9e3343	-0.07724621
125	0xbccf37f1	-0.02529523
126	0xbc7bcd4e	-0.015368773
127	0xbacc6938	-0.0015595322
128	0xbda840ef	-0.0821551
129	0x3d535f53	0.05160458
130	0x3abeae85	0.001454786
131	0xbd3c2e63	-0.045942675
132	0x3d68c883	0.056831848
133	0xbd7ea3e3	-0.062168013
134	0xbd331ae4	-0.043726817
135	0xbd8e5173	-0.06949129
136	0xbbbe1f34	-0.0058020595
137	0x3c9fd0e6	0.01950879
138	0x3ab1d136	0.0013566378
139	0xbd3be158	-0.0458692
140	0xbd830082	-0.06396581
141	0xbd60b192	-0.054856844
142	0x3a6a5319	0.0008938774
143	0xbd85da70	-0.06535804
144	0xbbd9ed44	-0.0066505987
145	0x3d837cc3	0.06420281
146	0xbd24cfa6	-0.04023709
147	0x3d0ab083	0.03385974
148	0x3d2ba04f	0.04190093
149	0x3c449e5b	0.0120006455
150	0xbd3df50a	-0.046376266
151	0xbc38a992	-0.011270897
152	0xbcb5d7e8	-0.022197679
153	0xbda6fb43	-0.08153393
154	0x3abb5573	0.0014292434
155	0x3ca4ac27	0.02010162
156	0x3d41f160	0.047349334
157	0x3cf33ec1	0.02969301
158	0xbd15b8da	-0.03655324
159	0xbba064cb	-0.004894828
160	0xbcf41231	-0.02979383
161	0xbc35cc84	-0.011096124
162	0x3d80fd84	0.06298354
163	0x3cfccbd0	0.030858904
164	0xbd3e6332	-0.04648132
165	0x3cf82551	0.030291231
166	0x3d800256	0.062504455
167	0xbd1509e7	-0.036386397
168	0x3ce28a01	0.027653696
169	0xbc021aa0	-0.007940918
170	0x3b1d3db6	0.0023993081
171	0x3be9e96a	0.007138421
172	0xbd9e5208	-0.0773049
173	0x391a04cd	0.00014688373
174	0xbd04a21e	-0.03238117
175	0xbd27b985	-0.04094841
176	0xbd4ad3bb	-0.04951833
177	0xbd8f7888	-0.070054114
178	0xbbc7ec7b	-0.0061011887
179	0x3c013333	0.007885742
180	0x3d1abeed	0.037779737
181	0x3bcc4253	0.0062334924
182	0xbd039f81	-0.032134537
183	0x3ab3529f	0.0013681239
184	0x3da7e2b3	0.08197536
185	0x3d21112e	0.039323024
186	0xbd7811d9	-0.060563896
187	0x3ce9d733	0.028544998
188	0x3ccec22b	0.02523907
189	0x3d0734f7	0.033009496
190	0x3caba8aa	0.020954449
191	0x3d6c0745	0.05762412
192	0x3d0b2766	0.03397312
193	0x3a37a7df	0.0007005911
194	0xbd84e394	-0.064887196
195	0xbc64560e	-0.013936533
196	0x3d8931c8	0.06698948
197	0xbbb7bdcf	-0.0056073437
198	0xbba4b2b7	-0.0050261873
199	0xbd6ef40b	-0.058338206
200	0x3d20ba90	0.03924042
201	0xbd203fac	-0.039123222
202	0x3d37ba23	0.04485525
203	0x3d5822e8	0.052767664
204	0x3dadcced	0.08486352
205	0xbdc87e65	-0.09789733
206	0x3d432200	0.047639847
207	0x3cac43c7	0.021028413
208	0xbce44b66	-0.027867984
209	0x3bee03cc	0.007263636
210	0xbc3692bc	-0.011143383
211	0x3d882139	0.06646962
212	0xbd6834ae	-0.056690864
213	0x3d232a7a	0.03983543
214	0xbd6c46d6	-0.057684742
215	0x3d0e1d00	0.034695625
216	0xbd9c3a8d	-0.07628355
217	0x3d7557a2	0.059898026
218	0xbc6270af	-0.013820811
219	0x3d05896d	0.032601763
220	0xbce9e601	-0.028552057
221	0x3d1070dd	0.035263885
222	0xbd699476	-0.05702635
223	0xbd2dafe1	-0.04240406
224	0x3b82b494	0.0039888117
225	0x3d860abe	0.06545018
226	0xbd3f24fc	-0.04666613
227	0x3d9b3c5b	0.07579871
228	0x3c8bf49c	0.017084412
229	0xbca73e01	-0.020415308
230	0xbd5a0e21	-0.05323613
231	0xbc320909	-0.010866412
232	0xbd07f434	-0.033191875
233	0x3d4f3679	0.05058906
234	0xbda233b6	-0.07920019
235	0x3d7854f6	0.0606279
236	0x3c1854f6	0.0092976
237	0x3d53b203	0.051683437
238	0x3d8fdd43	0.07024624
239	0xbce7133e	-0.028207418
240	0x3a0a8392	0.0005283888
241	0x3d4f8650	0.0506652
242	0x3d20dbf6	0.03927227
243	0x3c63da75	0.013907065
244	0x3cb2674c	0.021777771
245	0x3c9a48c3	0.018833524
246	0x3dab4b99	0.083640285
247	0xbc031faa	-0.008003155
248	0xbcd20901	-0.025639059
249	0xbcf53017	-0.029930158
250	0xbd3e6ef3	-0.04649253
251	0xbc5e0b83	-0.013552549
252	0xbcbe596c	-0.023235999
253	0xbc0b516b	-0.008503298
254	0x3d352c45	0.04423167
255	0x3d44895f	0.04798257
