app/src/main/ml/ChiliDisease.tflite (tflite, 742608 bytes, 16 tensors)

sequential_2/conv2d/Relu;sequential_2/conv2d/BiasAdd;sequential_2/conv2d/Conv2D;sequential_2/conv2d/BiasAdd/ReadVariableOp f4 [32, 3, 3, 3]
00000000: 24e3 3d39 641f 7739 8136 6db9 6303 c439
00000010: 05db c5b9 84ea c3b8 faf5 db39 b78a b6b8
00000020: ae28 a339 7024 0139 851f 8639 bc09 a3b9
00000030: 850a 28b8 a77b 6b39 31ff 9236 7ce6 3cb9
00000040: ee7c a0b8 a019 b5b7 6dc2 c5b9 dcee 2339
00000050: 3209 2ab9 73bc 4339 2adb deb9 17f8 16ba
00000060: 54c7 fc39 6483 87b2 93de e8b9 7806 ff38
00000070: b3ee c738 3ae8 c039 9979 013a fd82 12ba
00000080: ffb1 d6b9 433a d739 331c ea39 d0ed feb9
00000090: 5fe3 1039 367d 8b39 cc41 1fb8 8ef5 6e39
000000a0: 169a 09ba a393 d839 1044 8ab9 6096 0238
000000b0: 0c96 2cb7 34d9 0b39 cb77 be39 126d 7e38
000000c0: 276f bc39 0a01 3e39 1666 7a39 12c3 13ba
000000d0: 9904 b338 c077 ea37 d1bf e7b9 6002 02ba
000000e0: 5ae6 6b39 ead0 a839 70b1 9a39 df23 fdb9
000000f0: 7599 0db9 f57a 5b39 fddc a4b9 005b f6b9
00000100: 9916 a439 aee3 043a d6db f6b9 0e57 f438
00000110: 1201 5439 a736 8039 d4e9 87b9 71c1 82b9
00000120: 5e09 7739 b272 b4b9 950d 7239 bc40 f739
00000130: 6536 67b9 600e de37 762a 9cb9 9fa5 2d39
00000140: efe3 31b9 d068 93b9 9036 c6b8 9d49 4839
00000150: b488 ab39 0922 0138 ddc1 dfb9 9172 cc39
00000160: 8470 9fb9 a741 6cb9 bb2c 4cb9 2db7 003a
00000170: ac15 b9b9 9484 f0b9 f274 9bb9 483f d9b9
00000180: 9558 a0b9 a4c9 fe39 29ab 3139 1855 4838
00000190: 208b 2db8 6567 c539 93bf 0b39 1ed7 3ab8
000001a0: 0059 acb8 e62a 2ab7 6cfa afb9 83de ba39
000001b0: 33c4 ffb9 a96b 8836 0f19 2939 7018 5339
000001c0: f2ad 3b39 1943 dfb9 f37b e939 22fc c8b9
000001d0: 5976 fd39 df18 4a39 66ad c3b9 8124 cdb9
000001e0: 8b93 c439 7513 f539 2b7e 2439 4b12 86b9
000001f0: f9a4 11ba 6624 043a bfe6 a139 f950 00ba
00000200: 0458 bbb8 ea5e 3c39 bd71 cfb9 7b67 a0b9
00000210: 63e2 f337 5858 8eb9 499f b739 eefa 0f3a
00000220: 8501 3038 e10a 25b9 4caa a639 18a5 5eb9
00000230: 1e81 c938 c074 0539 1ea5 8ab8 7871 abb9
00000240: c22f c6b8 64d9 49b9 14f6 8d39 a51a 10b9
00000250: ce7d 6437 bbf2 5539 a078 ebb8 30ea d8b9
00000260: d2af 5c39 5640 dcb9 2645 35b8 e103 e7b9
00000270: af31 bab7 f9a5 e3b9 6c99 cb39 d476 013a
00000280: 8108 ecb9 c82f bf39 57b2 30b8 3be3 fdb8
00000290: f99b 1a39 438d d7b9 bf7f b4b9 b671 f239
000002a0: 71a2 3839 b89c f0b9 d738 0eba 1508 1539
000002b0: bb22 6d38 353f fd39 97c9 9d39 9363 e3b9
000002c0: f4f5 f1b9 280f eeb9 c09d f6b9 e603 b038
000002d0: c347 f939 3980 e039 273f e439 ddae 5bb8
000002e0: 7635 123a fbae a439 594d 9ab9 f54a 6939
000002f0: f288 04ba fab2 bbb9 1228 d339 407a 023a
00000300: a739 beb9 e743 063a af3d 23b9 be6e f6b8
00000310: 68ac 2db9 c585 d138 d0af e3b9 f825 ccb9
00000320: 69b4 bcb9 a5d4 b638 f0ef 99b9 c2d8 f439
00000330: 9e06 fdb9 018f 02b7 bad2 57b9 40a5 b2b8
00000340: b9a8 8539 1046 043a 2005 5b38 e63f cdb8
00000350: 7360 6639 8577 03ba dade d539 988e 123a
00000360: a911 ce39 d9c8 6cb9 816e ffb9 e7bb 3fb9
00000370: c511 d9b9 8dd5 a0b8 d322 53b8 5059 b5b9
00000380: f7e1 8d38 6925 0a39 4cb0 df39 7b18 d5b9
00000390: 2ece 06b9 edf7 6f39 f95b 4b39 f324 6c37
000003a0: 6e78 d739 4650 c536 a4a1 9ab9 8e2e 8ab9
000003b0: 52e2 dc38 eaf5 cbb9 2234 bcb9 a0aa 68b9
000003c0: 443a dbb9 d765 a539 96e5 cbb9 5525 2e39
000003d0: 721b 07ba 349d cc38 b86a a7b7 6b9b 2039
000003e0: 9369 0439 51f3 11ba c88e e9b8 dc0e af39
000003f0: 2027 04b9 cad2 9b39 ce52 5cb9 959f af39
0.00018109061 0.0002356745 -0.00022622386 0.00037386557 -0.0003773795 -9.3420065e-05 0.00041954202 -8.704274e-05
0.0003112009 0.00012315973 0.00025581956 -0.00031097035 -4.006412e-05 0.0002245741 4.3808473e-06 -0.00018014939
-7.6526645e-05 -2.1588814e-05 -0.00037719627 0.00015633873 -0.00016215889 0.00018666852 -0.0004250643 -0.0005759014
0.00048213697 -1.5775818e-08 -0.0004441632 0.000121605524 9.533521e-05 0.00036794116 0.0004939079 -0.0005588977
-0.00040949878 0.00041051404 0.00044652968 -0.0004862384 0.00013817612 0.00026605435 -3.7969832e-05 0.00022788925
-0.0005249096 0.00041308728 -0.00026372122 3.1134463e-05 -1.0286934e-05 0.00013336987 0.00036328877 6.06599e-05
0.0003594097 0.00018120199 0.00023879888 -0.0005636673 8.5362415e-05 2.7950737e-05 -0.00044202668 -0.00049594603
0.00022497159 0.0003219911 0.0002950537 -0.00048282646 -0.00013503975 0.00020931273 -0.00031445167 -0.00046988577
0.00031297354 0.00050693273 -0.00047084567 0.00011651042 0.00020218294 0.00024454782 -0.00025923422 -0.00024939657
0.00023559245 -0.0003441773 0.00023083978 0.00047159742 -0.0002205014 2.6471156e-05 -0.00029786275 0.00016560264
-0.00016964947 -0.00028116116 -9.451539e-05 0.0001910091 0.00032717513 3.0787694e-05 -0.00042678314 0.0003899527
-0.00030410674 -0.00022531171 -0.0001947162 0.0004910108 -0.00035302097 -0.00045875146 -0.00029651035 -0.00041436614
-0.00030583577 0.0004859689 0.00016943798 4.7762966e-05 -4.1375984e-05 0.00037651803 0.0001332744 -4.45462e-05
-8.218177e-05 -1.0142778e-05 -0.0003356518 0.0003564247 -0.0004878357 4.065649e-06 0.00016126431 0.00020131632
0.0001789851 -0.00042583866 0.00044533573 -0.00038334826 0.00048344096 0.00019273486 -0.0003732249 -0.00039127845
0.0003749396 0.00046744538 0.0001568726 -0.000255721 -0.0005555894 0.0005040824 0.00030880232 -0.00048948784
-8.933249e-05 0.00017964435 -0.00039566858 -0.00030594677 2.9073277e-05 -0.00027150172 0.00035023157 0.00054924085
4.1963085e-05 -0.00015739679 0.00031788868 -0.00021233072 9.608477e-05 0.00012727361 -6.611108e-05 -0.00032700202
-9.450271e-05 -0.00019249838 0.00027076958 -0.00013742836 1.361915e-05 0.00020403687 -0.000112281414 -0.00041373214
0.00021046333 -0.00042009604 -4.3218162e-05 -0.00044062643 -2.2196064e-05 -0.00043420473 0.00038833485 0.0004938666
-0.00045019764 0.0003646596 -4.2127762e-05 -0.00012106305 0.00014744689 -0.00041113244 -0.00034427454 0.00046242558
0.00017608122 -0.00045893132 -0.000542534 0.00014212758 5.653755e-05 0.00048303013 0.0003009557 -0.00043371003
-0.0004615035 -0.0004540619 -0.0004703831 8.39306e-05 0.00047546448 0.00042820143 0.000435346 -5.2376523e-05
0.00055774243 0.00031410888 -0.00029430797 0.00022248535 -0.0005055807 -0.00035800767 0.0004027491 0.0004977323
-0.00036282578 0.00051218126 -0.0001556787 -0.000117508214 -0.00016562792 9.990813e-05 -0.00043427804 -0.000389382
-0.0003599257 8.7180444e-05 -0.000293612 0.00046700804 -0.0004826085 -7.7818995e-06 -0.000205825 -8.5184816e-05
0.00025493445 0.00050458405 5.2218442e-05 -9.787064e-05 0.0002197044 -0.0005015063 0.00040792563 0.0005590706
0.0003930454 -0.00022581535 -0.00048719722 -0.00018285179 -0.00041402705 -7.6691715e-05 -5.0338753e-05 -0.00034589553
6.765493e-05 0.00013174642 0.00042665226 -0.00040644765 -0.00012856044 0.00022885176 0.00019393851 1.4075299e-05
0.00041097723 5.8804026e-06 -0.000294936 -0.00026356097 0.00010532573 -0.00038902398 -0.00035896996 -0.00022188807
-0.00041814346 0.0003154713 -0.00038890232 0.0001660784 -0.0005153931 9.7567594e-05 -1.9957646e-05 0.00015316687
0.0001262783 -0.0005567568 -0.00011136901 0.00033389672 -0.00012603076 0.00029720954 -0.00021011682 0.000334975

sequential_2/conv2d/BiasAdd/ReadVariableOp f4 [32]
00000000: b3a8 c83b bad7 debc aa2f 3a3d 9ec2 48ba
00000010: dae9 693b 3347 933c 1d60 5f3c 0456 23bc
00000020: 1006 8fbb bf78 14bc fd47 a23c c5fe 0b3c
00000030: 7d70 4a3c d6e8 58bc cece 2b3c 3162 373d
00000040: 901f 94bc f3bc 8cbc 01cf b4ba c80f 6dbc
00000050: d99f dabb 9d3d 71bb f1b6 8bbb 2402 743c
00000060: 0d5a c0bb d174 18bc 60ef e5bc 3b92 403d
00000070: c4fc d238 49dd edba bbca 04bc a20a 473c
0.006123626 -0.027202476 0.045455612 -0.0007658395 0.0035692365 0.017978286 0.013633755 -0.009969238
-0.0043647364 -0.009061991 0.019809717 0.0085446285 0.012355921 -0.013239106 0.010486318 0.044771377
-0.018081456 -0.017179942 -0.0013794602 -0.014469095 -0.0066718874 -0.0036810406 -0.0042637517 0.0148930885
-0.00587011 -0.009305195 -0.028068244 0.047014456 0.000100606616 -0.0018147613 -0.008104975 0.012148531

sequential_2/conv2d_1/BiasAdd/ReadVariableOp f4 [64]
00000000: c154 3cbc 4fe6 9e3b 0bb1 ebbb 11a2 dabb
00000010: c2bb fbba 986f 063d 49ee 233d 4650 0cbc
00000020: 1772 a93c 85af 52bb 193f 1fbc 2fbe 09bc
00000030: f240 f53b 424b 923b cbb5 39bc df20 10bc
00000040: 9bf2 a3bb 9185 73bb ebe6 17bc 6f8c 83bb
00000050: b032 cebb dace e3bb 180e cbba cafa 09bc
00000060: 0813 7c3b 4895 2e3a 143f f4bb c32e 59bc
00000070: 788f 3abc c8d8 4ebc 4777 9bba c33b fc3a
00000080: b65a 95bc 4193 babb 603b 3c3b ba15 b73c
00000090: 1b79 3dbc 617f b53b 005a b636 55f1 fdbb
000000a0: f55d 97ba eb6b f93b 6605 95bb 6fad 21bc
000000b0: 8c38 bdba 8c7b f4bb 8b6c 86bc 3ef1 cfbb
000000c0: 23fb 0bbb 8ae5 333c 1c89 25bc 63f3 a03b
000000d0: 2cb5 3abc b5f9 723c 36e3 fabb 9027 4dbc
000000e0: 1289 4abc bf23 32bc 150e 3bbc 2d42 c43a
000000f0: 88d5 98bb 3ef2 9a3a cf66 233d 48db 3fba
-0.011494816 0.0048492323 -0.007192736 -0.006672152 -0.0019205736 0.032821268 0.04002217 -0.008564061
0.020684285 -0.0032148075 -0.0097196335 -0.00840716 0.0074845487 0.004464538 -0.011334847 -0.0087969
-0.005003286 -0.003715847 -0.009271364 -0.0040145437 -0.0062926635 -0.006952149 -0.0015491871 -0.008421609
0.0038463492 0.0006659818 -0.0074538086 -0.013255778 -0.011386745 -0.012624927 -0.0011861109 0.0019243885
-0.01823173 -0.0056938236 0.0028721914 0.022349227 -0.011564518 0.0055388664 5.4345e-06 -0.0077497163
-0.0011548387 0.007611742 -0.0045477627 -0.00986801 -0.0014436408 -0.007461017 -0.01640918 -0.006345897
-0.0021359406 0.010980019 -0.01010349 0.0049118265 -0.011395734 0.014830043 -0.00765648 -0.0125216395
-0.012361782 -0.01087278 -0.011416932 0.0014973335 -0.004664127 0.0011821461 0.039892968 -0.0007318747

sequential_2/conv2d_2/BiasAdd/ReadVariableOp f4 [64]
00000000: 8100 ac3b 9e84 31bc b415 febb 0c18 633b
00000010: e66a 493b 9f76 ba3b 640a 99bb f267 8db9
00000020: 742d 3eba 120f 913b e753 18bb c50c 0fbc
00000030: 502f 0ebc 4101 d6bb fc7c 92ba 1637 1cbb
00000040: 0210 f53c 6718 5bbc 717a 0b3d 67d1 cc3b
00000050: f761 8ebc 487e e3bb f225 bfbb bd63 4a3b
00000060: 92ce 453c 4a5c 59bb 6596 1cb9 1d48 93ba
00000070: d72b 97ba c9a0 81bb e34c 683b f26e afb9
00000080: cb26 f2bb dba7 87bb ca39 2c3a 8dbd 32bb
00000090: 94e1 873b 7652 943b e460 cabb c830 8abb
000000a0: 6306 d9bb d9d5 933b a69d 50b9 3c2f 8dbc
000000b0: 9594 143c f80e adbb 970d 09bc e3ff 90bb
000000c0: 5ed7 053c 8c48 31bc 2b51 06bc 2d64 3ebb
000000d0: 7e2b c9bb 357e 10bc 8eec 54bc f07f 873b
000000e0: dd95 9dbb 6ec8 03bc 5417 733b 4318 bebb
000000f0: 12ff abbb 78df d3ba 67d9 283c 5578 eebb
0.0052490835 -0.010834841 -0.007754052 0.0034651784 0.0030733882 0.0056904103 -0.004670428 -0.0002697106
-0.0007254698 0.0044268453 -0.002324337 -0.008731072 -0.008678272 -0.006530911 -0.0011176164 -0.0023836545
0.02991486 -0.013372517 0.034052316 0.0062505486 -0.017380698 -0.006942544 -0.005833381 0.0030882203
0.012073176 -0.003316658 -0.00014933346 -0.0011236701 -0.0011533451 -0.0039559347 0.0035446219 -0.00033461262
-0.0073898784 -0.004139883 0.00065698905 -0.0027273626 0.004146764 0.0045264317 -0.006176101 -0.004217241
-0.006623076 0.0045115766 -0.00019895154 -0.017234437 0.009068628 -0.0052813254 -0.0083650565 -0.0044250353
0.008169023 -0.010820519 -0.008198063 -0.0029051409 -0.006139218 -0.008819153 -0.012995852 0.0041351244
-0.004809125 -0.008043392 0.0037092762 -0.005801232 -0.0052489126 -0.0016164621 0.010305739 -0.0072775283

sequential_2/conv2d_3/BiasAdd/ReadVariableOp f4 [64]
00000000: e3c3 113c 87d9 9f3c 8dda 28bc 1113 8bbb
00000010: 329d 8c3c 93ec 24bc 87f6 31ba 132f 30bc
00000020: 1678 2fba 399d ffbb 4c40 15bc 4d5a 84bb
00000030: 7a43 c9ba 93aa 8bbb 4cdf 0ebc edd7 e2bb
00000040: 1671 af3b 3e7e a2ba d17a ebba 5181 9fbc
00000050: b944 08bc 2528 173a 78ed 47b8 5114 08bc
00000060: 81d3 9dbb 750a 073c 9980 03bc 8a76 02bc
00000070: 9f7f 09bc 5403 66bb d8a6 b4bb ab0b e73b
00000080: 7544 893b 6fe0 04bc b970 15bc 26c0 45bb
00000090: b229 fe3b a225 16bc 0a4b 52bc be2e 7dbb
000000a0: 1478 873c b414 05bc 3e66 f0bb dbe8 85bc
000000b0: c6ad 483c fa8d 613c 2ea3 8aba f9df c33c
000000c0: 2130 24b9 e370 00bc 2ed0 9a3b dc73 f13b
000000d0: d5f4 43bb 4b4f 0e3b ceb4 febb dd41 9f3c
000000e0: 53a1 89bc 860c f5bb 3e04 0dba 8d16 19bb
000000f0: 954d d4bb 4f64 8abb f0f5 f63b 4149 d8bb
0.008896801 0.019512905 -0.010306013 -0.0042442163 0.0171648 -0.010066169 -0.00067887496 -0.010753411
-0.00066936144 -0.007800725 -0.009109568 -0.004039085 -0.0015355193 -0.0042622774 -0.00872023 -0.006922713
0.005354057 -0.0012397242 -0.0017965679 -0.019470843 -0.008317166 0.0005766175 -4.7666457e-05 -0.008305625
-0.004816473 0.008242239 -0.008026266 -0.007962832 -0.008392244 -0.0035097199 -0.0055130534 0.0070509515
0.004189069 -0.00811015 -0.009121113 -0.0030174344 0.0077564353 -0.009164246 -0.0128352735 -0.0038632597
0.01653675 -0.008122612 -0.007336407 -0.016346386 0.012248462 0.01376676 -0.0010577196 0.02391051
-0.00015658188 -0.007839414 0.004724524 0.007368548 -0.002990057 0.0021714743 -0.0077730184 0.019440586
-0.016800558 -0.0074782996 -0.0005379355 -0.0023359389 -0.006478975 -0.0042233835 0.0075366423 -0.0066005294

sequential_2/conv2d_4/BiasAdd/ReadVariableOp f4 [64]
00000000: 8479 87bb 0787 0eb9 bb0b d1bb 710f 4f3c
00000010: ac20 f2bb 54d3 1fbc d9ff 1d3c 7ad1 25bc
00000020: 95ab 483a e438 55bb 902d 14bc 8ec8 52bc
00000030: a491 45bc 54fb e6ba 044c a6bb 385a c6bb
00000040: 9cd4 4abc 3397 a33c 932e 8abb 9fe5 ff3b
00000050: 6020 f5bb 50fd 8abc ec13 2ebb bc62 99bb
00000060: 104a cd3c 3cb2 453b 44ca 1fbc b866 d6bb
00000070: f32b cd3b 8e8d 12bc 88b1 6a3c c0da 80bc
00000080: d5e4 fcbb 7b22 ab3c 4bea d9bb e63d 1dbc
00000090: 9e1f b4bb c519 2bbc d07d 7e3c 1709 f5bb
000000a0: a8ca 223a 68da ce3c 824c 24bc d179 a9bc
000000b0: 9c9b fabb f8ab c43c be3f 8ebb feba bfbb
000000c0: dad0 683c 3ba4 c839 c26a 583c 44b3 c8bb
000000d0: 2030 1c3c 03ba aabc 9a8e 6dbb b759 96bc
000000e0: 39c1 793c 30e4 e83b 344e b7bb a427 863c
000000f0: 4200 05bb ce8b 95bc 89e1 2fbc b8dd 21bc
-0.004134359 -0.00013592477 -0.006379572 0.012637959 -0.0073891487 -0.009754974 0.009643518 -0.010120744
0.0007654962 -0.003253513 -0.009044066 -0.012865199 -0.012058649 -0.0017622509 -0.0050749797 -0.0060532354
-0.012379792 0.019969558 -0.004216978 0.0078093554 -0.007480666 -0.016966492 -0.0026562167 -0.0046809595
0.02505973 0.003016605 -0.009752814 -0.0065430067 0.0062613427 -0.008944882 0.014324553 -0.015729308
-0.0077177086 0.020890465 -0.0066502444 -0.009597277 -0.005496933 -0.010443156 0.015532926 -0.0074778902
0.00062100077 0.025250629 -0.0100280065 -0.02068797 -0.0076479446 0.024007782 -0.0043410948 -0.0058511486
0.01420995 0.00038269334 0.013209047 -0.0061248858 0.009532958 -0.02084065 -0.0036248327 -0.018353326
0.015243822 0.00710728 -0.0055940393 0.016376324 -0.0020294343 -0.01825514 -0.010734924 -0.009879522

sequential_2/conv2d_5/BiasAdd/ReadVariableOp f4 [64]
00000000: 6f87 c9bb 86df 95bb 3658 53bb b402 e8bb
00000010: 1c7f 513c 6001 3ebc 2a92 253c 6bda 2b3a
00000020: 5faa cfbb ca0a 9bbb 2287 c4bb b590 57bc
00000030: 605e 21bc 347b b83b a87c d0bb 4513 24bc
00000040: 4f0f f2bb 377b a5bb c9b8 35bb 997e cebb
00000050: ce2b d7bb 7628 023b b882 30bc 5430 a33c
00000060: a6e2 f3bb 3bea 233d dfff 523c 9d35 113c
00000070: cad5 67bb ae4a 07bc 8bb1 14bc edd1 053c
00000080: 9228 d2bc d099 c83b e5e0 313c 9646 733b
00000090: 3822 36bc 901c 6bbc 4e7a 29bc ea54 6eba
000000a0: c2ff 10bc 8c56 c4bb 2ded d63c baaa eebb
000000b0: e865 793c 66aa 47bb 5820 1eba bee2 2b3c
000000c0: 532a 2abc 3cd7 0dbc dd74 01bc d334 d03c
000000d0: 16d8 c6bb 9418 b4bb 861e f4bb b756 87bb
000000e0: ae36 7b3a 9cfa 35bc f40e 243c 2565 c33c
000000f0: 1c6d 5dbc 6e8c 08bc 69cb d5bb d5ab 8e3c
-0.006150178 -0.004573765 -0.0032248623 -0.0070804004 0.012786653 -0.0115970075 0.010105649 0.0006555679
-0.0063374485 -0.0047315108 -0.0059975544 -0.013157059 -0.009849161 0.0056299213 -0.0063625164 -0.01001436
-0.007387079 -0.0050500887 -0.0027728549 -0.0063017127 -0.006566501 0.0019860542 -0.010773353 0.019920506
-0.00744279 0.0400183 0.012878387 0.00886288 -0.003537523 -0.008257551 -0.009075533 0.008167726
-0.025654111 0.0061218515 0.010856842 0.003712093 -0.011116557 -0.014350072 -0.010344101 -0.00090916327
-0.00885004 -0.0059917625 0.026236141 -0.007283536 0.01522205 -0.0030466556 -0.0006032041 0.010491071
-0.010386067 -0.008657273 -0.0079013975 0.025415814 -0.00606824 -0.005496094 -0.0074499277 -0.0041302103
0.0009583038 -0.011107113 0.010013331 0.02385194 -0.013514783 -0.008334262 -0.0065244925 0.01741592

sequential_2/conv2d_1/Conv2D f4 [64, 3, 3, 32]
00000000: b7ff 65bd c6e5 78bd 14aa 0a3c 49c8 abbc
00000010: c0e2 16bd abef 50bd 0606 b73c be6c 183d
00000020: 1270 03bc fa42 0f3d 520d 013d 1ed5 9dbd
00000030: a47c 273d a206 753d a320 0dbd 81b8 6fbd
00000040: 3b60 a1bc 4bce 9abd a07a 0d3d 0562 d53c
00000050: 2683 86bd 795f 9c3c 37b0 40ba 5ff4 afbc
00000060: c636 15bc 467f f7bc b7d4 71bd c8aa e8bc
00000070: ddba 6fbd 0694 06bd bbf2 c93c 9d05 91bd
00000080: 125c a6bd a870 843d 96c7 0ebd bc10 84bc
00000090: e5ce 3539 174c f0bc 2259 88bd b7e7 b1bd
000000a0: 22d6 76bc 6388 ae3c 57bc eb3b ce2b fa3c
000000b0: 4c80 533c 1c4e 943d d0c2 603b 0de4 57bd
000000c0: 8666 aabd e6ec 0d3d 2fc5 a33d 3263 7dbd
000000d0: b9dd 393c a29f 41bd 63cd 5abb 4781 51bd
000000e0: 863a 66bd 4d26 36bd d4e5 a93d 6bf5 a1bd
000000f0: 752a 20bd 40be 743d 89a8 7cbd db0e 1d3d
00000100: a464 a9bd 1c08 3ebd 9aab 40bd bc8d af3c
00000110: 84bb 59bb b90f 733d 8798 5c3a 73ea 543d
00000120: 7920 99bd 184d 9c3c 51b6 87bd 6613 d1bc
00000130: 2dd9 49bb dc1a 46bd 09c8 e7bc 923f 8ebd
00000140: a19e 66bd 704e 523d 78fc a4bd ff89 5f3d
00000150: aa08 8f3d de07 0bbc 91fa 64bc 084b 47bd
00000160: 993f 39bd c31d 57bd 87ba 32bc f1cc e5bc
00000170: 9c2d 153d b6a3 8aba fcde 56bc f024 a8bd
00000180: f687 733d 1370 0cbc 3dc4 0cbd 167f 6abd
00000190: c8de 933d 0fa9 533d e88e 20bd e4a4 22bb
000001a0: d2c3 3cbd b6cf 4ebd 177f 103d 68d8 26ba
000001b0: a1da 32bd 8601 2fbd 9276 d1bc fb9c 53bd
000001c0: b0d0 4fbc 1ef6 7ebd 1eef abbd d709 c2bb
000001d0: 784b 84bc 6d7b c2bb 34bd ab3d 84d8 e4bc
000001e0: 2f4e 693d 0a2f c93a 81a7 043d 0325 503d
000001f0: a476 e4bc 630b 5abd e998 16bd 962c 6cbd
00000200: a64a aabd c4e7 a5bd 402e 833d aba5 933d
00000210: 74ea 8fbd aa2f 94bc 3e0f 13bc 126a d63c
00000220: 5af9 8b3d bbf1 09bd 2ddd 463c ee30 173a
00000230: 66bf 83bd 5d3f 3bbd 82f9 9bbc b3d9 aeb9
00000240: 6bdd df3c bbbf bbbc 44ad 8abd 5f30 493d
00000250: 2a95 a63d cf7e 83bd 5448 833d b150 6a3d
00000260: 42b4 17bd 87b2 1fbb 1f33 453a 2a3f 86bd
00000270: 0d4e 893d 3c07 713d e731 1dbd d909 003d
00000280: a6b2 89bd 9f9d f53c 1a2b 953d e7ee 1b3c
00000290: f282 9fbd af4f 8bbd 7f95 9a3d 6f22 233d
000002a0: c5c3 fb3c ee09 5bbc f6e4 3d3d ed7f f73c
000002b0: 9869 b8bd ea8b 333d 6bec 863c c295 21bd
000002c0: dec5 203d 22ca 80bd 3d37 693d e044 8a3b
000002d0: 9753 62bd 2c99 703d aa92 3a3d 1032 0bbc
000002e0: 6408 48bd 6ff0 a0bd c4ee 913b 5658 933d
000002f0: 4460 d6bc 7953 933b 7edd 213d d429 993d
00000300: 8f12 803d dc90 773d a3c6 46bd f0b7 eb3c
00000310: 67b1 2cbd 8734 123d b9a2 bbba c859 2a3d
00000320: 0fec 3a3d 61cd 71bc ca70 aebd 9407 27bd
00000330: 95d6 3a3d e94a 933d 4f5f 303d 143a 8f3d
00000340: 6748 093d e73a 31bd abf3 8bbd dab4 173d
00000350: 0f8f c63c 4844 8a3c 5c42 8ebd b338 a6bd
00000360: 5673 4a3d 01e8 a33b 3da7 8d3b 8695 293d
00000370: 9d8f f9bc 07d9 8f3d b9f5 513d 1437 08bd
00000380: 3d6d 8ebd 4d93 3c3d 59de 8abd 2907 843d
00000390: f23d 323d fec6 2f3d 7fea 81bd 3802 aa3b
000003a0: affc 13bd ad69 fabb 44f2 2dbd 035d 17bd
000003b0: 0df3 0b3d bd80 3e3b c781 7b3d 62b9 5abd
000003c0: 7d14 66bd 5229 3dbd da4b 1dbd 2eb7 19bd
000003d0: 82c4 69bd 7c65 843d 0acc 4dbd 6381 083c
000003e0: dc8d a2bd edc5 81bd 3e74 01bc 8678 be3b
000003f0: 7597 4dbd 0064 42bd 5219 9abd 7ea9 efbb
-0.05615207 -0.060766004 0.008463401 -0.020969527 -0.03683734 -0.051009815 0.02234174 0.03721308
-0.008022325 0.034975983 0.031506844 -0.077066645 0.04089035 0.05982078 -0.034454953 -0.058525566
-0.019699207 -0.075588785 0.034540772 0.026047716 -0.06567983 0.019088494 -0.0007350477 -0.02147883
-0.009107297 -0.030212056 -0.05904075 -0.028401747 -0.058527816 -0.03285601 0.024651876 -0.07081149
-0.0812303 0.064668 -0.03485831 -0.01612126 0.0001733858 -0.029333157 -0.06657626 -0.08686774
-0.015065702 0.021305269 0.0071940827 0.030538466 0.012909006 0.07241461 0.0034295805 -0.05270772
-0.08320336 0.034649752 0.07996594 -0.06186218 0.011344367 -0.04727138 -0.003338658 -0.05114868
-0.056208156 -0.04447012 0.08295789 -0.07908138 -0.03910299 0.05975175 -0.061684165 0.038344245
-0.08271149 -0.046394452 -0.047038652 0.021429889 -0.003322334 0.059341166 0.00084150623 0.0519814
-0.07476897 0.01907973 -0.06626571 -0.025521945 -0.0030799613 -0.04836546 -0.028293626 -0.06945719
-0.056303624 0.051344335 -0.08055967 0.054574963 0.069840744 -0.008485762 -0.013975755 -0.04865554
-0.045226667 -0.052518617 -0.010908729 -0.028051825 0.03642045 -0.0010577354 -0.013114687 -0.0821017
0.059455834 -0.008571642 -0.034366835 -0.057250105 0.072202265 0.0516749 -0.039198786 -0.002481752
-0.046085186 -0.050491057 0.035277452 -0.00063646445 -0.043665532 -0.042726062 -0.025569234 -0.05166338
-0.012684032 -0.062246434 -0.08395217 -0.005921583 -0.016149268 -0.0059351237 0.08385697 -0.027935274
0.056959327 0.0015349102 0.032386307 0.050816547 -0.027888604 -0.053233515 -0.03676692 -0.057659708
-0.08315019 -0.081008464 0.06405306 0.07209333 -0.0702714 -0.018089134 -0.008975802 0.026173625
0.068346694 -0.033677798 0.012137693 0.0005767484 -0.06432991 -0.045714725 -0.019039873 -0.00033350065
0.02732726 -0.022918573 -0.06771329 0.049118396 0.081339195 -0.06420671 0.0641028 0.05720586
-0.03703714 -0.0024367885 0.0007522571 -0.06555016 0.0670434 0.05884479 -0.03837767 0.03125939
-0.067235276 0.029982386 0.072836116 0.009517408 -0.07788648 -0.06802308 0.07548045 0.03982776
0.030732999 -0.013369067 0.046360932 0.030212367 -0.090045154 0.043834604 0.016470155 -0.03944946
0.0392512 -0.06288554 0.056937445 0.0042196363 -0.0552555 0.058739826 0.045550026 -0.008495823
-0.048836127 -0.07858359 0.004453512 0.07194583 -0.02616895 0.0044960347 0.039517872 0.07478681
0.0625354 0.060440883 -0.04852928 0.028774232 -0.04216137 0.035694625 -0.0014315463 0.04158953
0.04563528 -0.014758439 -0.085176066 -0.04077871 0.045614798 0.07192022 0.043059643 0.069934994
0.033516314 -0.043269064 -0.06833585 0.037037708 0.024238138 0.016878262 -0.06946251 -0.08116283
0.0494264 0.0050020223 0.004322915 0.041402362 -0.030463988 0.070238166 0.05125973 -0.03325565
-0.06954429 0.046038914 -0.06780691 0.06446678 0.043516107 0.042914383 -0.06343555 0.005188253
-0.03612965 -0.007641992 -0.04246737 -0.036953937 0.03416734 0.0029068433 0.061403062 -0.05339945
-0.056171883 -0.046181984 -0.038402416 -0.03752821 -0.05707217 0.06464669 -0.050243415 0.008331629
-0.07937214 -0.063365795 -0.007901249 0.0058127074 -0.05019327 -0.04745865 -0.07524361 -0.007313906

sequential_2/conv2d_2/Conv2D f4 [64, 3, 3, 64]
00000000: 5ae6 a23c bd8e 67bd 431f 6dbd 26ef 493d
00000010: a414 28bd 860b ebbc 11d8 8abc ee99 273d
00000020: 426a 3ebd 7e00 9dbd 3a15 4c3d 2be4 f9bb
00000030: c72a 963b b3a3 d3bc ee2e 883d b954 a1bc
00000040: a261 aebb b742 a8bc 21a9 543d dd11 fd3c
00000050: b19c d5bc df6a 10bc 07e3 93bd 0de4 253c
00000060: 4a54 a2bd 355d a5bd 7178 513d fb65 553c
00000070: 9ed9 883d 9f1e 703d a820 2b3d ff91 a4bc
00000080: e70e 9a3b cecd 2a3b 25d7 86bd d482 a0bb
00000090: 751b 343c 3f2c bb3a 3a0e aebd 4160 70bd
000000a0: 1aad 61bd aaba fabc d46b 8fbd 2415 5e3d
000000b0: 173f e0bb 1ec2 31bd b41f 29bd 1799 29bd
000000c0: ebff 81bd ebf9 1ebb 6fce 793d 794e 6cbd
000000d0: 5e16 b9bc 1f96 cbbd 7769 4f3c 1edb 8dbd
000000e0: a5fe 19bd ad2f 253d e54c e33c 5430 fc3c
000000f0: d6f9 6a3d 519f 84bc fd70 8abd 7378 5f3c
00000100: f198 5dbd 704f aa3c 16dd 353d 4252 993c
00000110: 7515 a4bc 36bd 75bd 3918 233d 8d5f 5c3d
00000120: 57cb 7ebd aeea d23a 5c0f 6dbc 9268 7d3d
00000130: 7e8b 2e3d 78ef 1a3c 57d3 23bd e66d 423d
00000140: 4bd8 84bc e9a3 693d 5274 a8bc 5cf9 0dbd
00000150: 5363 a5bc 4d82 61bd 5b59 803d 0b15 813d
00000160: ecb0 a4bd 7b04 233d 15d1 4dbd cec6 f4bb
00000170: 25c0 a0bc 0e2a 90bc 4f9b 0c3d 76a7 2dbd
00000180: 4e9b 013d 8d1e 04bd e19a 3dbd b648 ca3b
00000190: 1369 3d3c f654 a3bc 8216 bfbb 581f 80bd
000001a0: 8cfa d5bc 9705 1a3c 6cbe 073d 620f 8cbd
000001b0: 4065 31bd 257f 80bd b797 57bd 09a5 88bc
000001c0: b781 6abd 49a8 853d ca2f 3abc 47e6 0a3d
000001d0: 9ec8 4b3d 4cd9 cbbc fd6b b9bc a9c7 f3bc
000001e0: be75 8c3c b4f6 b7bb 36b8 093d 55ea 213d
000001f0: 8b42 163d 614b 563d 155b c4bc 1893 a83c
00000200: de44 86bd 8502 06bd 6a27 43bd 05e2 82bd
00000210: 8bd6 28bd c80f 4ebd 6f7e cf3c 8311 2e3d
00000220: 10bd 35bc 5c35 b4bc 98c3 3ebd 3845 013c
00000230: 3846 35bc 01c9 073d 36f0 09bd 5ae5 0a3d
00000240: 7a28 b0bc bab6 ec3c 2ab4 82bc 0a38 82bd
00000250: ee28 7fbd b222 81bd 799b 40bc 2e95 92bc
00000260: 7e25 8a3b 7db4 18bd 56d0 273b 0a29 4bbd
00000270: 0dcf 413d 916b ef3c 7e0b 813c d42f 99bc
00000280: ee98 12bd 66b4 b43c a05d 653d 95c1 393d
00000290: cc01 17bd ba89 ca3c 5085 173c 0ed5 c7bc
000002a0: a9f4 933d 8f6e bfbd b3f6 673d a55c 9abd
000002b0: 400f b73b 621d 183b 99bc 253d c84b 78bc
000002c0: 4e34 cc3c aadc 573d 3a01 6a3c 6d56 00bc
000002d0: aa95 8fbd 01c2 f53c 970d 043d fa4e ea3c
000002e0: 2dcd 7cbd 4c72 083c afb2 5f3c dd16 4cbd
000002f0: 392b 693d 5c39 6bbd 8b29 4a3d 07d8 3cbd
00000300: 7993 993d 35ca d3bc 7a1c 0cbd 7fc6 083d
00000310: d3b3 943d e625 c2bc 14f3 633d afe1 0c3d
00000320: 9148 0dbd 9627 fabc e504 903b 3861 efbc
00000330: d0fe 0cbd a595 08bd dce6 4c3d 2acf 813d
00000340: 29f6 70bd a45b 96bc 24bb 1ebd 825a 1fbd
00000350: 18d6 9a3b fb5a b63c a1f7 203c cc0c 8e3d
00000360: c1af d1bc 7e77 95ba 86b6 413c 13d0 143d
00000370: e343 953d 6dbd 803d 3d68 c93c a2e1 2b3d
00000380: e758 4ebd 82f3 43bd 0517 a1bc 0598 593d
00000390: 86e0 9e3d 7c75 8a3d 80e7 abbd d82c 48bd
000003a0: f6d9 463d 4a1b fa3c c3d9 ab3b 09e0 2bbd
000003b0: 7b4c 543d 4526 d33b d61e 8c3c 4d3a 96ba
000003c0: 850a f73c 187f 78bd 627b 843d 6f4c 0abd
000003d0: df1d 44bd 6a8c 893c 3b97 2ebd cd5c 5d3c
000003e0: c37c fb3c c6f3 463d 083b 553d 914e a23c
000003f0: 6548 333d de36 8abd fa1a 49bc fccb cd3c
0.01988523 -0.05653261 -0.05789114 0.049300335 -0.04103531 -0.028692018 -0.016948732 0.040918283
-0.046488054 -0.076661095 0.04982493 -0.0076260767 0.004582736 -0.025834894 0.06649576 -0.01969372
-0.0053216973 -0.020539625 0.051919106 0.030892307 -0.026075693 -0.008814543 -0.072210364 0.010125172
-0.07926233 -0.080744185 0.051140253 0.013024802 0.06682132 0.058622953 0.04177919 -0.020089148
0.0047014835 0.002606261 -0.06584004 -0.0048984084 0.010992874 0.0014280154 -0.08498807 -0.058685545
-0.055096723 -0.030606586 -0.070029885 0.05421938 -0.0068434584 -0.043398015 -0.04129 -0.041405763
-0.063476406 -0.002425785 0.060987886 -0.057692025 -0.022593673 -0.09940743 0.012659422 -0.06926559
-0.037596364 0.04032867 0.027746627 0.030784763 0.05736717 -0.01618925 -0.06759832 0.013639557
-0.054100934 0.020789832 0.044400297 0.018715981 -0.020029763 -0.0599949 0.039818022 0.05380206
-0.06220564 0.0016091669 -0.014468994 0.061867304 0.0426135 0.009456508 -0.03999647 0.04746809
-0.016216418 0.057041083 -0.020563278 -0.034661636 -0.020188963 -0.055055905 0.06267043 0.06302842
-0.08041558 0.039799195 -0.050248224 -0.0074699884 -0.019622872 -0.017598178 0.0343278 -0.04239603
0.03164225 -0.032255698 -0.046290282 0.0061732186 0.011560696 -0.019937973 -0.0058315406 -0.06255978
-0.026120447 0.009400747 0.033140585 -0.068388715 -0.04330945 -0.06274251 -0.05263492 -0.016680257
-0.057252612 0.065262385 -0.011363933 0.033911016 0.04975187 -0.024883889 -0.0226345 -0.029758291
0.017145988 -0.005614126 0.033622943 0.039530117 0.036684554 0.05231798 -0.023969213 0.020577952
-0.06556104 -0.032717247 -0.04764501 -0.06390766 -0.04122023 -0.05030802 0.025328843 0.04249717
-0.011092439 -0.0219981 -0.04657325 0.007890038 -0.011064105 0.033150677 -0.03367635 0.033910133
-0.021503676 0.028895725 -0.01595505 -0.06358345 -0.062294893 -0.06305446 -0.011755818 -0.0178934
0.004215895 -0.037281502 0.0025606356 -0.049599685 0.0473166 0.029226096 0.01575255 -0.018699564
-0.035790376 0.022058677 0.05599749 0.04535063 -0.036866948 0.024723876 0.009248093 -0.024393585
0.072243996 -0.09347259 0.056631755 -0.07537202 0.0055865347 0.0023210873 0.040463064 -0.015154786
0.024927285 0.052700676 0.014282519 -0.0078331055 -0.07010968 0.029999735 0.032239523 0.028602112
-0.06171911 0.008328032 0.013653441 -0.04982649 0.056925986 -0.05742775 0.049356025 -0.046104457
0.07498831 -0.025853256 -0.034206845 0.033392426 0.07260861 -0.023699712 0.05565174 0.034394916
-0.034493033 -0.030536454 0.0043951147 -0.029221162 -0.034422696 -0.033345837 0.050024852 0.063383415
-0.058828507 -0.018354245 -0.03875269 -0.038904674 0.004725229 0.02226018 0.009824664 0.069360346
-0.025596501 -0.0011403409 0.011823302 0.036331248 0.07288339 0.0628613 0.024585837 0.041963227
-0.050377753 -0.04783965 -0.019664297 0.053123493 0.07757668 0.067606896 -0.083937645 -0.04887089
0.048547707 0.03053059 0.005244465 -0.041961703 0.05183075 0.006443771 0.017104547 -0.0011461467
0.030156383 -0.06066808 0.06468846 -0.0337643 -0.04788005 0.016790587 -0.042624693 0.013510895
0.03069914 0.048572324 0.05205825 0.019812854 0.043770213 -0.06748746 -0.012274498 0.025121681

sequential_2/conv2d_3/Conv2D f4 [64, 3, 3, 64]
00000000: 1a91 543d dbcb 96bc aca5 f83c 8f47 5c3b
00000010: a5c0 e3bc 8b45 6abd a9bb 66bd ea0a 473d
00000020: fb39 213d e6eb 3ebd a4da 5dbd b518 01bd
00000030: 2d5c 453c 2617 29bd 4bbb 4e3b e1b0 573d
00000040: dac3 263c 02bf f1bc 218b 743d c263 5cbd
00000050: 0738 8c3c 1b14 203c bfc0 d8bc 134c aebd
00000060: af4b 8b39 4d21 9d3d 6af2 cb3c 9d25 cb3c
00000070: 4488 513c 4e45 9c3c 0a8c 243d fdcc 083d
00000080: c693 4c3d 0371 98bd 9930 113d af0d d7bc
00000090: d7eb e5bc 2ccb 4dbd de64 183d 4b0a 803d
000000a0: 7a6a 31bd 0495 efbc 1d03 bfbc 88c8 513d
000000b0: 8e65 babc 1027 103d df29 523d a04e 3b3d
000000c0: 538c 273c fbb6 913d 4bde 013b d1d0 6abd
000000d0: abd2 c83b bba6 1f3d adca 3cbd f747 7cbd
000000e0: ed93 05bd 2bd8 8c3d 7392 033d 10de 6dba
000000f0: 7070 23bd f13f b6bc 9055 73bd bb6e 30bd
00000100: bd39 9fbd b63e 603c 3f21 813d c47a b4bb
00000110: d048 933d 3cd4 dc3c 41df 77bd 70e4 5abd
00000120: be27 3ebd 3b25 543d 3e2a 713d c8a2 34bd
00000130: 5650 41bc 812d 953d ce3c 503d 283f 02bc
00000140: bf34 613d 6f62 98bd fa26 57bd e9a1 23bd
00000150: 103f 97bd 6fb3 30bd ffca 2b3d 65b7 a3bd
00000160: ee76 ccbc 6445 30bd 3ac9 78bd 399b 433d
00000170: 2aa2 41bd f3d1 6f3d 68ec ab3d bca3 39bd
00000180: bc47 353d 84a7 82bc 01c5 e7bc d3eb 1ebd
00000190: 5ccf aabb e4d0 713d 4715 3a3d 7853 a2bb
000001a0: 9038 35bc 4253 e0bb 5ef9 d43c 6af1 83bd
000001b0: 06fd 36bc cfa9 e3bc 7a57 64bc 1ee3 50bd
000001c0: 4b8d 983d f729 1dbd 6013 b63b 2043 0e3d
000001d0: 4ed1 983d 1ee6 f2bc 0fcc 593c 5bff 7f3d
000001e0: e73e 913d cc58 493d c741 dbbc 215a 733d
000001f0: 0df5 d8bb bbab 053d 4476 073d 739f 2abd
00000200: 5357 58bd 2be0 863c 9f6e 4bbd 6d0f 723b
00000210: a894 c13c 5c14 713d de68 51bd 4885 2dbd
00000220: 2037 01bd 1949 e9bc 744c 3bbc 8a73 42bd
00000230: c81a e43b e402 423d b76e 8b3d 9d5d 373d
00000240: 2a95 f9bc a60c 86bd b61c 08bd 2d8c 013d
00000250: fdf7 7bbc 8909 a7bc 49e6 083d 1930 70bd
00000260: e29e 31bd 8786 e73b 12d0 49bd 92b3 963c
00000270: 03e2 2f3d 4849 fdbc 1642 933d 067b 663d
00000280: 0545 b0bc 4389 50bd cb26 8e3d 86dd 8cbd
00000290: eb29 1e3d 38b1 8d3d 9bfd 25bd 9c9a 603c
000002a0: 7bf0 7ebd 86c8 e5bc 6ae1 f63c 4dae c83c
000002b0: 0377 3d3d 5a07 363d cb6d 34bd 1a80 99bd
000002c0: 4db5 243d 64b6 6f3d 0222 703d b2cc 623d
000002d0: 7109 16bd fec7 223d 7e54 35bd 6388 713d
000002e0: 251e c63c 3674 0cbd 0672 17bd 625f c23b
000002f0: ed88 1e3b 10fe 543d 8936 85bd 4c6a a73c
00000300: d58d 0bbc 664a 813d 657f 663d 8494 edbc
00000310: 4979 2c3d 3e5c 25bd efac 8a3d 0dc6 813d
00000320: 2cd9 873d 3980 6e3d 1684 10bd 0773 e1bb
00000330: c4cf 533d d56e 3fbd 298e b83d f92d 8a3c
00000340: e124 afbb 5f4b e4bd 4f15 a1bd 4cbc 0dbd
00000350: 3afb d9ba f7e0 773d de80 9abb 53c9 aebc
00000360: cf9d 70bd 727a 493d 47cf 8cbd 29ef 593d
00000370: db7e e9bc 141e 75bc 4965 623d 8c47 813c
00000380: 1bc2 44bd d15f 5bbc 1aa6 843d 5cba cd3c
00000390: 94e2 1fbd 9258 603d ba67 9ebc 2b6b 61bd
000003a0: 07c0 0d3d 1c76 353d 4e56 87bd 04f0 95bd
000003b0: ba89 1a3d 814f 05bd 9ee7 64bc 7c36 71ba
000003c0: b148 a73c 895d 8dbd 282c 86bb cecf a43d
000003d0: d669 7ebc ccf0 9fbc 0658 d4bc 4da0 693d
000003e0: 9a5a 47bc faeb 5b3d d291 28bb b7cb 26bd
000003f0: 0fa8 463d f294 7fbc 4ca0 90bd 6df6 493d
0.051896192 -0.018407753 0.030352436 0.0033611988 -0.027801821 -0.057195228 -0.05633131 0.048594393
0.039361935 -0.04661169 -0.05416359 -0.031517703 0.012045902 -0.04128184 0.003154474 0.05265892
0.010178531 -0.029510025 0.059702996 -0.053806074 0.01711656 0.0097704185 -0.026459096 -0.08510604
0.00026568535 0.07672367 0.024895865 0.024798209 0.012788836 0.019076016 0.040172614 0.033398617
0.049945615 -0.0744343 0.035446737 -0.026251642 -0.028066559 -0.050242588 0.03720557 0.06251963
-0.043314435 -0.02924586 -0.023316914 0.051216632 -0.022753503 0.035193503 0.051309463 0.04572928
0.010226327 0.07114979 0.0019816335 -0.05732805 0.006128629 0.038977366 -0.046091724 -0.06159207
-0.032611776 0.06877168 0.032122087 -0.00090739224 -0.03990215 -0.022247287 -0.05940777 -0.04307435
-0.077746846 0.013686826 0.06305169 -0.005507799 0.07191622 0.02695667 -0.060515646 -0.05344051
-0.04642462 0.05179332 0.058878176 -0.044100553 -0.011798939 0.0728407 0.050839238 -0.007949628
0.054981943 -0.0744065 -0.052527405 -0.03994933 -0.07385075 -0.04313987 0.04194164 -0.07993964
-0.024959054 -0.043034926 -0.06073878 0.047755454 -0.047273792 0.058549833 0.083947 -0.045322165
0.044257864 -0.015949018 -0.028292181 -0.03879912 -0.0052127074 0.059037104 0.045430448 -0.004953798
-0.011060849 -0.0068458626 0.025997814 -0.064425305 -0.011168724 -0.027790932 -0.013936872 -0.050997846
0.074488245 -0.0383701 0.005556509 0.034731984 0.07461797 -0.029650744 0.01329328 0.062499385
0.07092076 0.04915695 -0.026764764 0.059412125 -0.006621009 0.032634478 0.03307177 -0.04165597
-0.052817654 0.016464313 -0.049666043 0.0036935464 0.023630455 0.058857307 -0.0511254 -0.042363435
-0.031546712 -0.028477238 -0.011431802 -0.047473468 0.0069612004 0.047366038 0.068082266 0.04476701
-0.030466635 -0.06545381 -0.033230506 0.031627823 -0.015378949 -0.020390289 0.033422742 -0.05863962
-0.043364413 0.0070655975 -0.049270697 0.018396173 0.04294015 -0.030918732 0.07190339 0.056269668
-0.021517286 -0.050912153 0.06940993 -0.0687819 0.038614195 0.069185674 -0.04052506 0.013708737
-0.06224106 -0.028049719 0.030136783 0.024497176 0.046256077 0.044440605 -0.04405002 -0.074951366
0.040211964 0.05852355 0.058626182 0.055370994 -0.036630098 0.03974151 -0.04427003 0.05896796
0.024184296 -0.034290515 -0.036973976 0.0059317807 0.00241905 0.052000105 -0.065045424 0.020436428
-0.008517702 0.063130185 0.056273837 -0.029001482 0.042107854 -0.040371172 0.06771266 0.06336603
0.06633219 0.05822775 -0.035282217 -0.0068801674 0.051711813 -0.046736557 0.0901149 0.016867625
-0.0053449725 -0.111471884 -0.078653924 -0.034603402 -0.0016630657 0.060517278 -0.004715069 -0.021336233
-0.058744248 0.04918904 -0.068754725 0.053206597 -0.028502872 -0.014960784 0.055272374 0.015781187
-0.048036676 -0.013389544 0.06476994 0.025113277 -0.03903444 0.054771967 -0.01933657 -0.055033844
0.03460696 0.04430209 -0.06608258 -0.0732117 0.037729003 -0.032546524 -0.0139712375 -0.0009201539
0.020420404 -0.06902606 -0.0040946193 0.08047448 -0.015528163 -0.019524 -0.02592088 0.05703764
-0.012167597 0.05369184 -0.0025721681 -0.04072162 0.048500117 -0.015599476 -0.07061824 0.049307276

sequential_2/conv2d_4/Conv2D f4 [64, 3, 3, 64]
00000000: 44ba bf3b 4919 5fbd 4fd4 9ebd 71e2 e4bc
00000010: 8e40 fabc c9f8 32bc 921b 8fbb 64ba 6b3d
00000020: 6007 b5bc add2 0dbd 38ba 363c a317 0e3d
00000030: c000 39bd 5960 8b3d 123a 11bd 1ffa 163d
00000040: a705 823d 8303 643d f9f9 eb3c d5eb 32bd
00000050: 1fd2 c8bc fdbd 9239 0ee4 7d3d f0d0 a7bc
00000060: 5f3e 41bc 981f 7ebd efc3 aabc 428c 82bd
00000070: 2ac9 ef3c 6cd2 823c 552c 403d 4e1b d23c
00000080: 2977 443d 1a75 b8bc e7cc 493d f18e 9c3c
00000090: f572 88bd d870 d73a 54ad 033c c84d 4c3d
000000a0: 0fbc 30bd e627 38bd 8fef 82bd ae88 1e3c
000000b0: dd10 e5bc 621f 12bd df03 6d3d ec77 7f3c
000000c0: 283c 4bbd 124b 273d bce9 393d 7a49 8fbc
000000d0: ada7 263a baac cdbc d49d 05bc f5fb 683c
000000e0: b33e 83bd ed61 653c aed1 8fbc 3f00 863d
000000f0: f892 f1bb f9d0 1fbc c5ea 533d 9f73 0e3d
00000100: 2b9d 0cbd 6bf9 413d 0cfa aabc a812 9d3c
00000110: 4ff6 843d 825f eb3a a8bd 8d3d 7c9b 393d
00000120: 1aeb 813d f60e c13c ee71 233d ab63 47bc
00000130: 7299 59bc a470 3bbd e305 913d 4e84 14bd
00000140: 96da 11bd f2d3 943d 39d8 8f3c fc6f 65bd
00000150: bfd2 93bd aabf 9e3a d49a ccbc 04d8 47bd
00000160: 71bd 9bb9 8ef7 27bd 4991 133d cf31 04bd
00000170: 3ab7 36bd 1683 783c e907 d73a 398a 88bd
00000180: a3b1 8b3c 54cc 323c 8916 01bd f680 5d3d
00000190: 98c4 50bd c7d6 42bd f415 84bd fe93 563d
000001a0: 8ef7 00bd 5698 0dbc 36d6 553d fe9d 8abc
000001b0: 2707 423d 49d8 4c3c 4c35 c7bc 119a a6bc
000001c0: bb8a 07bb 32bd 6ebd acd6 30bd 514d 583c
000001d0: 21a5 413d e6a8 283d f3d2 f1bb 7eb2 213d
000001e0: 1b0a 903c a2a5 29bd 6a14 323d 19e9 6cbd
000001f0: 5b51 56bc c682 8e3c 0d46 2f3d 50fc 3cbd
00000200: 3df9 4e3d 911a 02bd daf6 363d d594 24bb
00000210: 3e97 0bbd daa7 5b3c d78c 903d bb39 393d
00000220: 451a 003d 71bd 353d c74b 5fbd a7ba 8b3d
00000230: e732 a3bd ccd9 093d 655c 4cbd f37c 4dbd
00000240: 11aa 383d 6ecb d33b 45ef f5b8 066a e8bb
00000250: 3067 d33b 309e 6b3d 971c 443d 4b75 db3c
00000260: 63cc 3b3d cdd4 60bc 6484 40bc 2e39 8cbd
00000270: 50c2 eb3c d88d a03c 4e69 f9bb 5c02 aabc
00000280: cd7c a43c d347 823d e613 e73c cdbb 6c3d
00000290: 486f c13b 7ce9 963d 02b6 8abd 4f72 633d
000002a0: 53bc 2e3d d57d 27bd 3558 143c b3e9 d5bc
000002b0: cc37 51bd e777 59bc ad2b 80bd 0afd d83c
000002c0: 8e4f 053d f27b 393d b62b 0c3d ae54 b9bd
000002d0: 2a07 503d bc63 91bc 3c8b 013d e308 26bd
000002e0: a9b7 a1bb 4a34 69ba cc10 733b ee69 0cbd
000002f0: 7336 16bd f9d1 493d 896c 8ebd 0fbe 333d
00000300: 5040 093d 2a11 d8bc 8c11 623d 2cc5 fb3b
00000310: f467 7dbd dc16 a43d c57d b7bc 5ce4 a6bc
00000320: 505e a43c 6dac 943b b060 8a3d 9291 af3d
00000330: 532c 6e3d 8f38 cabc cbed 383d 2284 e6bc
00000340: 915b 4f3d 923f 16bd e230 12bd ffcd f2bb
00000350: b31a ed3c fe94 653d 0c31 573c 8733 043c
00000360: 46fa 48bd 12f9 e7ba 999f 9438 c826 c03c
00000370: e04a 523d 1ebd 243d 1c61 283c 1d48 a93c
00000380: b645 a93d 0a78 04bd 56bf d7bc 7f23 903c
00000390: e48c a0bc 981f 65bc 8c75 6abd 8e40 8bbd
000003a0: f636 1b3d 853c 70bd 3781 c23c 0f20 963d
000003b0: 703a 703c 3f4f 61bc 3ebb 253d 4893 babb
000003c0: d205 2abc b7d2 5a3c 244f 00bd adb3 25bd
000003d0: 088c 5f3c 29a1 3ebd 5387 2dbd 8ca4 e5bc
000003e0: afdf 62bc ac6e 203d 1763 37bb 7e8a 8a3c
000003f0: 4f21 b43b 7b84 c43d 0012 81bc 8ffb 513d
0.005851062 -0.054467473 -0.077553384 -0.027940007 -0.03054836 -0.010923573 -0.0043673003 0.057550803
-0.022098243 -0.034624744 0.011152796 0.03469051 -0.04516673 0.06805486 -0.03545577 0.036859628
0.06348734 0.05566741 0.02880572 -0.04368194 -0.024514256 0.00027988842 0.061985068 -0.020485371
-0.011794656 -0.06204185 -0.020845382 -0.06374408 0.029270727 0.015969478 0.04691728 0.025647786
0.047965202 -0.022516776 0.049267676 0.019111129 -0.06662551 0.0016436828 0.00803693 0.049878865
-0.043148097 -0.044959925 -0.063933484 0.009676142 -0.027962143 -0.03567446 0.05786502 0.015592556
-0.049617916 0.040843077 0.045388922 -0.017491091 0.0006357383 -0.025106777 -0.008155305 0.0142202275
-0.06408443 0.014000398 -0.017556038 0.06543016 -0.0073722564 -0.009754413 0.051737566 0.034778234
-0.034329575 0.047357004 -0.020871185 0.019173935 0.06492292 0.0017957541 0.0692094 0.045314297
0.0634367 0.023566704 0.039903574 -0.012169759 -0.013281213 -0.04576172 0.07081201 -0.036258988
-0.03560885 0.07266988 0.017559158 -0.056015 -0.07217931 0.0012111564 -0.024976172 -0.048789993
-0.0002970505 -0.04100757 0.036027227 -0.032274064 -0.044608332 0.015167972 0.0016405556 -0.06666989
0.017052477 0.010912973 -0.03151563 0.054078065 -0.050968736 -0.04756811 -0.064495 0.05238723
-0.031486087 -0.008642277 0.05220624 -0.01692104 0.047370102 0.012502738 -0.024317406 -0.020337136
-0.0020682055 -0.0582859 -0.043173477 0.013202027 0.04727662 0.0411767 -0.0073798834 0.039476864
0.017582944 -0.041417725 0.0434765 -0.057839487 -0.01308092 0.017396342 0.042791415 -0.04613906
0.05053066 -0.031763617 0.04466901 -0.0025113125 -0.034079783 0.013406718 0.07058113 0.04522107
0.031275053 0.04437012 -0.054515626 0.068227105 -0.07968693 0.033654973 -0.0498928 -0.05016799
0.045084063 0.0064634597 -0.00011727078 -0.007092717 0.00645151 0.057523906 0.047878828 0.026789328
0.045849215 -0.013722611 -0.011750314 -0.06846844 0.028779179 0.019598886 -0.0076114303 -0.020753078
0.02007904 0.06361356 0.02820773 0.05779629 0.0059031583 0.07368752 -0.067729965 0.055528935
0.04266007 -0.040891487 0.009054233 -0.026112413 -0.051078603 -0.013273216 -0.062583305 0.026487846
0.032546572 0.04528422 0.034221373 -0.090493545 0.050788082 -0.017747752 0.031626925 -0.04053582
-0.004935224 -0.00088960363 0.003708887 -0.03428071 -0.03667302 0.04927251 -0.06954295 0.043882426
0.0335086 -0.026375372 0.055192515 0.007683417 -0.061866716 0.080121726 -0.022398839 -0.020372562
0.020064503 0.0045371563 0.06756723 0.08572687 0.05814774 -0.024685172 0.045148652 -0.028139178
0.050624434 -0.03668172 -0.03569115 -0.0074098106 0.028943395 0.056050293 0.013134252 0.008068926
-0.049066804 -0.001769813 7.086917e-05 0.023455992 0.051340938 0.04021942 0.010277059 0.02066427
0.082652494 -0.03234104 -0.026336353 0.01759505 -0.019598432 -0.013984583 -0.057241008 -0.06799422
0.03789421 -0.058651466 0.023743255 0.073303334 0.01466237 -0.013751804 0.04046177 -0.005693827
-0.010377364 0.013355902 -0.031325474 -0.040454555 0.013644226 -0.046540413 -0.042365383 -0.028032564
-0.013847276 0.039168045 -0.0027982646 0.016911741 0.0054971348 0.09595581 -0.015755653 0.051265296

sequential_2/conv2d_5/Conv2D f4 [64, 3, 3, 64]
00000000: 0f96 ddbc 5e98 523d 719a e33c 49ba aabb
00000010: 60dd 1d3d 821b 6c3d 775d 293d 827e 2b3d
00000020: 4c65 a4bc 9251 1abd 2947 133d 31af 713c
00000030: 3fce 6b3d 069e 4fbd b970 2bbc e459 33bd
00000040: c173 43bd de94 28bc f761 813d 2cfa a8bc
00000050: 0155 7e3d b8e0 71bd 3c53 36bd 6fa6 01bd
00000060: e111 8fbd 1db4 eebc 2dc3 75bd 6477 53bd
00000070: cc80 a7bc b8e9 05bd 2aa3 9e3c 18bc 323d
00000080: e06b 9ebd e10f 96bc 52b9 253d c08a 0b3c
00000090: 6e09 8dbd bc71 f3bc 203b 203d dae8 b7bc
000000a0: 6576 773c 8891 553d 4a14 8fbc a506 1a3c
000000b0: 3ed3 68bc aaae a23b 2267 80bd 2c31 a63c
000000c0: 0ee4 593c 0ffd d3bc 7884 733d 6ee6 60bd
000000d0: b942 483d 1387 a63c 70dd 6bbd c7f7 6bbc
000000e0: fb90 99bd 3d1a 20bd 9a44 f93c 0458 0e3b
000000f0: 8411 2dbd 0949 f23c 1c66 c03c 65d5 75bd
00000100: 2a9c 273d a4e7 c53c afee 763d d6da 633d
00000110: 135f 5e3c 3534 a83c b306 0b3d ca5d 533d
00000120: aa6b f1bc f822 4bbd 5383 bd3c 2d6e e93c
00000130: c965 0fbc 64a0 34bd e8bb 933d 24e3 59bd
00000140: 7828 ddbc b322 87bc f3c6 41bd b73c 833d
00000150: 80fc 64bd 7de2 ed3c feae 3a3d 3a5b 58bd
00000160: d462 2ebd 76a9 1b3c 2078 183c a889 a13c
00000170: 83e9 6e3d c763 8f3c e4bb 283d 8676 36bd
00000180: 866a 27bd af83 8c3d 2ea9 88bd 3037 0f3c
00000190: 689b c0bc 26af 843c b1f6 b0bc 50a1 40bd
000001a0: 33eb c53c 3381 84bc 4a89 a1bc a7ac 9bbc
000001b0: bc19 94bd 1227 11bc 0fa6 8fbb 7cc2 8d3d
000001c0: 1cc9 e6bb 120d 4d3d 7f4c 023d 8ade 55bc
000001d0: defe 54ba b1f6 49bd 8093 243b b119 15bc
000001e0: e8db 97bd fb63 83bd cb63 18bc 6581 92bd
000001f0: 9c12 3b3d 60f3 203b 6926 373b b6df 14bd
00000200: f7d9 a0bc 234c 05bd ce1a 64bd b667 b03c
00000210: eaf0 97bd aa64 8dbc 4208 debc bd28 b63c
00000220: 24f5 31bd b04f 8f3d 6b7b 323b 4fd5 cebc
00000230: 3720 4abb 0d9d 5abd ac02 f3bc 38dc 063c
00000240: 4451 cabc 5ed6 0ebd f2d2 0b3d 0db7 87bc
00000250: 389b 38bb 8bdd 26bd 1187 303d d953 5d3c
00000260: 9380 853d 0e8c a73c 6411 ce3c badc 343d
00000270: 266d 8d3d 81b4 3b3d f567 babc 6020 fb3b
00000280: 6261 583d f866 103a bdca c7bc 5253 4f3d
00000290: d505 9fbc d312 bfbc 128e 18bd 3429 893a
000002a0: 872b 463c 47bb 2ebc 232a 663d 2f06 74bd
000002b0: 050e 5b3d 0280 af3c 9a24 f13c c803 8e3a
000002c0: d71c 90bc dcb3 93bc b463 fbbc 2b33 293d
000002d0: 9aae dc3c 33e0 9dbd 4a66 273d 7eb1 743d
000002e0: 297f 7fbd e2b0 39bd 5a90 923d 7022 463d
000002f0: 6811 01bc 24a2 a2bc 8ca8 2a3d 96c7 aebd
00000300: 1255 b8bb 3616 d5bc 23e2 5fbd 665c 4c3c
00000310: 5679 133d 056e 9cbd bd6a 4b3d 2d40 0cbd
00000320: dd90 9bbd e856 e4bc 84a8 5cbc fe26 92bd
00000330: e3d5 d23b c1b0 213b ae3b 23bd e0ed ff3c
00000340: 92e7 85bc 9d04 56bd 495c a4bc a786 be3c
00000350: 4940 52bc bb69 85bd c73a 593d d424 e4bc
00000360: 338b 0b3d 991d 0abd 93ed 8fbd 0fe9 88bd
00000370: 3fb8 913d 7b93 16bd d174 4dbd 5a17 68bd
00000380: acab bc3c f9b7 92bd 4188 703d 4869 333c
00000390: 588c 91bc 46bb 66bd 1137 3fbb 2e33 adbc
000003a0: d640 ecbc 019e 803d 034e e53c d97e dfbb
000003b0: 99b9 333d 77a8 283d 97ad d03b 773f 833d
000003c0: 7a42 91bd 2a75 ccbb b081 b23b ef9c ba3c
000003d0: 2ece 0bbd 5b9d 8b3c 90ef 013d 6403 8c3c
000003e0: f761 8abb f8c6 4e3d 77c1 58bd 104b a3bd
000003f0: ea5d 05bd 20c8 783d c3bb 94bd 33d1 8e3c
-0.027049093 0.05141484 0.027783604 -0.005210195 0.038541198 0.05764342 0.0413489 0.041868694
-0.020067833 -0.037675448 0.035956535 0.014751242 0.05756974 -0.050687812 -0.010463887 -0.0437869
-0.047717813 -0.010289399 0.063175134 -0.020627104 0.062092785 -0.0590522 -0.044512972 -0.031652864
-0.06985832 -0.02913862 -0.060000587 -0.05162753 -0.020447157 -0.032693595 0.019364912 0.04363641
-0.07735419 -0.018318119 0.04045994 0.008516967 -0.06886564 -0.029717319 0.039118886 -0.0224499
0.015103911 0.052140743 -0.01746573 0.009400998 -0.01421052 0.0049646692 -0.06269671 0.020287119
0.013299001 -0.025877504 0.059452504 -0.054907255 0.048891757 0.02032808 -0.057584226 -0.014402336
-0.07498356 -0.039087523 0.03042822 0.0021719942 -0.042253032 0.029575842 0.02348619 -0.060017962
0.040920414 0.024158306 0.06028622 0.05562862 0.013572472 0.020532707 0.033941936 0.051603116
-0.029470284 -0.049593896 0.02313391 0.028494919 -0.008752295 -0.044098273 0.07213575 -0.053195134
-0.026996836 -0.016496038 -0.047308873 0.06408065 -0.055904865 0.029038662 0.04557704 -0.052821375
-0.04257472 0.009500852 0.009305984 0.01971896 0.058328163 0.017503632 0.04119481 -0.044546627
-0.040873073 0.06861054 -0.066728935 0.008741185 -0.023511603 0.016196799 -0.021602007 -0.04702884
0.024160003 -0.016174888 -0.019718785 -0.019003225 -0.07231471 -0.008859413 -0.0043838094 0.069218606
-0.007043017 0.050061293 0.031811234 -0.013053546 -0.00081251364 -0.04930753 0.002511233 -0.009100364
-0.07414991 -0.06415554 -0.009301136 -0.07153586 0.045672044 0.0024559125 0.0027946478 -0.03634616
-0.019635184 -0.032543313 -0.055689625 0.021533828 -0.074189976 -0.017259914 -0.027103547 0.022236222
-0.043446675 0.06997621 0.0027234207 -0.025248198 -0.0030841955 -0.05337243 -0.02966436 0.008231215
-0.024696954 -0.034872405 0.03413672 -0.016566778 -0.002816869 -0.040738624 0.04309756 0.01350876
0.06518664 0.020452525 0.025154777 0.044155814 0.06905584 0.04582644 -0.022754649 0.0076637715
0.052827246 0.00055085076 -0.024388665 0.05061657 -0.01941196 -0.023324406 -0.037244864 0.001046455
0.012095339 -0.010664768 0.05619253 -0.05957621 0.053480167 0.021423344 0.029436398 0.0010834867
-0.017591877 -0.0180301 -0.03068719 0.041308563 0.026938725 -0.07708778 0.040869035 0.059739582
-0.06237713 -0.045334704 0.07156439 0.048372686 -0.007877685 -0.019852705 0.041664645 -0.08534162
-0.0056253755 -0.026011568 -0.05465902 0.012473201 0.036004387 -0.07638172 0.04966234 -0.03424089
-0.0759599 -0.027873471 -0.013467912 -0.071363434 0.0064341887 0.0024672004 -0.039851837 0.031241357
-0.016345773 -0.052250493 -0.020063536 0.023257567 -0.01283271 -0.06514307 0.05303457 -0.027849592
0.034068298 -0.033719633 -0.070277356 -0.066850774 0.0711522 -0.036761742 -0.050160233 -0.056662895
0.023031078 -0.07163996 0.05872369 0.010950394 -0.017767116 -0.05633094 -0.002917711 -0.021142568
-0.02883951 0.06280137 0.0279913 -0.0068205413 0.04387817 0.041176286 0.00636835 0.06408589
-0.070927575 -0.006239553 0.005447589 0.02277991 -0.034132175 0.017042806 0.031722605 0.01709146
-0.004223104 0.05048272 -0.052918877 -0.079733014 -0.032560267 0.06073773 -0.07262375 0.017433738

sequential_2/dense_1/BiasAdd/ReadVariableOp f4 [6]
00000000: 15e1 78bc 3604 4f3c 9aad ba3c 2f14 033c
00000010: e3fb c4b9 3187 ecbc
-0.0151903825 0.012635281 0.022787858 0.008000418 -0.00037571703 -0.028873058

sequential_2/dense/BiasAdd/ReadVariableOp f4 [64]
00000000: 9d67 3cbc c1ff c23c cc2a 06bc e078 13bc
00000010: 35ac dabb d042 42bc cebe e6bb 07a9 bc3b
00000020: 7860 0d3d c615 00bc f225 9abb b23a b4bb
00000030: 682e a1bc fd76 87bb 4908 e83c 7140 4f3c
00000040: 67f4 4ebc 713d f6bb 115b c1bc ec49 c23c
00000050: be68 03bc c27c 2abc 0abd 083b 831f d83c
00000060: 51b1 b03c cf50 cdbb eee5 d53b 6b19 be3c
00000070: 285d 1a3c efef 673c 26c7 c4bb c59d d7bb
00000080: 818d 74bc aa2a 1b3c 0dac c73c d409 e6bb
00000090: 5247 a1ba 0000 0000 f1eb aa3a 65e2 ae3c
000000a0: 96f1 153c 3966 e63b e8d5 a7bb 2e56 28bc
000000b0: 5048 62bc 6cf8 0ebc 1eac a83c 0000 0000
000000c0: 902e 13bc 36d8 8ebb 6417 66bb b39e 16bc
000000d0: 0000 0000 0000 0000 01c6 16bc d425 25bc
000000e0: 5fc7 a8bc b889 9fbc 69bb a0ba 0000 0000
000000f0: 6240 dc3c b74d 26bc c7ea cc3b 7520 b6bb
-0.011499313 0.023803594 -0.0081889145 -0.009000987 -0.0066733607 -0.01185675 -0.0070417887 0.0057574543
0.034515828 -0.007817691 -0.0047042305 -0.005500161 -0.019675449 -0.0041340576 0.028324263 0.012649641
-0.012631512 -0.0075146486 -0.023602994 0.02371689 -0.008020578 -0.010405721 0.002086463 0.026382213
0.021568926 -0.0062657367 0.006527654 0.02320548 0.009421624 0.014156326 -0.0060051857 -0.006580087
-0.014926315 0.009470621 0.024374032 -0.0070202146 -0.001230458 0.0 0.0013040287 0.021348188
0.009151837 0.007031229 -0.005121935 -0.010274453 -0.013811186 -0.008726221 0.020589884 0.0
-0.008983269 -0.0043592704 -0.0035109157 -0.00919311 0.0 0.0 -0.009202481 -0.01007982
-0.02060288 -0.01947485 -0.0012262884 0.0 0.026886169 -0.010150365 0.0062535736 -0.0055580684
