app/src/main/ml/CornDisease.tflite (tflite, 741920 bytes, 16 tensors)

sequential_2/dense/BiasAdd/ReadVariableOp f4 [64]
00000000: fbdc d6bc f5ef ebbd eba9 223d 3b3f 0d3e
00000010: f056 bdbc 430e 90bc 1751 81bb 28e2 fc3c
00000020: 3058 95bc 1a34 10bc a446 973d 18b2 0fbd
00000030: 48c2 7abc aa14 5bbc 6331 e5bb d10c 46bc
00000040: 41c6 963c bd2a cfbd b7b7 5b3d 7224 7dbd
00000050: 4360 3a3b cac0 263d 16dd 21bd 4d77 8d3d
00000060: 75d1 24bd 3323 aabd 45d2 a5bc 0a5b a4bc
00000070: d247 303b b475 90bc a42f a83c e444 763c
00000080: 49df 0bbb 46b8 87bd 8e0f 26bc bf54 703d
00000090: 7df3 42bc 2122 813b 619e 3d3d c2ec 83bd
000000a0: 0423 763d ba57 fc3a 40d5 4ebc dd52 aebc
000000b0: 0e0c 463c bd17 1abc 41b8 693d 43f1 60bc
000000c0: 3452 e4bb 2533 e73c 38c8 74bb c6e8 84bc
000000d0: 4d03 403d 91a3 d0bc b8d9 60bd eb96 033d
000000e0: 5624 77bb 3fc8 b4bc 2c93 2c3c e17a 763b
000000f0: e36b 383d 6de1 20bd 61c3 523d 9cb5 13bc
-0.026228419 -0.115203775 0.039712828 0.13793652 -0.023112744 -0.017584926 -0.0039464342 0.030869558
-0.018230528 -0.0088014845 0.073865205 -0.035081953 -0.015305109 -0.013371626 -0.0069944127 -0.012088017
0.018405082 -0.101155736 0.053642 -0.061802335 0.0028438724 0.0407112 -0.039517485 0.069075204
-0.040238816 -0.08307495 -0.020241866 -0.020062942 0.0026898277 -0.01763425 0.02053053 0.015031073
-0.0021342805 -0.06626944 -0.010135544 0.05867457 -0.011898872 0.003940836 0.04629362 -0.06441642
0.060091987 0.0019252219 -0.012624085 -0.021279747 0.012087835 -0.009405074 0.057060484 -0.013729396
-0.006967807 0.02822263 -0.0037350785 -0.016224276 0.046878148 -0.02546862 -0.054895133 0.03212635
-0.0037710867 -0.022068141 0.010533135 0.0037609863 0.045024764 -0.039277483 0.05145586 -0.009015467

sequential_2/dense_1/BiasAdd/ReadVariableOp f4 [4]
00000000: 4ca9 983b 7286 debd af34 883d 9b6a b53c
0.0046588536 -0.10865487 0.066506736 0.02214556

sequential_2/conv2d/BiasAdd/ReadVariableOp f4 [32]
00000000: c348 27bc 7a56 bb3c eac5 c0bb dd20 c03a
00000010: ca50 b03a 919a b83b 53fd 82bc 8037 bf3c
00000020: ae57 9bbc 545c 45bb ec0a 30ba d185 c93c
00000030: 86cf 003d ab52 edbb 5a8d 363c 9c11 223c
00000040: 9ce7 b83c aedf 9bbc bd3e b4bc 5d10 023d
00000050: d9bd 7d3c 7224 b73c 0f89 d8bc 8454 c03c
00000060: 32fd 3cbb 7c90 e13c 7445 04bc 257b 43bc
00000070: 1498 27bc 749d b7bb 45d8 99bc 463c c93c
-0.010210219 0.022868384 -0.005882968 0.0014658232 0.0013451811 0.00563366 -0.015989935 0.023341894
-0.018962707 -0.0030114846 -0.00067154947 0.024599941 0.03144791 -0.007242521 0.011142099 0.009891894
0.022571377 -0.019027557 -0.022002572 0.031753886 0.015487158 0.022356246 -0.026432542 0.0234778
-0.002883744 0.027534716 -0.0080732 -0.011931215 -0.010229129 -0.0056034867 -0.018779883 0.024564873

sequential_2/conv2d_5/BiasAdd/ReadVariableOp f4 [64]
00000000: 4dfb d4bb 0ee3 c4bb 95e8 1ebd e417 0cbc
00000010: 5d4f 11bc db0e 9dbc 1efa c4bc a69b a2bc
00000020: 09e2 d7bc 99a2 5d3d 1299 6abc 5462 1cbc
00000030: f578 5ebd 1b4e f73c 25d9 3abc bec5 013d
00000040: cb4a 663d 0579 96bc 5db8 93bc 9b2d 98bd
00000050: 28e7 43bc ac35 bb38 78fa 883b 3f4b 2a3d
00000060: b678 78ba 7889 8abc 84dc 863d 0e2c 95ba
00000070: a99f 253d e35e c6bb ddb9 76bd 2ea0 e7bc
00000080: dbd2 26bd 1f72 51bc 86f6 2fbb 7556 ffbb
00000090: 3833 9dba a2f9 e63d 1c86 67bc 4864 463d
000000a0: 4562 4abd 3da2 1ebc 2147 33bd d2e8 873d
000000b0: 8b9b 1bbc 0270 8dbb 89b7 39bc 39ff 4fbd
000000c0: 4178 30bd 6a66 33bc 90ef d4bb 24eb 82bc
000000d0: 7a57 15bc d118 0bbc 28ca e1bb 1cbc e7bc
000000e0: afaf fbbc 7005 f8bc 6bfc 0a3d 30d2 943b
000000f0: 52fb 4c3d f1c0 85bc b90d e4bb b3db 9cbb
-0.006499684 -0.0060085123 -0.038796026 -0.008550618 -0.008869019 -0.019172123 -0.024045046 -0.01984961
-0.0263529 0.054110143 -0.014318721 -0.009544928 -0.054314572 0.03018861 -0.01140431 0.031682722
0.056223672 -0.018368253 -0.018032247 -0.074305736 -0.011956967 8.926852e-05 0.004180249 0.041575667
-0.00094784366 -0.016911253 0.06585029 -0.0011380927 0.040435467 -0.006053792 -0.060235847 -0.028274622
-0.04072843 -0.012783556 -0.002684982 -0.007792289 -0.0011993414 0.112780824 -0.014131095 0.04843548
-0.049410123 -0.009682235 -0.043769006 0.06636204 -0.009497534 -0.004316331 -0.011335262 -0.05078051
-0.043083433 -0.01094971 -0.0064982846 -0.015981264 -0.009115094 -0.008489803 -0.006890554 -0.02828794
-0.03072342 -0.03027603 0.03393213 0.004541658 0.050044365 -0.016327353 -0.0069596437 -0.0047869324

sequential_2/conv2d_4/BiasAdd/ReadVariableOp f4 [64]
00000000: 5c61 3abc e5f3 923d 1d20 533d c05a ddbb
00000010: 1072 aebc f99a d23b 3ac5 c6bc 8215 0fba
00000020: 42da 6abc e283 6839 72bc 2dbc d17b 243d
00000030: 2b2e 70bc dc16 393d 2903 b1bc b70a 55bc
00000040: fda9 b6bc 9b2a 173d 3d41 94bc f6e5 cbbc
00000050: 5f3a 5a3d 4379 51bc 74aa dab9 f3f0 4cbc
00000060: 4fd8 a73c d450 0f3d 136e e7bc 4a5b 81bd
00000070: c6b2 17bc 74a1 29bd b222 93bb ab54 97bd
00000080: 7b62 02bd 1ea6 3a3d c1f3 ac3d 7a55 123d
00000090: 1220 cebb 33bb 12bd f5cc cebc 4f19 e9bc
000000a0: 1185 36bc ba26 c63a 91dc 5f3a ad80 013d
000000b0: 137e 35bc 7409 35bc 6412 79bb c167 35bd
000000c0: b55d 173d 23e7 4dbc f127 3cbc 6986 10bb
000000d0: 5653 0bbc 30c6 a8bc a602 383d a6d1 96bc
000000e0: dba5 f8bc 77a0 0abd 308c 193d 662e eebb
000000f0: 54bb 22ba 9bcd 4a3d c44e 773d c91f cdbb
-0.011375751 0.071754254 0.051544297 -0.006755203 -0.021294624 0.0064271656 -0.024263967 -0.0005458222
-0.014334263 0.00022174374 -0.010604011 0.040157143 -0.014659445 0.045187816 -0.021607952 -0.013003043
-0.022297854 0.036905866 -0.018097514 -0.024889927 0.053278323 -0.012785259 -0.00041707198 -0.012508619
0.020488886 0.034989193 -0.02825073 -0.0631624 -0.0092589315 -0.04141374 -0.00449022 -0.07389196
-0.0318322 0.045568578 0.0844493 0.035726048 -0.006290444 -0.03582306 -0.025244216 -0.02845445
-0.011140124 0.0015117743 0.0008539642 0.031616855 -0.011077422 -0.011049617 -0.0038005346 -0.0442884
0.0369546 -0.012567314 -0.011484132 -0.002205277 -0.008503756 -0.020602316 0.0449244 -0.018410515
-0.030352524 -0.033844437 0.03748721 -0.0072687147 -0.00062077236 0.049512487 0.06037785 -0.0062598926

sequential_2/conv2d_3/BiasAdd/ReadVariableOp f4 [64]
00000000: 5e0b 073d 15b8 183d de81 8ebc 8bad 723c
00000010: 7f72 313b ee4c 2dbd e535 973b 9d5d 08bd
00000020: 391d 7bbb 5ec6 0e3d 8970 2dbc fa33 65bc
00000030: 9a6d 2dbb ec3a 253c 8d4d 89bc 5bad e0bc
00000040: 146c 6fba 8c61 32bc 6ba2 c0bc 1b04 eeba
00000050: 0e21 3cbc 9a82 eebb 0932 333c 3fab c4bb
00000060: 016c 803c b791 aabb 517c a8ba b884 02bc
00000070: 6ef4 39bc da79 f3bc 1b27 0dbc ffda f5bb
00000080: 22e1 da3c fc46 eb3b e8e5 813b 607f 91bc
00000090: d94c 69bc c6cf a6bb a12f b43c 7897 2cbd
000000a0: 2d6d b93b b3d0 0bbc ff5e 42bc b6d9 05bd
000000b0: c8c2 833b d016 15bc d230 8f3c 9bfd 30bc
000000c0: d19a 843c c179 fe3c 6bff eebb 0c33 d2bc
000000d0: a126 433c e0c1 153c 4ef8 29bc 5c93 16bc
000000e0: 7f03 d8bb a423 0abc 48bf d4bc 0da4 333c
000000f0: c42d a4bd 0932 40bd d6c0 df3c d9f1 8abd
0.032969825 0.03728493 -0.01739591 0.014811884 0.0027076302 -0.042309694 0.004614579 -0.0332924
-0.0038316979 0.034857146 -0.0105859125 -0.013989443 -0.0026463033 0.010084849 -0.016760612 -0.027426412
-0.00091332314 -0.010887515 -0.023514947 -0.0018159183 -0.01148249 -0.0072787525 0.010937222 -0.0060018594
0.0156765 -0.005205359 -0.0012854432 -0.007966213 -0.0113497805 -0.02972119 -0.0086152805 -0.007502913
0.02671868 0.007180093 0.0039641745 -0.017760932 -0.014239513 -0.0050906865 0.021995367 -0.04213664
0.0056587667 -0.0085336445 -0.011863469 -0.03267833 0.0040210225 -0.009099677 0.017479334 -0.010802652
0.016187103 0.031063916 -0.007293632 -0.025659107 0.011911065 0.009140462 -0.010374142 -0.009190407
-0.0065922136 -0.008431349 -0.025970116 0.010964406 -0.080165416 -0.046922717 0.027313631 -0.0678441

sequential_2/conv2d_2/BiasAdd/ReadVariableOp f4 [64]
00000000: 124d 273c 699d 8fbc 9daa 3fbc d88c 85bc
00000010: 385e 593c 4713 953c a960 33ba cae3 ab3c
00000020: 5028 403b 54b8 c5bc 46cb fabb 2a1c 173c
00000030: 20a8 1f3d cabe 983b fbfe 32ba 546b 9ebc
00000040: 11b6 c5bb df76 493c d116 a8bc 45e3 86bb
00000050: dd79 21bb 1bba 89bc 7c4f c6bc ab44 fdba
00000060: fc57 fe3b 572a 553c 365c a0b9 be2e 0bbc
00000070: 3bc4 7bbc 6553 54bb f167 edbc 0220 853c
00000080: 8a94 d03b c9cf abbc ca54 a53a db3f 1cbc
00000090: ec29 98bc fa89 8f3b f7ee e13c df6d 2abc
000000a0: ab0c 163c b0e5 223c 71fa 9d3b 848b 453c
000000b0: 6665 073c f2e0 52bc 22b1 46bc 4c12 6ebc
000000c0: 9a7e 1b3c 7fca 06bc e83f babb 4c2d 2fbc
000000d0: a434 08bc 2983 04bd b443 a63b 93b3 8fb9
000000e0: 09e0 dabb 4d49 c53a 0a23 4cb9 0903 483c
000000f0: 1d74 8a39 c09b 0d3c 8c7a af3a d8ec 2c3b
0.010211246 -0.017531114 -0.011698392 -0.016302511 0.013267092 0.018197669 -0.00068427116 0.020982642
0.0029320903 -0.024135746 -0.0076536266 0.009223023 0.038978696 0.0046614157 -0.0006828156 -0.019338287
-0.006033667 0.0122964075 -0.020518692 -0.004116448 -0.0024639287 -0.016812375 -0.024207823 -0.0019322833
0.0077619534 0.013010583 -0.0003058628 -0.008495031 -0.015366609 -0.003239834 -0.028980227 0.016250614
0.0063653635 -0.020973103 0.001261377 -0.009536709 -0.018574677 0.0043804618 0.027579768 -0.010402172
0.009158294 0.009942457 0.0048211147 0.012057189 0.008263921 -0.012871014 -0.012127193 -0.0145307295
0.009490633 -0.00822699 -0.0056838877 -0.010691952 -0.008313332 -0.032351647 0.005073989 -0.0002740888
-0.006679539 0.0015051753 -0.00019468009 0.012207755 0.00026407922 0.008643091 0.0013387962 0.0026386287

sequential_2/conv2d_1/BiasAdd/ReadVariableOp f4 [64]
00000000: 7e11 88bb 044b 16bc d338 20b9 0b62 ae3c
00000010: df29 5bbc ac86 43bc 3cd0 b73b 30c5 a63c
00000020: 08c9 783c 53f7 1ebd 611b d83a ba37 8ebb
00000030: 684d 5bbc 7196 31bc 5f48 a8bc c2ad 103c
00000040: dc72 943c ea27 983b ea17 acbc e80a 4ebb
00000050: 9cc1 023c 2b47 5abb 0b7b 913c 89f3 b2bb
00000060: a3dd 56bb c7bd 38bc 7264 983c 23d2 15bc
00000070: 828d 58bc 8779 3e3b 215f ae3c 4f1f 2fbd
00000080: 23d7 8f3c 5a1f 7c3c b7cf a03c 4ad9 903c
00000090: 0c46 973c e6cb e5bb edac 433b 5186 e03b
000000a0: 090e 333c 6f0b 86bc 7eef 883b fa7f a33b
000000b0: a9cd 103a f0ac 08bc 4c2d c3bc 10f1 d1bb
000000c0: c2d7 db3c f79d 913c a142 9cbb 8b4e 1cbc
000000d0: d169 2b3c c9e9 063d 484e c2bb f480 6ebd
000000e0: f5d1 30bb 03dc 123c a81a c83a be93 bdbc
000000f0: d52e 663c 2dff 293c 5105 173d 63b6 253a
-0.004152476 -0.009173159 -0.00015279958 0.021286985 -0.013376682 -0.011933964 0.0056095403 0.020357698
0.015184648 -0.038810086 0.0016487652 -0.004340139 -0.013385154 -0.010839091 -0.020542322 0.00883049
0.018121175 0.00464343 -0.021007497 -0.0031439606 0.00798073 -0.003330658 0.017758867 -0.0054611606
-0.0032785914 -0.011275715 0.018602584 -0.009144339 -0.013217332 0.0029064135 0.021285595 -0.042754468
0.01755864 0.015388334 0.019630296 0.017681736 0.018466018 -0.007012832 0.002985771 0.0068519493
0.010928639 -0.016362874 0.0041789403 0.004989621 0.000552381 -0.008342013 -0.02382531 -0.0064069107
0.02683628 0.017775519 -0.004768685 -0.0095402105 0.01046224 0.0329378 -0.005929742 -0.058228448
-0.0026980613 0.008963588 0.0015266733 -0.023141738 0.014049252 0.01037578 0.036870304 0.0006321428

sequential_2/dense/MatMul f4 [64, 256]
00000000: 88a5 503d 41ce 5e3c d3a2 55bc 0614 013e
00000010: 828f 843d d3c7 363c 2900 a93c 4f85 cf3d
00000020: b6ed a4bd 5c33 663d c130 053c 75e9 283d
00000030: e5c5 6b3d a6af c8bd 9a19 603d 6f73 c83d
00000040: 3170 d53d 9e04 4d3d 28f4 a7bd 8a9e 1b3e
00000050: 04da 883d cc4c fd3d 69b9 04be 224e dfbd
00000060: 054e 12be 491f ca3c ace9 83bd 3bdf 9cbd
00000070: ed6c 223d c180 3ebd 686c d5bd 2566 a4bd
00000080: 27bb 51bc 0ef0 0fbe 0de9 e53c 8e3a bdbc
00000090: 7e56 0bbe 0399 e53d d20c edbd 7f23 b3bc
000000a0: 6411 313d 7d7c 14bd c260 c83d 076a f9bd
000000b0: dbe9 53bd e10f ea3d 317b b03d 52e9 2a3b
000000c0: bf4e c5bd f400 0f3e e3a4 04be 94a2 e1bd
000000d0: df94 4abc aac0 a7bd bcbc c53d c03e b0bd
000000e0: 9557 f93d 3c40 683d 413d 26be 0ff3 5cbd
000000f0: 8d1b 05bb ae9e 9b3d 0258 0e3e 7aea ed3d
00000100: b48a af3d 01c1 26bd 6f1a 4f3d 9084 cfbd
00000110: d3ee cf3c b431 12bd c45d 76bd 84ed c8bd
00000120: 6fb6 a1bd d03f 6bbb 86a6 093d a11d 8abd
00000130: 2965 2bbb 5257 06be 9c66 243d a0cb 023d
00000140: d90b c93d d390 073d 139a b63d 943d f3bd
00000150: e05b bcbd f778 fc3b 2c83 a3bd 8fcf 02bd
00000160: 87dc c43c 111c 99bd aa2e dbbc c276 d63a
00000170: 141b a9bd 2ecd b63d 8c06 3bbe 94da 9f3d
00000180: 2284 ad3d b923 a03d bfbe 793d 317d 943d
00000190: 2baa 5c3d 7474 ac3c 33ac d4bd 8a35 88bc
000001a0: c3c4 ccbc c4a2 af3d 490b 93bc e0f4 eebd
000001b0: 7520 db3d 3b10 233e 6874 ff3d aa9e fbbd
000001c0: 776e 15bd 67b2 a33d 513d 35bc e74a e53d
000001d0: 408c 793d 1e90 64bd 9148 b8bd 45d8 a73d
000001e0: 3523 5a3d a00d 903d 2d70 6c3d 858d 103c
000001f0: 3a67 42bd 819b 05be a8c4 503d 080d 0f3e
00000200: c78e ef39 db22 113e 16c8 0c3e 1e25 a13d
00000210: a47d e1bc 2712 c53d b8ed 903d c944 f53d
00000220: 5219 c63d f446 053d e516 8e3c 7bb9 02be
00000230: cd09 de3d fbe6 5fbd 8e67 1fbe 255a c33d
00000240: bd96 07be ebdb d5bd 47fe 02be 0e86 d23d
00000250: 85b0 f5bd e287 ecbc ccaa 18be 18c7 c0bd
00000260: e5f1 c0bd 5c87 95bd 8bfa 123d 5879 4e3d
00000270: 2dc5 18be ae7b dfbd 2807 e1bd 0bad 6bba
00000280: 1ff3 ccbc 8a40 dcbd 5854 a0bd 7193 ca3d
00000290: b1dd 87bd 7c91 17bd 0376 4bbb ec19 35bc
000002a0: c725 efbc a218 43bd 24ae fbbc 5970 2ebd
000002b0: 2bbd 073c dc03 d7bd 149c 67bd e9cf 0c3c
000002c0: 8c64 dfbd 97c7 74b9 e1b7 93bc f417 8ebd
000002d0: 47a2 05be 8df6 823d 3c7c fcbd 58f8 c23d
000002e0: b64f e23d b622 07be ff2a 14be 5f9a 09be
000002f0: 1ffd d3bd dfb9 f3bd 5e55 bbbd 9fda 18be
00000300: 698e 993d d48d d7bd 969f e13b 7036 223c
00000310: e8ea 0ebd 2d2e 5cbc d7b3 9abd 5116 acbd
00000320: deaa fbbd af4a d03d 12f2 683d be53 dcbd
00000330: af90 213d 66b3 37bd ed20 753c ffd5 c3bd
00000340: 18ab a0bd 2348 093c d61b 2b3d 5cae e3bc
00000350: 3408 143d ba86 1abd 8852 d13d 64b3 dd3d
00000360: 1b4d 27be 92c5 f6bd fc27 16be f04b a4bc
00000370: 2abd 01bd 3d17 f1bd df32 41be 3a86 d5bd
00000380: dd67 803b c4ce 0bbe 81e1 e6bc e8d4 6f3d
00000390: 3c6b 02bd 69f2 91ba 66c8 743d 2b7e 363d
000003a0: ec0c 023e ea57 003e f42e c13c 0fe7 56bc
000003b0: 14a0 5d3d 6912 17bd 841a c73d e6f6 913c
000003c0: 76e7 48bd b8e2 7abd 1af0 a4bd b8ba 8fbd
000003d0: 8fa5 f1bd 2bc1 17bd ed93 bebd 7d6d e3bb
000003e0: d68d 36bb 1c63 30bd c4da 48bc 841d 003e
000003f0: 0ef7 cd3d 4f28 4cbd f48a d1bd fa0e 60bd
0.050939113 0.013598979 -0.013039309 0.12605295 0.064726844 0.01115604 0.02062996 0.101328485
-0.08053152 0.056201324 0.0081293 0.041238267 0.057561774 -0.09799127 0.054711916 0.09787642
0.104217894 0.05005323 -0.08200866 0.15197197 0.06682208 0.123681635 -0.12961353 -0.109035745
-0.14287575 0.024673121 -0.06441054 -0.07659765 0.03965466 -0.046509508 -0.104210675 -0.08027295
-0.012800968 -0.14056417 0.028065229 -0.02309921 -0.13607213 0.11210825 -0.11574711 -0.021867512
0.043229476 -0.036251534 0.0978408 -0.12178426 -0.051736694 0.1142881 0.08617247 0.002607901
-0.0963416 0.13965207 -0.12953524 -0.110173374 -0.012364595 -0.08191045 0.09655139 -0.086057186
0.12174908 0.056701884 -0.16234304 -0.053942736 -0.002031061 0.07598625 0.1390076 0.116169885
0.085713774 -0.040711407 0.05056232 -0.10132706 0.025382435 -0.03569193 -0.060148016 -0.098109275
-0.078961246 -0.003589619 0.033606075 -0.067439325 -0.0026152825 -0.13119248 0.04013692 0.031932473
0.09816713 0.0330971 0.08916106 -0.118769795 -0.09197211 0.00770485 -0.079840034 -0.031936225
0.024030937 -0.07476056 -0.02675565 0.0016362297 -0.08257118 0.08925854 -0.18264216 0.07805362
0.08472468 0.078193136 0.060972925 0.07250441 0.053873222 0.021051623 -0.10384407 -0.016627092
-0.024996167 0.08575967 -0.017949717 -0.116678 0.1069955 0.1592416 0.124733746 -0.12286122
-0.0364823 0.07993012 -0.011061982 0.11195927 0.06092477 -0.055801503 -0.08998216 0.08195547
0.053256232 0.07033849 0.057724167 0.008822803 -0.047461726 -0.13047601 0.050968796 0.13969815
0.0004569201 0.14173453 0.13748202 0.07868408 -0.02752573 0.09622603 0.07076591 0.1197601
0.09672798 0.03253837 0.017344901 -0.12766068 0.10841713 -0.05466364 -0.15566847 0.09538678
-0.13241096 -0.10442337 -0.12792312 0.10279475 -0.11996559 -0.028873388 -0.14908904 -0.09412974
-0.09421138 -0.073012084 0.035883468 0.05040869 -0.14918967 -0.10912262 -0.10987693 -0.0008990324
-0.025018273 -0.10754497 -0.07828587 0.098914035 -0.06634081 -0.03700398 -0.0031045682 -0.011053544
-0.029192818 -0.047630914 -0.030722685 -0.04258761 0.008284847 -0.10498783 -0.056545332 0.0085944915
-0.1090785 -0.00023344006 -0.018032016 -0.069381624 -0.13050185 0.06394682 -0.12328383 0.09520024
0.1105036 -0.13196835 -0.14469527 -0.13437794 -0.103510134 -0.119006865 -0.09147142 -0.14927147
0.07497866 -0.105250984 0.006885479 0.009900674 -0.034891993 -0.013438744 -0.07553833 -0.08402694
-0.1228845 0.10170495 0.05687148 -0.1075816 0.03944462 -0.044848822 0.014961463 -0.09562301
-0.078451335 0.008379015 0.041774593 -0.027793102 0.036140636 -0.03772614 0.1022082 0.10825232
-0.16338007 -0.12049402 -0.1466369 -0.020055741 -0.03167454 -0.117720105 -0.18867062 -0.10425992
0.0039186315 -0.13653094 -0.0281837 0.058552653 -0.031840548 -0.0011134866 0.059761427 0.044553917
0.12700242 0.12533537 0.02358196 -0.013116612 0.05410774 -0.03688279 0.09721854 0.017817926
-0.049048863 -0.061251372 -0.08053608 -0.07018036 -0.11799156 -0.037049454 -0.09305558 -0.0069405423
-0.0027855537 -0.043063268 -0.012259189 0.1251126 0.100568876 -0.04984313 -0.10231581 -0.054701783

sequential_2/dense_1/MatMul f4 [4, 64]
00000000: a064 87be 0af9 17be 5f94 9bbe 17e7 3b3e
00000010: b978 cbbd d7f3 81be 77b7 a23d 0796 f53c
00000020: 5075 923d 5354 433e f791 37bd f816 5dbe
00000030: ed6e 40be 9788 18be f498 1e3e 7207 fc3d
00000040: 7c36 003e 2ff4 6dbe 5f4d 80be ae80 a3bc
00000050: 8371 533e e522 6d3e 2739 23be 00da 83be
00000060: c162 b4bd 7804 263e 44e5 c9bd ad3d 00be
00000070: df53 463e 6801 09be 0cea 5fbe 53ed 1abe
00000080: 3a3e 5f3d 0445 603e 096b 80be cee2 c0bd
00000090: 8f43 833e d2f9 ddbc cb72 cb3c 4caf 203e
000000a0: 7d2c bebd cea8 ec3d 12cc c1bc ecd5 b03d
000000b0: afa4 05be d3f1 b63c b57c 62be f79b f13d
000000c0: 302a e43d a55e 6e3e 53ae 7cbd b694 623e
000000d0: 53b4 b73d 2429 413c 51cc 4bbe f0ed abbc
000000e0: f3ec 73be 9bd0 0a3e 53dd 433e e9ab 2b3e
000000f0: a7c5 4abe 464c 64be 6076 503e 53ea 0c3e
00000100: b16f 0cbe 542a 543e 7e22 9abe 5409 8dbe
00000110: e828 823d 2fcb 963e f3d0 803e 8f4e db3d
00000120: 8b3a fdbd c90f 4bbe 1020 63be 6ac7 d3bc
00000130: cec7 26bd 5801 2fbe d2fc 42be df2e 5ebe
00000140: 8a1f 243e a2d5 83bd 1356 6abe c2f3 813e
00000150: 00b2 913d acd8 5b3c d212 623c 01cc 2bbe
00000160: aa24 2d3d 6873 6b3e 8752 323e de2a 9e3c
00000170: a22a 47be e132 63be 2130 b43d 3cc1 c03d
00000180: d973 fbbd 0ad6 373e 5f6c 723c 14a6 60bd
00000190: 8e6c 683c 7cd5 e5bd b1f4 edbd 4235 c53d
000001a0: 751c 4abe c88f 5d3e a00b f3bd d1c3 153d
000001b0: d4c7 42be 5cce 8bbe ce36 5abe f5e0 4c3e
000001c0: 70be 3fbe 5346 c1bd 76fb 19bd b6c0 803e
000001d0: efc3 eb3d 6c4f 113e d797 50be 754d ad3c
000001e0: 82f3 68be 28db 97bb ce4d 0b3e 42c2 88bd
000001f0: 3fb6 25bd 4254 8aba 3a5e 05be 3715 fbbd
00000200: fbf3 04be 91e3 52be 625e 2bbe d8d3 193e
00000210: 6a59 1dbe 92ae fbbd 1c62 903e 266b 75be
00000220: bbbd 24bd c9a9 7b3e 85af 883e 5910 23be
00000230: 3664 99be 6f04 863d 23ac 793e fac4 bf3d
00000240: 7ffd 6d3e 074c 5cbe cbd1 1cbd 4f2c 83bd
00000250: e33f a23c 3427 e33d b0ac 91be 81b5 5c3e
00000260: 5e42 5dbe bbb4 8fbd 8702 773c 2b65 273e
00000270: 781d 27be 6d58 853e 3597 27be 3f46 88be
00000280: 38a8 5d3e dbaa 83bd 6470 963d 29b4 c7bd
00000290: eaa5 09bd 696c cbbd e1a6 71bc 2878 8cbe
000002a0: bca6 a3be 1b98 1e3e 8310 333e 4a69 66be
000002b0: c4f7 453e 9a5a 72be 6dfe 67bd 3bda 893d
000002c0: 50f1 2e3e 7240 87be 4022 ff3d 1a26 803e
000002d0: f791 5f3e c8d8 8c3e acb3 53be f2be 5abe
000002e0: 339c 643e 8128 ddbd 8bf2 7d3e 0925 e6bd
000002f0: 26f0 a43d cf99 23bd 07ad 6f3d 1f6a 5fbc
00000300: 358b 28be e48f 533c c7e5 8b3e 6b77 993e
00000310: ab27 713d cb84 243d b217 82bd 09c4 8f3e
00000320: f2d2 5cbe f220 46be 45ae c0be a372 21be
00000330: e5ba 97be 0f59 02be fb95 083e 54de 053e
00000340: ee0e 10be 8885 81be cbaf 543e b683 513c
00000350: 9cff 2f3b 58d0 043e 0925 bf3d 82a7 763e
00000360: ef9f d83d 2bcc 00be de8d 82be ee63 f0bd
00000370: 535e 0ebe 9374 c43c bf1f 493e c15e 863e
00000380: d8f8 5d3e cb2d dcbd 8638 9d3d 6121 853e
00000390: c0f9 aebd ae44 4dbe c913 813e 23b4 5ebe
000003a0: 842e 833e c371 773e efcb 0dbc 3f48 603e
000003b0: 8830 98be b3c0 0e3e 6e17 203e b99f 89be
000003c0: 79fa 43be c4ee a43e 1907 4d3e 7e65 8fbe
000003d0: 620c 953d d2aa 423e af24 b5be d174 1f3e
000003e0: 31f7 493e 6834 48be 4f37 aebe 3b87 f8bd
000003f0: fd4d 903e a5c6 e63c 1cf0 1c3e c4e4 cfbc
-0.26443958 -0.14841095 -0.30386636 0.18349873 -0.099351354 -0.25381348 0.079451494 0.029978765
0.07151282 0.19075136 -0.044816937 -0.21590793 -0.18792315 -0.14895855 0.15488034 0.123061076
0.12520784 -0.2323768 -0.2505903 -0.01995882 0.2064877 0.23157842 -0.1593977 -0.25752258
-0.08807898 0.16212642 -0.09858182 -0.12523527 0.19367932 -0.13379443 -0.21866626 -0.15129595
0.054502703 0.21901327 -0.2508166 -0.094182596 0.2563748 -0.027096663 0.024835011 0.1569187
-0.09285829 0.115556344 -0.023656879 0.08634552 -0.13051103 0.022332108 -0.22117884 0.11797326
0.11140859 0.23278292 -0.061689686 0.22127041 0.08969941 0.011789594 -0.1990216 -0.02098748
-0.23820858 0.13556139 0.19127397 0.16764797 -0.19801961 -0.22294721 0.20357656 0.13761263
-0.13714482 0.20719272 -0.3010444 -0.2754618 0.063554585 0.29451892 0.25159416 0.10708343
-0.12364682 -0.1983024 -0.221802 -0.025851924 -0.040717892 -0.17090356 -0.19041756 -0.21697567
0.16027656 -0.064372316 -0.22884397 0.25381285 0.07114029 0.013418358 0.013798432 -0.1677704
0.042271294 0.22993243 0.17414294 0.01930755 -0.19449857 -0.22187378 0.08798242 0.094118565
-0.122779556 0.17952743 0.0147963455 -0.054845884 0.014186038 -0.112223595 -0.11618937 0.09629299
-0.19737418 0.2163688 -0.11867452 0.0365637 -0.19021541 -0.27305877 -0.21309969 0.2000769
-0.1872499 -0.094372414 -0.037593327 0.25147027 0.11511981 0.14190453 -0.20370422 0.021155098
-0.22749141 -0.0046342798 0.13603899 -0.06677677 -0.040457007 -0.0010553675 -0.13024226 -0.12259906
-0.12983696 -0.20594622 -0.16735223 0.15022218 -0.1536614 -0.12289156 0.28199852 -0.23966655
-0.040220004 0.24576487 0.2669641 -0.15924205 -0.29959267 0.065438144 0.24382071 0.09363742
0.23241232 -0.21513377 -0.03828601 -0.064049356 0.019805854 0.11091462 -0.28452063 0.21553613
-0.21607348 -0.070168935 0.015076286 0.16347186 -0.16319835 0.26044026 -0.16366275 -0.26616094
0.21646202 -0.064290725 0.073456556 -0.0975116 -0.033605494 -0.09932787 -0.01474926 -0.27435422
-0.31963146 0.15487711 0.17486767 -0.22501102 0.19332796 -0.23667374 -0.056639124 0.06731077
0.17084241 -0.26416355 0.124577045 0.2502907 0.21833025 0.2750914 -0.20674008 -0.21361902
0.2232521 -0.10798741 0.24799554 -0.11237533 0.08053617 -0.039941605 0.05851462 -0.013636141
-0.16459353 0.012912724 0.27323744 0.2997392 0.05887572 0.040165704 -0.06352176 0.2807925
-0.21564844 -0.19348505 -0.37632957 -0.15766387 -0.29634777 -0.12729286 0.13338463 0.13073093
-0.14068195 -0.2529719 0.20770185 0.01278775 0.0026855236 0.12970102 0.09333236 0.24087337
0.1057738 -0.12577884 -0.2549886 -0.1173781 -0.1390317 0.023981368 0.19641016 0.26244166
0.21676958 -0.10750922 0.076767966 0.2600203 -0.0854373 -0.2004573 0.25210407 -0.21748404
0.25621426 0.2416449 -0.008654579 0.2190256 -0.29724526 0.13940696 0.15633938 -0.2687967
-0.19138516 0.32213414 0.20022239 -0.2800712 0.072777525 0.19010475 -0.3537955 0.15571906
0.19723202 -0.19551241 -0.34026572 -0.12135168 0.281845 0.028170893 0.1532597 -0.025377639

sequential_2/conv2d_1/Conv2D f4 [64, 3, 3, 32]
00000000: c712 313c 528c 5d3d b698 133d 529e 613d
00000010: 2bd4 0b3d d8d5 083d 2486 303c 80fc 023d
00000020: caa4 49bb 3d17 47bd 522c 843d 410a ae3c
00000030: 39d9 313d 5d78 183c 8850 06bd a78e 00be
00000040: faf2 6bbd fcb1 12bc f35c 87bd 31c8 473c
00000050: 698e c43c 34bc c03c 0ebe 293c 8b21 86bd
00000060: 7730 c4bc 4183 f2bd 734b 493d 92cf 3bbb
00000070: bc4b d2bb 1741 6dbd b40a b53d 7162 3dbd
00000080: aa75 b7bd 0f1e 5c3d 4735 a93d 3bbe d9bc
00000090: f4a2 803b 045a 20ba 186f fa3b ee7c 3bbd
000000a0: e091 8bbd 42f3 93bd 6c25 90bc 922e 74bc
000000b0: 2a3a 21bd 9ab8 cbbb b766 b13c cab7 c6bd
000000c0: bb5b 0fbd febd 113d d46b bfbc 338e 5d3d
000000d0: 8985 80bc 5643 c3bd 7f2c 863d 5247 a9bd
000000e0: 86ee bfbc 76b6 2cbc 95ae 593c 6c54 133c
000000f0: 8116 3d3a f2ce 4abd 7354 1ebd d999 283d
00000100: 75bf 99bd 8451 883d 852c a53d 100d 8a3d
00000110: f1f9 36bd 9684 8fbb 452f c83c 84a8 8c3d
00000120: a83d 9abb 3d6a 6ebd 74c7 60bd 4a35 c7bc
00000130: ffa9 0abd 3630 6ebd 86f1 95bd eb79 79bd
00000140: 953c 90bd d168 3f3d 2f9b aabc 1869 c43c
00000150: edb8 b43d 34d1 18bd 8e9a 913c d7d9 9a3d
00000160: 9ef2 a73c 953d 9cbd 164e 533d f8f6 89bd
00000170: 569e 893c 9789 72bd 35ec 9fbd 617f c13c
00000180: a9e4 823c 9a18 223d 4240 01bd 3489 683d
00000190: 524d 473d 1e1b 273d 730c 2cba 0f70 e2bc
000001a0: 00c4 353d ea75 84bc 8779 27bd b1a7 3c3c
000001b0: 235e 353d 4d76 343d bdee 85bd f26f e5bc
000001c0: 109c 373c 8cb2 a83d d7b0 0c3d 99dc 173d
000001d0: cfea 97ba 2ea6 e7bc 1723 8a3d 89e4 a3bd
000001e0: c489 a4bd c8f2 68bc a841 12bd 17c5 a23d
000001f0: 9ca2 12bc 8ca7 1fbd b0f1 18bd 2695 a93d
00000200: f093 9bbd 7014 6ebd f306 633d d3e9 123d
00000210: 648c f5bb c414 9b3d 30ea 18ba 8d61 3fbd
00000220: 63c3 8e3d 9633 2ebd 6a8f b93d c59e bd3c
00000230: dd78 5d3d 0d4c 16bd 5c6f b0bd b526 aebd
00000240: ed50 18bd 425f 9eba 91bb f1bc 67b1 c7bd
00000250: adf5 853d 5cbb abbd 5ab1 253c 7c9b 5f3d
00000260: f038 293c d309 dcbd 5768 45bd 6c8b 723d
00000270: 9669 673d 72ae 3ebd 96ec 43bd 1845 7bbd
00000280: b2f6 93bd ae93 593c 2b7a a7bb 8881 0b3d
00000290: d7af 813d c6f0 bd3d ad5c 913d eea6 98bd
000002a0: 82bd be3c 0780 0abd 45bd 043d 9f06 48bd
000002b0: 66e4 86bc 2a68 a73d c1ca 02bd 7cf6 85bd
000002c0: eb6d 513d 821a e4bc eaf3 2a3c 78d9 373c
000002d0: 64f1 9f3d 209b ab3c f775 1dbd a8ff 1abd
000002e0: 9bfa d1ba d287 4dbd 6750 e23c 97e0 babd
000002f0: 0bcd 11bd 63f5 d2bc dc8d 99bb 5a9b 9b3b
00000300: 980c f33c 5b66 f7bc f162 96bc d00a 1f3d
00000310: ff07 2bbd 163a 9a3d 8695 c1bb 3888 093d
00000320: c3e4 023c a372 b9bd e722 0e3d 9737 73bd
00000330: c7fc 6dbd a086 7dbd 80e3 e1bc 622a 78bd
00000340: 72a9 1b3d 8180 0b3d ab8a 92bd 4c26 f63b
00000350: c72f de3d db83 ba3c 3217 d9bc e625 b9bc
00000360: 89cb 97bd f574 d43c 648b 24bc 6e2d 5c3d
00000370: 508f f4ba 86f4 fcbc 0ae8 98bc 40fd 48bc
00000380: 289f 7ebd dfc0 70bd 0b62 70bd c360 aabd
00000390: 2f98 1eb8 c6e0 25bd 4f8c a5bc 64cd 47bd
000003a0: 900a 87bd b753 f9bb 7029 443d 3b4b 133d
000003b0: 2d37 603d 20a1 913d c552 083c d962 50bd
000003c0: 56c9 463c c8ab 8ebd eb59 28bd 5a79 5bbd
000003d0: 3184 dfbc 91ca a33d 77a0 34bd 18b9 403d
000003e0: 714f 7abd 8243 d73c d11e 293d 0e71 d73c
000003f0: 303b 813d 76ec 0ebd dcdf 26bd 19b7 cd3c
0.0108076995 0.054088898 0.03603431 0.055082627 0.034137886 0.033407062 0.010774169 0.031979084
-0.0030768388 -0.048606146 0.06453766 0.021245124 0.04342005 0.009306041 -0.032791644 -0.12554418
-0.057604767 -0.008953568 -0.066095255 0.012193725 0.023993688 0.023527242 0.010360254 -0.065493666
-0.023948891 -0.11841441 0.04914422 -0.0028657657 -0.0064177196 -0.057923403 0.08839932 -0.04623646
-0.089579895 0.053739604 0.08262115 -0.026579967 0.0039256755 -0.0006116929 0.007642638 -0.04577344
-0.06814933 -0.07224132 -0.01759597 -0.014903681 -0.03936211 -0.0062170746 0.021655424 -0.09703024
-0.03499959 0.03558158 -0.023366846 0.05409069 -0.015688675 -0.09534328 0.06551456 -0.082655564
-0.023429167 -0.010541549 0.0132862525 0.008992296 0.0007213131 -0.049513765 -0.038654756 0.041162346
-0.07507221 0.06656173 0.08065132 0.06740773 -0.044671956 -0.004379819 0.024436602 0.06868079
-0.004707057 -0.058206785 -0.054877713 -0.024317402 -0.033853527 -0.058151446 -0.073214576 -0.060907286
-0.07042805 0.04673082 -0.02082595 0.023975894 0.08824334 -0.037308887 0.017773893 0.07561081
0.020501431 -0.07628933 0.05158814 -0.06736559 0.016799133 -0.059213247 -0.07808725 0.02362031
0.015978174 0.039574243 -0.03155542 0.056771472 0.048657723 0.040797345 -0.00065631344 -0.027641324
0.044376373 -0.016169507 -0.040887382 0.01151459 0.04427923 0.044058133 -0.06539676 -0.028007481
0.011206642 0.0823718 0.034348335 0.037075613 -0.0011590364 -0.028277483 0.06744974 -0.08002574
-0.08034089 -0.01421804 -0.035707146 0.07947748 -0.008949902 -0.038978145 -0.037339866 0.08280401
-0.07596576 -0.05812496 0.05542655 0.035867523 -0.0074935425 0.0757232 -0.00058332365 -0.04672389
0.06970861 -0.042529665 0.09060557 0.023146996 0.054070342 -0.03669362 -0.0861499 -0.085034765
-0.03718655 -0.0012082832 -0.029508384 -0.09750634 0.065409996 -0.08385345 0.010113085 0.05459164
0.010328516 -0.10744061 -0.04819521 0.059214994 0.05649718 -0.046553083 -0.047833048 -0.06134519
-0.07224788 0.0132798385 -0.005110999 0.034059078 0.06332367 0.092744395 0.070977546 -0.07453714
0.023283724 -0.033813503 0.032407064 -0.04883444 -0.01646633 0.081741646 -0.031931642 -0.06541154
0.051130217 -0.027844671 0.01043413 0.011221282 0.078097135 0.020947993 -0.03844258 -0.03784147
-0.0016020121 -0.050178356 0.02762623 -0.09124868 -0.035595935 -0.025751775 -0.0046861004 0.004748744
0.029669091 -0.030200174 -0.018357726 0.03882867 -0.041755673 0.0753061 -0.005907717 0.033577174
0.007989111 -0.09055068 0.034701254 -0.059379186 -0.058102395 -0.061895967 -0.0275743 -0.060587294
0.038003393 0.034058098 -0.07155355 0.0075118896 0.108489566 0.022767952 -0.026500318 -0.02260108
-0.07411868 0.025934676 -0.010042999 0.053754263 -0.0018658433 -0.030878317 -0.018665332 -0.012267411
-0.062163502 -0.058777686 -0.05868725 -0.08319237 -3.7811868e-05 -0.040497564 -0.020208506 -0.04877986
-0.065938115 -0.0076088565 0.04789108 0.035960417 0.05474012 0.0711081 0.008320515 -0.05087552
0.012132963 -0.069663584 -0.041101377 -0.053582527 -0.027284713 0.07997621 -0.044098344 0.04705152
-0.061110917 0.026277307 0.041289154 0.026299026 0.06310117 -0.034893475 -0.040740833 0.025111722

sequential_2/conv2d_2/Conv2D f4 [64, 3, 3, 64]
00000000: 4369 abbb a93d 10bc 5dec ba3d 383a b9bc
00000010: 01c5 fc3a 26eb cfbc 9451 90bd ac8d 0c3d
00000020: 802f 073c f46e c1bc bd26 1a3d 5b83 813d
00000030: eb97 613d 3c69 8e3d ec91 71bd 6015 bf3c
00000040: 5842 4f3d be8b 2d3d ff46 ffbc 714a bfbb
00000050: f68a 943c a539 b43c 1b15 d23d 9bd9 663c
00000060: 6bcd c0bc 5ee7 50bd 408f ccbc ed51 8c3c
00000070: 583b 58bd 90c3 a1bc 2cb1 87bc b445 a03c
00000080: 0d45 8dbd 233e f1bc a9e1 c5bc d63a 8bbc
00000090: a972 e83c 3122 1b3d d69a 95bd 25d4 353d
000000a0: 2217 49bc 615c fe3c f450 d53c e8fe 52bd
000000b0: 237f b33d df12 e7bc b950 8f3c 4d05 74bd
000000c0: 0ade 403d caff 3ebc 7d9b e93c 5276 0dbc
000000d0: acb0 133d 0881 813d 5304 943d 9274 2b3c
000000e0: 325d c23c 7a6c 73bd f0ee c13c 8527 d83c
000000f0: 3bf3 893d 88bc 4b3d e20e 17bd 8b99 783d
00000100: 24e0 903d f940 f33c 3b13 a43d 3ec5 853d
00000110: d26a cdbc afb6 76bd 19ba 97bc f1da 1dbd
00000120: a86c 773d 4496 313d 0acc 5f3d fb83 0bbc
00000130: 8e14 1b3c b54f 1abd af4a 693d c9af 893d
00000140: 682e d03d 6f5e aa3c 7bf3 8e3d 2b56 35bd
00000150: fc20 d4bc 7e7d 1b3d 16ef 593d c934 98bc
00000160: f269 c3bc c79d 6f3d 1b99 0bbd 2002 c1bc
00000170: 64f2 7f3d d593 6c3d 1add 82bd 4ce5 de3c
00000180: 858d e6bc ae40 563d f943 303d cc0b 07bd
00000190: 72c0 393d 1c27 423c 5ec2 5a3c eb82 283c
000001a0: 3b8c 453c a2a4 48bc bb6f 81bd db4e f7bc
000001b0: 1cd0 313d ca57 483d 39ab 053d faf4 0dbd
000001c0: 6ecb dc3b a64e 2dbd 27f0 74bd 404f 11bd
000001d0: 97f1 143d 3900 3d3d 1026 8e3d d1d8 67bd
000001e0: ca05 9abd 0acc 75bd 83c4 9d3d f035 ac3c
000001f0: aae1 56bd 6978 ed3c b2e5 113d 5e2c 273c
00000200: 67d8 413c fb66 56bc 4cc5 ee3c 20fb 973c
00000210: 2c1b 053c ddd8 c5bc 5544 8dbd 32a5 403d
00000220: 9b0f 873d 136f 6e3c ffaf 21bd 727e acba
00000230: 9092 f93c ff0b 76bd 9425 d0bc 87f7 7fbb
00000240: 8f5d 763c 990b 133a e4cf 8c3d 8d73 303d
00000250: 8970 e63d af98 c53c c573 093d 7628 41bc
00000260: ed35 61bd 9f01 46bd 82b4 023d 0dc3 1b3c
00000270: 24c9 863b 7a78 6239 9c3b 49bd 8147 00bd
00000280: f78f 453d 30ec e73c b3dd 6abd 3c36 713d
00000290: 9e2d 8a3c 4066 51bd b0e7 36bd 68c3 d13b
000002a0: bbb7 07bd 90db a13c 6f2d a9bc 1c14 4e3d
000002b0: 5e94 46bd 9fa4 f5bc 3c24 5fbd 66c2 1dbd
000002c0: 988e b03d 9feb 5e3d 62f2 28bd 02d2 853c
000002d0: 3a44 a73d 7f12 a6bc ed7e 313d 733a 69bd
000002e0: 208e 02bc aad8 3b3d a98f 4fbc 1fbc 6abd
000002f0: 60e2 6a3c 3c54 a43d c520 433d 72aa bd3c
00000300: b13a eabb a9bf a53d 736a 703d 7ed2 d13c
00000310: 1193 993d 8200 febc bd8c fc3b c72f 9b3c
00000320: 8ef9 8b3d 38e8 7dbd 7ad9 07ba 950c 2e3d
00000330: 0bab 303d 1603 673d d8b5 76bd 99a9 8f3d
00000340: d240 f33d d772 513d 612a bdbc 3c35 97bc
00000350: 3289 763d 372f 0fbd 203b a13d c5d5 95bd
00000360: 35ac 06bd b227 adbc cf09 833d 2830 bebc
00000370: df7d 0ebd 40fc 04bd 0acd 7cbd cf62 dfbd
00000380: c58e c039 e45b a73d 47ee 493d c2fd 7e3d
00000390: cdfc 963d a09d 57bc 6bc2 a1bd 41a5 c33d
000003a0: b253 32bd fe96 b9bc da05 413d 074b 2dbd
000003b0: 4b72 583b f798 333d bcf2 133d addd eebc
000003c0: ec6f 2b3d f5f9 17bc bcb0 56bd 522d 8bbd
000003d0: 4c82 c4bb da08 62bd 10c1 ad3c 9e9f c4bd
000003e0: 7c0f a8bc 89c7 39bd 7282 a13c 9eaa 9ebc
000003f0: 297e 7a3d 331f 6fbb 0711 a43d 49b8 de3c
-0.005231054 -0.008803763 0.09127114 -0.022610769 0.0019284786 -0.025380682 -0.0704681 0.034314796
0.008251071 -0.023612477 0.0376346 0.06323882 0.05507652 0.069536656 -0.058977053 0.023325622
0.05060038 0.042369597 -0.031161783 -0.0058377315 0.018132668 0.022000143 0.10257932 0.014089967
-0.02353545 -0.0510019 -0.02497065 0.017128909 -0.05279097 -0.019746572 -0.016563974 0.019564487
-0.06897936 -0.029448574 -0.024155455 -0.016995829 0.028374987 0.037874404 -0.07304923 0.04439177
-0.012273582 0.03104991 0.026039578 -0.05151263 0.08764484 -0.02820724 0.017494546 -0.059575368
0.047086753 -0.011657665 0.028516525 -0.008634167 0.03605716 0.06323439 0.07227387 0.010464804
0.02372608 -0.059429623 0.023673505 0.026386032 0.06735846 0.049740344 -0.036879428 0.060693305
0.070740014 0.029694067 0.080114804 0.065317616 -0.02507535 -0.060232814 -0.018521355 -0.038538877
0.060406357 0.043356195 0.054637946 -0.008515353 0.00946535 -0.03767367 0.05695599 0.067229815
0.10165101 0.020796983 0.06980034 -0.04427163 -0.025894634 0.037961476 0.053206526 -0.018579857
-0.02385423 0.058500078 -0.03408156 -0.023560584 0.06248702 0.05775817 -0.06389828 0.027208947
-0.028143654 0.052307777 0.043033574 -0.032970235 0.045349546 0.011850145 0.013352005 0.0102851195
0.012057359 -0.012246283 -0.06320139 -0.030188968 0.04341136 0.048911847 0.032633994 -0.034657456
0.006738118 -0.042311333 -0.05979934 -0.03547597 0.03636321 0.04614279 0.069408536 -0.056603257
-0.075206354 -0.06000904 0.07703497 0.021021813 -0.052461304 0.02898808 0.035619445 0.010203449
0.0118313795 -0.013086076 0.029146813 0.018552363 0.008124154 -0.02415126 -0.06897799 0.047032543
0.065947734 0.014552849 -0.039474484 -0.0013160242 0.030465394 -0.060070034 -0.025408544 -0.003905745
0.015036955 0.0005609333 0.068755895 0.043078948 0.11251933 0.024120657 0.033557672 -0.011789432
-0.05498307 -0.04834139 0.031910427 0.009506953 0.0041133333 0.0002159792 -0.049129114 -0.03131819
0.048233 0.028310865 -0.057340335 0.058889613 0.016867455 -0.051122904 -0.04465455 0.006401468
-0.033134203 0.019758016 -0.020651547 0.050312147 -0.048481338 -0.029985724 -0.054477915 -0.03851547
0.086209476 0.054423925 -0.04124678 0.016335491 0.0816731 -0.020272491 0.043333936 -0.056940507
-0.007968456 0.045860924 -0.012668529 -0.057308313 0.014336199 0.08023879 0.047638673 0.023152564
-0.00714811 0.08093197 0.058695268 0.025613066 0.07498754 -0.031006102 0.007707207 0.01894368
0.06834708 -0.06198904 -0.0005182248 0.042492468 0.04313187 0.056399427 -0.060232013 0.0701477
0.11877598 0.05113491 -0.023091497 -0.018458001 0.060189433 -0.034957137 0.07872605 -0.07316164
-0.032879073 -0.021137092 0.06398355 -0.023216322 -0.03478801 -0.032467127 -0.061718978 -0.10907518
0.00036727465 0.081718236 0.049299505 0.06225372 0.07372437 -0.013160139 -0.078984104 0.09553004
-0.04353685 -0.022655006 0.04712472 -0.04230788 0.0033027108 0.04384705 0.03612016 -0.029158438
0.041854784 -0.009275903 -0.05241464 -0.067957535 -0.005996978 -0.055184223 0.021210223 -0.09600757
-0.020515196 -0.045356307 0.019715521 -0.019368466 0.061155472 -0.0036487102 0.0801106 0.027187483

sequential_2/conv2d_3/Conv2D f4 [64, 3, 3, 64]
00000000: e166 83bc a4c7 68bd 639e 163d e669 183d
00000010: 9e9a 8b3d 06bd 123c dc65 293d c471 fabc
00000020: 5bce f33c be5a 5b3d c073 d5bd e64c 453d
00000030: 95f5 903d 9dd4 9bbc 2638 bfbd 9e24 743c
00000040: 83a8 02be 596c 873d 9d89 153b 5971 783d
00000050: d207 91bd 47e2 883c 162c 493d 014d 513d
00000060: 160d cdbc 9d3e 47bd e098 24bd 68b1 423d
00000070: c85f 2e3d 85ba 243c 370d a13c 011d 093b
00000080: 680f 093d 55bb 5ebd 1182 ee3b 1cd2 5a3c
00000090: 0d1b 30bd 241c 0c3d 4626 fe3c 1840 8f3c
000000a0: acad 5cbd 1745 803c 90c8 cbbb d992 43bd
000000b0: a4a5 1dbd 6013 263d 00ea 163d 0d77 d2bc
000000c0: dc48 4a3d 946f 99bd 4acf 673d 800c 8abd
000000d0: 071b 953d b1d7 873d 3c26 8e3a d14c 8ebd
000000e0: e6a7 84bd 2987 27bd b31c 243c 54b0 663c
000000f0: b255 8abd 0224 803d 76b8 763d a946 6ebd
00000100: de34 323d 98d6 313d ef99 073c 47b5 35bc
00000110: 86e5 f23c 583d 6bbc 175a 3f3d a831 833d
00000120: c277 933c 69f9 8fbd 4fd2 c93b df74 173d
00000130: 32dc 9fbb 4c1a 6e3d 5260 00be 6a17 80bd
00000140: dc12 933c a537 17bd b86b 053b 2818 15bc
00000150: 3e92 4a3c 52c7 e93c 95f9 9a3d 16b3 b1bc
00000160: b12b fc3b fdd1 a53d 767c 20bd 47d4 f13c
00000170: 8c75 09bd db7d 843d ae6b 4abd 1e51 b3bd
00000180: 6de9 b5bb 938a 863c 3759 5bbd c8fb fcbc
00000190: bb84 ae3c f422 e7bc fc71 283d f622 8dbd
000001a0: 147c efbd 68f3 813c 0f71 133d 0e83 473d
000001b0: 3c88 703c 12be 46bd afa2 a1bc 1973 f03b
000001c0: 7e36 bdbc bd24 90bd 1869 ad3b 9cb3 17bd
000001d0: 90b3 873c e1b3 89bd fad9 1c3d e5ed ef3a
000001e0: 67a9 683d 82ec 93bd edf5 9cbd 4bf5 453d
000001f0: 36af cfbd 9cf9 fa3c 069b e83c 6460 813d
00000200: bbc4 2fbd 8673 293d f402 58bd 2564 49bd
00000210: 116e 1cbd 75b2 fcbb 21ac 2b3c a267 a43d
00000220: 5338 9cbd cde8 703d 1a24 65bd 05e0 2c3d
00000230: d582 013d f88c ea3c e82f 0ebe cb10 2bbd
00000240: 5c8e e2bc d298 a63d 1f9c fdb7 1af5 7c3d
00000250: 4537 4abd 6988 82bd 0f3f 983c 0d8e 3f3d
00000260: d65c 8bbd 15ca 28bd 07ec 64bd 02c3 6ebd
00000270: 2887 623d d81b 923c c759 813c fe0e 40bd
00000280: 5cb2 d53c f4a1 0d3d 8466 4ebb 7968 d9bc
00000290: 38a9 703d b27e 93bd 12c0 883b f77a 26bc
000002a0: 9122 1abd 38db 51bd f044 5ebd 789f 7bbd
000002b0: ae40 b0bd 8f25 4e3d bf89 adbb 4861 1d3d
000002c0: 105b b73a 96be 2f3d 6229 e3bc 3314 af3c
000002d0: 798c d7bb 4061 35bb 6daf 25bd e68a d43c
000002e0: 995d 473d 224a 81bb 97fb 99bd b53d 31bd
000002f0: 709c 8cbd ecd0 6d3c f1d3 30bd cf94 a53d
00000300: af09 f4b9 e1c2 3dbd 5d11 a6bc d133 833b
00000310: 68f3 953d 0431 8f3d e6bf 983d db0b 59bd
00000320: 241f 6b3c 1a40 a7bc af5d fcbc f544 d4bc
00000330: 826f d83b 5f97 47bc 5f17 963c b196 51bd
00000340: b6b9 75bd 08c3 a93c d6d1 b2bd 11e0 50bb
00000350: 716d 66bc e6a9 06bd fcf4 273d 3132 72bd
00000360: a14d 403d e8f5 7b3d 520d 0d3d 4184 733d
00000370: bab4 7a3a e836 4b3d 7983 41bd ab5e 2fbd
00000380: d754 b5bc 4e54 20bd 75d3 63bd 6a06 993d
00000390: ad42 233d 9479 4f3d 7767 3d3d 4860 293d
000003a0: 39ca 4fbd 5986 533d dff5 4d3d 5af6 843d
000003b0: 866e 023d 20ec 8dbd bcef 7cbb a4fd 903a
000003c0: eb9e 1dbc 9a48 63bd 5dd1 153d 7348 fb3c
000003d0: 4a99 86bd 8361 19bd 14cf 573d 6cc9 a6bd
000003e0: f50c 26bb 7807 703b 2095 8c3d 15cf 873d
000003f0: 0af1 84bd cf94 4e3b 58e8 1cbc 8330 933d
-0.016040267 -0.056831017 0.036772143 0.037210368 0.068166 0.0089561995 0.041356906 -0.030571826
0.029761484 0.053553335 -0.10422468 0.04816904 0.07078091 -0.01902228 -0.09336881 0.014901308
-0.12759595 0.066124626 0.002281762 0.06065497 -0.0708157 0.01670946 0.04911431 0.051098827
-0.025030654 -0.048643697 -0.040184855 0.04753247 0.042571813 0.010054235 0.019659622 0.0020921829
0.03346196 -0.054377872 0.0072786887 0.013355758 -0.042994548 0.034206524 0.03102411 0.017486617
-0.053876564 0.015657945 -0.0062189773 -0.047747467 -0.038488045 0.04054582 0.036844254 -0.025691533
0.04938589 -0.07491985 0.05659417 -0.067406654 0.07280546 0.06632937 0.0010845135 -0.06948245
-0.064773366 -0.040900383 0.010016608 0.014080126 -0.06754626 0.06256868 0.06023451 -0.058172856
0.04350745 0.043417543 0.008276447 -0.011090583 0.02965046 -0.014357887 0.046716776 0.064059556
0.01800144 -0.07029993 0.006159104 0.03697669 -0.0048785442 0.058130547 -0.12536743 -0.06254466
0.017953329 -0.0369183 0.0020358395 -0.009099998 0.012363968 0.028537426 0.07567135 -0.02169184
0.007695638 0.08096693 -0.039181195 0.029520167 -0.033559367 0.064693175 -0.049419098 -0.08755706
-0.005551508 0.0164235 -0.05355188 -0.030881777 0.021303525 -0.02821491 0.04112433 -0.06891434
-0.11693588 0.015863135 0.035996493 0.048708968 0.014680918 -0.04852111 -0.019730894 0.0073379395
-0.023097273 -0.07038257 0.005292069 -0.037036523 0.016565114 -0.06723762 0.038293816 0.0018305151
0.05680218 -0.07222845 -0.07664094 0.048329633 -0.10140841 0.030636601 0.028394233 0.06317213
-0.042912226 0.041369937 -0.05273719 -0.04916777 -0.038190905 -0.0077117034 0.01047805 0.08027579
-0.076279305 0.058815766 -0.055942632 0.04220583 0.03161891 0.028631672 -0.13885462 -0.041764062
-0.027655773 0.08134617 -3.023265e-05 0.061757185 -0.049369115 -0.063736744 0.018584756 0.04676633
-0.068048164 -0.041208345 -0.055889156 -0.058291443 0.055304676 0.017835543 0.01578988 -0.046889298
0.026086025 0.03457828 -0.003149421 -0.026539074 0.05875513 -0.072018996 0.004173287 -0.010161153
-0.03763062 -0.051234454 -0.054264963 -0.061431378 -0.08606087 0.050328787 -0.0052959616 0.038422853
0.0013988931 0.042906366 -0.027729694 0.021371936 -0.006578025 -0.0027676374 -0.040450502 0.025945138
0.048673246 -0.003945605 -0.0751869 -0.04327174 -0.068657756 0.014515143 -0.043170873 0.080850236
-0.00046546521 -0.04632843 -0.020271951 0.0040039797 0.07321817 0.06991771 0.07458477 -0.052989822
0.014350686 -0.020416308 -0.03080639 -0.025911788 0.0066050896 -0.012182086 0.018321691 -0.0511691
-0.05999156 0.020722881 -0.08731429 -0.0031871835 -0.014064179 -0.03287687 0.04100512 -0.059129898
0.046949033 0.06151381 0.03443653 0.0594523 0.00095636735 0.04961291 -0.047244523 -0.04281489
-0.022135181 -0.0391429 -0.055621583 0.074719265 0.03985851 0.050653055 0.04624125 0.041351587
-0.050729964 0.051641796 0.05028331 0.064923 0.031843685 -0.06929803 -0.0038595041 0.0011061919
-0.0096204085 -0.05548916 0.036576618 0.030674195 -0.06572206 -0.03744651 0.05268772 -0.08143887
-0.0025337313 0.0036625545 0.06864381 0.06631295 -0.06491287 0.0031521802 -0.009576879 0.07186987

sequential_2/conv2d_4/Conv2D f4 [64, 3, 3, 64]
00000000: 24fa 5ebd cf43 303c 3e5c 9cbc 5051 92bd
00000010: 4181 71bc 2596 9d3b e6a6 4cbd a0a7 633b
00000020: 0b68 d2bc 9a97 cfbb 96f5 b0bc 621e 2ebb
00000030: 800c 96bd 5392 ef3b 2eac 9cbc 0ae1 80bc
00000040: 4878 a23d e588 c83b 1faa 353d 5cca 09bd
00000050: 2344 b03c 49ca 163d 2dda 8cbd af02 c7bc
00000060: db06 43bc 6238 ebbd 7e44 c8bc fc7a 26bd
00000070: a23c 013b c0b6 e53c 9d2d c1bd 488f 3ebd
00000080: 806e 46bd 73d9 64bd 2327 3ebd 47d7 303c
00000090: 0458 793d 70f6 b6bd 57f2 95bc 0476 463d
000000a0: d7b9 1ebd 5a50 cdbc 8280 edbd 515a 38bd
000000b0: 81a2 5dbd 7cf8 0dbc 42f0 adbb 7628 813d
000000c0: f41a efbc aaa7 21bd 18a2 9e3d d0be 713d
000000d0: 8e8b 4f3d 251e 81bc 8566 49bd ae11 45bd
000000e0: fa11 e5bd 26b4 5f3d 7e30 c9bc fa89 efbc
000000f0: cd7f 53bd 4f88 c53c fffa 0c3d 2419 1b3c
00000100: 4b37 89bd ef22 55bd 8901 89bd c689 593d
00000110: bd44 7cbc 1f01 573b f944 123c 775e 92bd
00000120: fe34 dabc 8573 233d a427 38bb 854a 4f3d
00000130: c8ec f0bc 42c4 6bbd e802 b0bd d974 b0bd
00000140: 91dc 2d3d 2ddf 7a3c 297a 5abd fcb3 dbbd
00000150: f67b 5a3d 4be6 28bd 7f89 efbc b7a6 57bd
00000160: 6315 57bd 66a0 b7bd ebee d6bd 816d 54bd
00000170: 4b94 9d3b 2260 79bd 5a16 c4bd 8ef8 81bd
00000180: dd1f 70bd c98c 243d d807 21bd bccc 35bd
00000190: d79c 413d 4a97 99bb 6585 ec3b 5e6b 843d
000001a0: c075 0abc 662b 753d 0d8f fcbb 7082 413d
000001b0: 499a 603c e2a0 273d bec9 ab3d 00c9 8bbb
000001c0: 311b 203d b58c bc3c e33f 483d b94d 693d
000001d0: 4b69 523d dac1 24bd 81c4 a6bc 601b 8dbd
000001e0: 58c9 a9bd 1b78 2f3d 61f8 633d 7e3c 7abd
000001f0: 9484 babd 3edf 003d f2a1 953d ca3d abbc
00000200: 2955 18bd bcdf 8c3d 1040 5dbc bd6e 543d
00000210: 4b9d 0f3d 111c b8bc 8b37 28bc 098d 1c3d
00000220: d3ec 903c 793e 4abc a2e1 b43c 1187 9a3d
00000230: 608b 583d f6df b83d 5a64 0e3c 9f0c 12bc
00000240: 5e55 dfbb 0219 2f3d 949d 26bd 7203 313d
00000250: ad67 c6bc f8e8 ebbc cd2a 93bd 5cd3 883d
00000260: 6ecb c1bc 6192 31bd e298 143d b938 473c
00000270: 7970 ac3c d488 6cbd e7fc adbd 052a fdbb
00000280: 3dce 573d 7a11 123d fdbe 55bd f9db c4bc
00000290: 08ee 2dbd d186 97bd 404f 83bd 1f51 e6bb
000002a0: 5c76 1abd 6c38 a8b9 518f 42bd 9649 263d
000002b0: d2cf 76bc 602c 59bd 61bb 0a3d 8654 bf3c
000002c0: 8fd9 553d 76bb 64bd 52f6 24bd 2ac1 b5ba
000002d0: 97e4 033d c5fc 45bd 1be8 2f3d 045c d93c
000002e0: 6c26 0ebd d4cd 7f3c 9acb 56bd b511 8c3d
000002f0: 5cdf c13d f0f6 02bd 4b7d 13bd df26 543d
00000300: 83f5 80bd d554 b83c 9b44 f43c 32bc 89bd
00000310: 077f de3c 4790 333d b58c e6bd 0c8a aabd
00000320: 03d1 e9bd aead 89bd 1868 f43c bafc 52bd
00000330: 17f7 4bbd 0b65 cb3c cbcf 353b d743 c7bd
00000340: db2a a53d a48f 8abc 7c16 1b3d cc34 0fbe
00000350: 2876 773b 2588 3f3d ed92 44bc 3029 853a
00000360: a068 d3bc 500c f2bd a56c 5fbd 4ff2 f9bc
00000370: 500c 8bbd 632e d53b 2e01 d9bd a474 343d
00000380: 396b 5e3d d570 02bd 1683 adbc 5feb 16bd
00000390: 5c70 843c 6d60 a5bd 2fe8 42bc 016b 0c3d
000003a0: 4657 b9bd 50ca 983c 274b 3c3b d179 d83c
000003b0: 2ca2 c8bd 98af 293d 7fc6 63bd 2111 38bd
000003c0: b2c5 6bbd 36e1 a9bc 99e3 48bc 11ec 373d
000003d0: 6083 17bb a4be 7abd e4fb 583d 8704 bf3c
000003e0: 919d a2bb 93f1 81bd d9bc 7fbc 4211 5ebb
000003f0: 5ef5 f9bd a9ff f33c 186b 033d b139 25bd
-0.05443777 0.010758354 -0.019086953 -0.071444154 -0.014740289 0.0048091584 -0.049963854 0.0034737363
-0.025684377 -0.006335211 -0.02160148 -0.0026568403 -0.07326603 0.0073111444 -0.01912507 -0.015732307
0.07933098 0.0061198347 0.044351693 -0.03364025 0.021516865 0.036814008 -0.06877551 -0.024293272
-0.01190349 -0.114853635 -0.024446722 -0.04064463 0.0019719978 0.028041244 -0.09432528 -0.046523362
-0.048445225 -0.05587144 -0.046424042 0.010793514 0.060874954 -0.08933723 -0.018304033 0.048452392
-0.03875145 -0.025062729 -0.115967765 -0.045008007 -0.054110054 -0.0086652 -0.005308182 0.063065454
-0.029187657 -0.039466538 0.07745761 0.059019864 0.0506702 -0.015761444 -0.049170036 -0.048112564
-0.111850694 0.054615162 -0.024559256 -0.029240597 -0.051635552 0.024112849 0.034419056 0.009466443
-0.066999994 -0.05203527 -0.06689746 0.053109907 -0.015397248 0.0032807065 0.008927577 -0.07146924
-0.026636597 0.03990509 -0.00280998 0.050608177 -0.029409781 -0.057560213 -0.08594304 -0.08616037
0.042446677 0.015311998 -0.053339157 -0.10727689 0.053340875 -0.04123525 -0.029240368 -0.052649226
-0.05251063 -0.089661404 -0.10494789 -0.051862244 0.0048089377 -0.060882695 -0.09574576 -0.06346236
-0.058624137 0.040173326 -0.03931412 -0.044384703 0.047268715 -0.0046872245 0.0072180503 0.06465791
-0.008450925 0.05985584 -0.0077074827 0.047243536 0.013708659 0.040924914 0.08388089 -0.0042659044
0.03908843 0.023016313 0.048889052 0.056958888 0.051369946 -0.040223934 -0.020357372 -0.06889987
-0.082903564 0.04283915 0.055656794 -0.061092846 -0.091073185 0.0314629 0.07306279 -0.020903487
-0.03719059 0.068786114 -0.013504043 0.05186342 0.035062116 -0.02247432 -0.010267149 0.03822044
0.017691052 -0.012343996 0.022080246 0.07545293 0.052867293 0.09027092 0.008690918 -0.008914142
-0.0068155965 0.04274846 -0.040677622 0.043216176 -0.024219358 -0.028797612 -0.07185898 0.066809386
-0.023656573 -0.04335249 0.036278613 0.01215952 0.021049725 -0.057747677 -0.08495503 -0.0077259564
0.05268692 0.0356612 -0.052184094 -0.024030672 -0.042463332 -0.07398761 -0.064116 -0.0070287134
-0.037710533 -0.00032085495 -0.04749996 0.04059752 -0.015064197 -0.053020835 0.033870105 0.023355734
0.052209433 -0.05584284 -0.04027397 -0.0013866771 0.032200422 -0.048336763 0.042945962 0.026533134
-0.03470461 0.015613038 -0.052440263 0.06839315 0.094664305 -0.03197378 -0.03600816 0.051794883
-0.06296828 0.022501389 0.02981787 -0.067253485 0.02716018 0.043838765 -0.112573065 -0.083271116
-0.11416819 -0.0672258 0.029834792 -0.05151055 -0.04979619 0.024828454 0.0027742262 -0.09729736
0.08064815 -0.016914196 0.03786324 -0.13984984 0.0037759636 0.046760697 -0.01199792 0.001015937
-0.025806725 -0.11818755 -0.05454697 -0.03051105 -0.06789458 0.006505774 -0.10595928 0.04405655
0.054301474 -0.031845886 -0.02118067 -0.03684556 0.016166858 -0.080750324 -0.011896177 0.034281734
-0.09049849 0.018651158 0.0028731318 0.026425274 -0.09796557 0.041427225 -0.055609223 -0.04493821
-0.057561584 -0.020737272 -0.012261295 0.044902865 -0.0023119077 -0.061216965 0.052974597 0.023317588
-0.004962631 -0.06344905 -0.01560899 -0.0033884798 -0.12205003 0.029784994 0.032084554 -0.040338222
