app/src/main/ml/GrapeDisease.tflite (tflite, 741920 bytes, 16 tensors)

sequential_2/dense/BiasAdd/ReadVariableOp f4 [64]
000000 b6 f7 63 bd d0 f1 65 bc bd b4 06 3d d4 a7 11 3d
       -0.055656157 -0.014034703 0.03288721 0.035560444
000010 a2 27 67 bc bd 0b 53 bc 45 6a 76 3d b9 5a a5 bc
       -0.01410857 -0.012881217 0.06015994 -0.020184861
000020 6f 2d 35 3d 87 ff 9f 3d a9 15 b7 3b de aa 7b 3d
       0.044232782 0.0781241 0.005587299 0.06144225
000030 da f3 1f bb 14 09 06 3d 0c b9 b7 bc 20 2c 9e 3d
       -0.0024406821 0.0327235 -0.022427104 0.0772326
000040 a0 fd 33 bd 07 92 5a bc 16 64 8a bc 17 29 96 3d
       -0.043943048 -0.01334048 -0.016893428 0.07332056
000050 3e de 82 3d 57 61 28 3d ee 32 5e 3c 96 11 19 bb
       0.063900456 0.041108456 0.013561947 -0.002335643
000060 10 7d d2 bc 5c b8 51 bd 11 94 91 bd 0e 56 e0 bc
       -0.0256944 -0.05120121 -0.071083196 -0.027384784
000070 75 0a 25 bc fa 87 0d bd 9d b9 83 bc b8 17 8b bd
       -0.010073294 -0.034553505 -0.016079718 -0.06791633
000080 2a 8c 57 3c 7f 49 40 3d b9 43 48 3d 33 c4 67 bc
       0.013155976 0.04694509 0.04889271 -0.014145899
000090 92 40 ff 39 58 4d 15 3d 28 6c 73 bc e8 2c a3 3d
       0.000486855 0.036450714 -0.014857329 0.079675496
0000a0 29 6f d9 3c 24 b4 5d bd 4c dd 90 3c 48 d2 2a bc
       0.026542263 -0.054126874 0.017683648 -0.0104261115
0000b0 1c b3 7b bd 19 31 85 bc 7d e5 9d 3c 96 62 4c bc
       -0.06145011 -0.016258763 0.019274468 -0.012474677
0000c0 d3 90 8f 3d 96 9b 62 bd 4c 80 05 bd 22 b4 f0 ba
       0.07010045 -0.05532416 -0.032593057 -0.0018364231
0000d0 72 80 e9 3c b0 12 06 bc 33 80 ae bc 5a 84 77 bc
       0.02850363 -0.008183166 -0.021301365 -0.015107239
0000e0 7f 52 04 bc 6d 04 86 bd 55 ec 28 bc 92 64 51 bd
       -0.008076309 -0.06543813 -0.010310252 -0.051121302
0000f0 00 00 00 00 1c 91 7d 3c 1c 20 41 bb bf 33 0f bc
       0.0 0.015476491 -0.0029468602 -0.008740365

sequential_2/dense_1/BiasAdd/ReadVariableOp f4 [4]
000000 a5 c5 92 3d 22 f5 87 bd bf 46 37 3c 7e 50 ce ba
       0.07166604 -0.06638552 0.011186301 -0.0015740541

sequential_2/conv2d/BiasAdd/ReadVariableOp f4 [32]
000000 73 e5 14 bd 9f 2d 89 3d 63 fb be bb 97 a9 d9 bb
       -0.036351632 0.06698155 -0.0058283075 -0.006642531
000010 0c 98 96 bb c6 3f 82 3d 78 c0 c2 bb a9 a5 0b bd
       -0.004595762 0.0635982 -0.005943354 -0.034093533
000020 7b 02 8f bc 89 77 09 bd 83 e2 4c 39 db 77 cb 3c
       -0.017457237 -0.033561263 0.00019539338 0.024837425
000030 bb 63 bf bc a0 50 42 bb ae da fa 3b 0c 5e cc bb
       -0.023362985 -0.0029650107 0.007655463 -0.006236797
000040 9c a3 5e bc b4 1c 8f bc 43 12 68 bc da da 20 bd
       -0.013588812 -0.017469741 -0.01416451 -0.039271213
000050 75 b6 da 3a a9 74 16 3d 1c c8 33 bc c5 86 ac ba
       0.0016686457 0.03673235 -0.010973003 -0.0013162723
000060 21 57 d7 bb 9c 04 ff 3b 07 4e 34 bc e3 d9 86 3b
       -0.006571666 0.007782532 -0.011004931 0.0041153296
000070 79 2b d1 bc 93 16 e8 3b f4 9a 85 bb ac ad 1e bc
       -0.025533425 0.007082769 -0.0040773097 -0.009684961

sequential_2/conv2d_5/BiasAdd/ReadVariableOp f4 [64]
000000 b6 87 01 3d 6b 49 30 3d 97 c4 28 3c df fa 35 bc
       0.031623565 0.043038767 0.010300777 -0.011107176
000010 28 3c e7 bb 91 79 77 bd b7 38 2c 3d 40 d1 ca 38
       -0.0070567317 -0.06041867 0.042046275 9.6710864e-05
000020 7b 0c 83 3d 95 97 2f bd 73 07 4a bc d2 9a 5c bc
       0.06398865 -0.04286917 -0.012330878 -0.013464646
000030 71 e7 29 3d 3c 5d 2b bc 9f 7b 8b 3d 74 22 87 bc
       0.041480485 -0.0104592405 0.06810688 -0.01649592
000040 38 be dc 39 42 1f 95 3c 48 59 01 3d 1d d4 30 3d
       0.00042103394 0.018203381 0.031579286 0.043171037
000050 cf 6c 5b bc e1 21 d0 3c ac 51 66 3d e0 0e f6 bb
       -0.013392641 0.02540678 0.056230232 -0.0075090975
000060 47 f0 7a bc a3 50 37 bc 56 bd 44 bd 16 85 31 bc
       -0.015316076 -0.011188659 -0.048032127 -0.010834953
000070 e6 21 c6 bb 0d 85 4d 3d 20 47 72 3b 71 4f 38 3d
       -0.0060465215 0.050175715 0.0036968663 0.044997636
000080 36 07 07 bc 18 6e e6 bc 85 99 fb b9 97 48 8c bb
       -0.008241465 -0.028128669 -0.00047988832 -0.0042811143
000090 37 82 cc bc 1e 31 f3 bb 3e 33 1c 3d 4c 2d 4a bd
       -0.024964435 -0.0074216267 0.038134806 -0.049359605
0000a0 ab 4d ea 3c cf 2c c7 bc a0 11 e9 3c 6f 99 0b bc
       0.028601488 -0.024313359 0.028450787 -0.008520468
0000b0 e8 c6 11 bc fe f5 11 bc 3b 9a ff bc fb 21 b8 bc
       -0.008897521 -0.008908747 -0.031201473 -0.02247714
0000c0 cc 53 f5 bb 63 77 3e bc 14 43 1f bd f2 92 31 3d
       -0.007486796 -0.011625144 -0.03888233 0.04335303
0000d0 58 2b 4d 3d ca 9f ff bb 29 7f 18 bd 21 51 02 bd
       0.050090164 -0.0078010308 -0.037230644 -0.03181565
0000e0 34 9e 7a 3d 40 cb 96 3d 80 09 9b 3c 8c 4d 74 3d
       0.06118603 0.073629856 0.018925428 0.059644267
0000f0 cb 1d a0 bc de fd 6c bc 4e 8c 88 3d e9 4c 6f bd
       -0.019545456 -0.0144648235 0.06667386 -0.058422957

sequential_2/conv2d_4/BiasAdd/ReadVariableOp f4 [64]
000000 56 54 2f 3d 6a 1d ec 3c 7d 75 a1 bb 84 3a 54 bd
       0.04280504 0.02882262 -0.004927336 -0.051813617
000010 cc 44 a1 bc 20 d7 07 bd ba fb 65 bd 20 0b ae bc
       -0.019686125 -0.033164144 -0.05614827 -0.02124554
000020 b3 7e 36 3d af 6e fb bb bd 3f e1 3c ce 38 c1 3d
       0.044554424 -0.0076731066 0.027496213 0.09434663
000030 f9 06 28 bc 3d bb 1f bc f0 bd c9 bc 42 b5 2f bc
       -0.010255569 -0.009749231 -0.024626702 -0.010724368
000040 5a 32 c4 3c 15 b9 3c bb cd 1c 93 bc 06 82 14 bd
       0.02394979 -0.002879684 -0.01795807 -0.036256813
000050 1c c3 5d bb 2f 39 43 bc 76 3e f1 ba 2f 01 5e 3d
       -0.0033838218 -0.011915489 -0.0018405456 0.054200348
000060 8e ba a9 bc d0 77 1e bd c6 03 ab 3c 84 09 31 bc
       -0.020718839 -0.03868848 0.020875823 -0.010805491
000070 5f 7d 13 3d c3 bf ca 3c 39 cc 25 3d 06 d2 91 bd
       0.036008235 0.024749642 0.040477965 -0.07120137
000080 76 51 db 3a 5c 90 40 bc 30 4a c7 3c 85 a7 5f 3d
       0.0016732651 -0.011753168 0.024327368 0.05460312
000090 62 c7 64 3c de 23 8a 3b 0a 78 00 bd f5 28 f3 bc
       0.013963552 0.0042157015 -0.03136448 -0.029682616
0000a0 5a ed ba bc 33 3f c2 bc 4e 14 80 bc 3f 99 3d bd
       -0.022818256 -0.023711776 -0.015634682 -0.046288725
0000b0 4f 33 70 bc a8 fd de bc b8 40 1e bc b7 7f 93 bb
       -0.01466067 -0.027220562 -0.009658985 -0.004501309
0000c0 21 be a4 bc 27 bc b2 bb e8 4c a9 3c 95 f8 3e bc
       -0.020110192 -0.0054545584 0.020666555 -0.011655946
0000d0 21 23 89 bc 4e 1a d4 bc 9b c7 c4 3c 77 64 90 bc
       -0.016740384 -0.02589145 0.02402096 -0.01762603
0000e0 c5 3b 64 bc ea a1 1d 3d f9 51 16 bc 9e d6 83 bc
       -0.013930266 0.03848449 -0.009174817 -0.016093548
0000f0 62 71 8e 3d 92 e0 c4 bc a9 59 fb bc c8 2f 9f bc
       0.0695522 -0.024032865 -0.030682402 -0.019431964

sequential_2/conv2d_3/BiasAdd/ReadVariableOp f4 [64]
000000 e0 19 c2 bc ff 93 9c bb 85 12 b0 bc 31 8d 03 3c
       -0.023693979 -0.0047783847 -0.021493206 0.008029268
000010 38 c4 26 bc 38 a6 12 3c 8f ad e6 bc 8e 68 c7 bc
       -0.010178618 0.008950762 -0.028158931 -0.024341848
000020 de 8b 30 b9 1b 51 aa bc 3e 95 f0 3b 32 81 43 3d
       -0.00016836773 -0.020790627 0.00734201 0.047730632
000030 5b 95 d0 bc 68 45 28 3c 45 54 89 bc 78 88 d3 bb
       -0.025461843 0.010270454 -0.016763816 -0.0064554773
000040 b5 89 0a 3d 49 f4 86 bc aa 9b 15 bd af a6 8a bc
       0.033822734 -0.016473906 -0.036525406 -0.016925184
000050 00 de 08 bd ba 90 88 bc bb 0b a8 bc df 97 7f bb
       -0.03341484 -0.016670574 -0.020513406 -0.0039000434
000060 58 ee af bc 1f 02 80 bc 23 6d 1e bc 3d 2a 96 bc
       -0.021475956 -0.015626011 -0.009669575 -0.018330688
000070 50 8c 49 bb aa 9d d8 bb 6d d1 5c 3d 4a 1b 59 3b
       -0.0030753799 -0.006610592 0.05391066 0.0033127838
000080 31 2f cb bc 4b 5f df bc c0 2f 9a bc fa 6b 2a bd
       -0.024802776 -0.027267119 -0.018821597 -0.04160688
000090 b9 ea a5 3b 45 21 be 3c af 1d 1e 3c 47 4d a3 bc
       0.0050633815 0.023209224 0.009650632 -0.01993431
0000a0 10 b8 8f ba 39 10 c3 bc f9 62 dd bc 2a eb 2a b9
       -0.0010964889 -0.023811447 -0.027024733 -0.00016300069
0000b0 67 ad 00 bd 9e d6 8b bb b7 19 b5 bc 1a 09 69 3c
       -0.03141537 -0.0042675277 -0.022106988 0.014223361
0000c0 77 02 31 3d bd 5e 93 bb 3b 09 98 3b b9 2d d8 39
       0.04321524 -0.0044973777 0.004639772 0.00041232797
0000d0 cc 27 e9 bc 9e 2c 86 bc 2c cc ba bb 53 62 49 bb
       -0.02846136 -0.016378697 -0.0057006087 -0.0030728772
0000e0 26 f6 ad ba 7d 28 18 3c 5e 78 34 bd e4 5a c6 3b
       -0.001327221 0.009286997 -0.044060104 0.0060533155
0000f0 79 58 02 3b 65 d8 e8 3c 54 8a fe 3c 90 c1 b4 3c
       0.001988916 0.028423497 0.03107182 0.022064954

sequential_2/conv2d_2/BiasAdd/ReadVariableOp f4 [64]
000000 8e 19 26 ba ae 57 16 3c a0 12 b9 bb 50 e7 a3 3b
       -0.00063362054 0.009176178 -0.005647972 0.00500194
000010 b0 fe 15 3b e4 6c 04 3d d5 d2 db bc 19 25 84 3c
       0.0022887401 0.03233041 -0.026833931 0.01613097
000020 c6 d5 0b 3d a9 76 14 bd 33 b7 26 bd 4a a9 61 bb
       0.034139417 -0.036245976 -0.040702056 -0.003443318
000030 ac ae 32 bc 9d b0 ab bc 4b fc 96 bb 0b 88 8f 3a
       -0.010905903 -0.02095824 -0.0046077124 0.0010950578
000040 8b 7c 76 ba bd c8 4b bc df dd 82 bc 22 aa a0 3b
       -0.00094027136 -0.012437996 -0.015974937 0.004903094
000050 cf 6e 3b bb 59 d1 7a bb f3 d4 45 3c d4 50 21 ba
       -0.0028599983 -0.0038271754 0.012074697 -0.0006153707
000060 8a 28 10 bd 37 c2 0d 3c 1f 90 0a 3c f1 af 0d 3b
       -0.03519491 0.008652261 0.008457213 0.0021619762
000070 fc d1 22 bc 99 f3 46 bc 39 aa 78 3c c9 aa 85 3b
       -0.0099377595 -0.012143039 0.015177303 0.004079197
000080 41 cc 83 bc 64 a0 ae bc 77 4e e1 3b 7d 0f 66 ba
       -0.016088607 -0.021316715 0.006875809 -0.00087761116
000090 7a 69 48 bc 1b 0a 31 3b 98 1a c2 bc 07 50 e0 3a
       -0.012232179 0.002701408 -0.023694322 0.0017113694
0000a0 6f ba eb 3c 7b cf e2 3b 24 2a b7 3b 88 3b 41 bc
       0.028775422 0.0069217063 0.0055897404 -0.0117939785
0000b0 5a 65 10 bc d0 d1 57 ba ec d5 2b bc a8 35 2a bc
       -0.008813227 -0.00082328636 -0.010488015 -0.010388769
0000c0 d6 a7 8b 3b 37 0e ae bc 2d 11 1c 3a 49 d1 61 bc
       0.004261951 -0.021247013 0.0005953487 -0.013782808
0000d0 36 a4 26 bc 69 fe 66 bc 8f 01 5e 3c d8 9a a3 bc
       -0.010170987 -0.014098742 0.013550176 -0.019971296
0000e0 7f 20 4f bb 8c 1e ef bc f3 9d 99 bc 1c 27 b9 bc
       -0.0031605063 -0.02918937 -0.018752074 -0.022601657
0000f0 75 1a 54 bc 67 e6 d1 3c 90 12 12 bc 82 4f 20 bc
       -0.012945761 0.02562256 -0.008915558 -0.009784581

sequential_2/conv2d_1/BiasAdd/ReadVariableOp f4 [64]
000000 32 ea 54 bc 65 df 18 3c ad 48 0c 3d 20 00 04 ba
       -0.01299529 0.009330605 0.034248997 -0.0005035419
000010 60 13 25 bc 7a c8 b0 3b ae 17 8b 3c a4 8a df 3b
       -0.01007542 0.0053949924 0.016979065 0.006821947
000020 b1 18 93 bc 22 ac 9c bc 2f 46 bf bb d4 be ab 3b
       -0.01795611 -0.019125048 -0.005837224 0.0052412543
000030 46 72 9d bb 43 72 41 bc 5d ea 96 ba 9a 78 17 bc
       -0.004804882 -0.011807027 -0.0011513937 -0.009245062
000040 fe f6 72 ba 75 ac a0 bc c3 64 5f bb ca 71 4e 3b
       -0.0009268372 -0.019613484 -0.0034087158 0.003150093
000050 9f 0e 9f 3b 3c b4 4c 3b 91 e1 86 3c 30 d5 23 bc
       0.004854038 0.0031235358 0.01646498 -0.009999558
000060 15 78 aa bb 59 00 ae bc 88 a5 b8 bc b3 eb b0 bc
       -0.005202303 -0.0212404 -0.022539869 -0.021596765
000070 1f d4 ca bb 07 3b 8c bc b2 00 f9 bb db f5 53 bc
       -0.0061898376 -0.01711799 -0.00759896 -0.0129370345
000080 33 c5 9e bc 33 2f f2 bb 7b d6 68 bc c1 bb a2 3c
       -0.019381141 -0.0073908805 -0.014211292 0.019864919
000090 a8 4a e5 bb 29 0a 04 bb a1 8f ff bc 09 27 0f bc
       -0.006997425 -0.0020147657 -0.031196417 -0.008737334
0000a0 01 d8 95 bc a4 f6 cd bc 9d 5b cd bc c0 66 dc bb
       -0.018291475 -0.025142021 -0.025068099 -0.006726116
0000b0 23 df 6b bc 5c 0c 06 3c 7c bd a0 3b d1 21 93 bc
       -0.014396462 0.008181658 0.004905401 -0.01796046
0000c0 80 ba 8b bb 95 b3 29 3c d8 9b fe bc 16 f8 73 bc
       -0.004264176 0.010357757 -0.031080171 -0.014890691
0000d0 1d c2 f7 3b 65 c1 84 bc 00 19 ea bc 67 5e 0e 3b
       0.007560982 -0.016205499 -0.028576374 0.0021723749
0000e0 a8 7b 95 bc da e5 08 bd 6d 87 70 3b cb 3d d3 bc
       -0.01824744 -0.03342233 0.0036701814 -0.025786301
0000f0 11 40 e6 3b a0 56 82 3b ec c2 51 bc f3 98 c1 ba
       0.0070266803 0.0039776117 -0.012802821 -0.0014770314

sequential_2/dense/MatMul f4 [64, 256]
000000 fd f9 04 3e ad 80 02 be de f0 87 bd df 70 02 be
       0.12985988 -0.12744398 -0.06637739 -0.1273837
000010 57 51 02 be 89 6d f4 3d 62 a8 96 bc 77 a8 fa bd
       -0.12726341 0.11934955 -0.018390838 -0.12239163
000020 9a 10 20 bd c7 f2 0d 3e 28 26 61 bd 33 6e f1 bd
       -0.039078332 0.13862143 -0.05496803 -0.11788597
000030 6c 82 b2 3c fc e7 eb bd 02 f1 b9 3d 4c 71 87 bd
       0.021790706 -0.11518857 0.09079172 -0.066134065
000040 0d 52 0a 3e 4a 4f e1 bd 25 f2 b6 bc 98 91 c9 bd
       0.13507862 -0.11001451 -0.02233226 -0.09842223
000050 74 16 f8 3d 75 71 ce 3d 29 c7 0f be 28 d3 e7 3d
       0.121136576 0.10080234 -0.14040817 0.11319572
000060 2d 05 0f 3e fd 58 b3 bd ed 8d e6 3d 3b 9f 8f bd
       0.13966818 -0.087572075 0.11257539 -0.07012793
000070 3e bb dc bd c1 15 b7 bd 3c ff 98 3d 43 2f e5 3c
       -0.10777901 -0.08939696 0.07470557 0.027976638
000080 54 8c 04 3e 55 8c 50 3d 84 8c 41 bd 00 ee f4 bc
       0.12944156 0.05091508 -0.047253147 -0.029898643
000090 08 c9 5b 3e 4c dd c3 bd 11 ce db 3d ed be 01 3e
       0.21463406 -0.095636934 0.107326634 0.12670489
0000a0 6f 18 95 bd 37 44 f5 3c 28 8a 83 3d 0a e4 ea 3d
       -0.07280051 0.029939754 0.064228356 0.11469276
0000b0 70 42 f8 bd 6d 7b 01 be 2d a9 25 3c 84 9f fa bb
       -0.12122047 -0.1264474 0.010111135 -0.0076484103
0000c0 f2 d2 04 be 11 f4 e9 bc 5e 35 10 bd 66 86 d1 3c
       -0.12971094 -0.028558763 -0.035207145 0.025576781
0000d0 1f 40 86 3d 96 e9 d2 bd 05 80 ba 3d dc 5d db bd
       0.06555199 -0.10298459 0.09106449 -0.10711262
0000e0 68 d2 0f 3e 96 d6 a2 bd 25 a9 cb 3d f6 32 b0 3d
       0.14045107 -0.07951085 0.09944371 0.0860347
0000f0 6c ae 3e 3d 80 85 73 3d ed ca 8e 3c bd 5d 80 3d
       0.04655306 0.059453487 0.017430747 0.06267879
000100 8f 77 77 bd 27 5e 85 bc a3 fc 18 3e af 14 93 3d
       -0.060416754 -0.016280247 0.14940123 0.071816795
000110 4e cf 29 bd c2 b0 88 3d 46 47 85 bd 3b bb af 3c
       -0.041457467 0.06674339 -0.06507735 0.021451583
000120 b4 8b 09 3e 09 68 66 bd 60 86 06 3e 01 95 bb bc
       0.13432199 -0.05625156 0.13137197 -0.022898199
000130 71 27 6c 3c de fc cb 3d c4 e5 58 bd b0 b2 c8 bd
       0.0144137 0.0996034 -0.052953497 -0.09799707
000140 f2 b5 1e bd 7b 9b a4 3d c6 67 04 3e cc 03 d4 3b
       -0.038747735 0.08037468 0.12930211 0.006470179
000150 48 bf af bc d1 d0 53 bd 1d e0 8b bd 38 02 de bd
       -0.021453515 -0.051712815 -0.068298556 -0.10840267
000160 f3 11 8c 3d 87 bc b5 bd 07 d9 ef 3d 76 86 09 3e
       0.06839361 -0.08873849 0.117113166 0.13430199
000170 b7 e8 04 3e 1d 34 ef 3b f0 8b b2 bd 3b 13 89 bd
       0.12979399 0.0072999136 -0.08718097 -0.06693121
000180 eb 25 f4 3d 06 1c 19 bd 8b b2 ee bd 5f b8 51 bd
       0.11921295 -0.03738024 -0.11655148 -0.05120122
000190 6d 6a c9 bb b1 fe f4 bd 3b d2 8d bd 46 c5 91 bd
       -0.00614672 -0.11962641 -0.06924864 -0.07117705
0001a0 a7 79 4a bd e1 d1 85 3d 53 c3 ee bd 82 f7 82 bd
       -0.049432423 0.06534172 -0.11658349 -0.063948646
0001b0 5f 42 77 3d 8d b7 62 bc f9 0c ba 3d 67 b3 d8 bd
       0.06036603 -0.013837707 0.090845056 -0.10581093
0001c0 90 75 ed bd c9 26 cf bd fc 0d b9 3d 7e 75 be 3c
       -0.11594689 -0.101148196 0.090358704 0.023249384
0001d0 7f b6 3f bd 1c 12 c3 3d 40 16 8d 3d a7 40 6b 3d
       -0.0468049 0.095249385 0.068890095 0.057434704
0001e0 68 56 1f bc c9 f5 bc ba bf 0f dc ba 29 55 cf 3d
       -0.009725191 -0.0014416511 -0.0016789361 0.10123665
0001f0 ba c9 ba bc b0 4d 07 3d 4a 44 77 3d 01 39 fa 3d
       -0.022801269 0.033033073 0.06036786 0.12217904
000200 09 7a 70 bd a0 18 94 3d 6b 56 67 3c 98 c1 ea 3b
       -0.05871013 0.07231259 0.014119725 0.0071641915
000210 5d 2a 56 3c 38 c4 b8 bd aa 9b e6 bd 1f 5d c4 bd
       0.013071624 -0.09021801 -0.11260159 -0.09588074
000220 d0 2d b7 bc 69 21 42 3b 58 82 cb 3d fc 43 6e bd
       -0.022360712 0.0029621965 0.099369705 -0.058170304
000230 95 c6 41 3d d6 ea d7 bd 37 44 2d be 86 7d 8e 3c
       0.047308523 -0.10542838 -0.16920553 0.017393839
000240 c7 fa 92 3d b4 37 80 bb b0 26 da bd dd 8a aa 3c
       0.07176738 -0.0039128903 -0.1065191 0.020818168
000250 db 13 b0 3d ee 96 f9 3d 98 18 06 be a2 6e c3 3c
       0.08597537 0.12186991 -0.1309532 0.023856465
000260 ae 44 01 bd 2f 84 81 bd 37 bd 1c 3d 40 16 ce 3d
       -0.03155964 -0.0632404 0.038266387 0.100628376
000270 a7 e3 2d be 9b b2 09 bd 51 be ae bd 96 f3 c2 3d
       -0.16981374 -0.033617597 -0.08532394 0.095191166
000280 5d bb c8 bd 4c 56 af 3d b0 33 b8 3d e0 6a a2 bc
       -0.09801362 0.08561382 0.089942336 -0.019826353
000290 85 b9 c1 bd 44 b4 33 bd 36 46 49 bd 05 46 d8 bd
       -0.09459213 -0.043873087 -0.049139224 -0.1056023
0002a0 55 98 1d 3d 76 6a f3 3d 88 50 06 be 1d 28 86 bc
       0.038475353 0.1188554 -0.13116658 -0.01637655
0002b0 c3 82 03 3e 84 00 15 be ef 41 d3 3c a5 db 0d bd
       0.1284285 -0.14550978 0.025788276 -0.034633297
0002c0 d0 fd a5 bc d1 c4 77 bc 35 cc c8 bd 30 8a 14 3e
       -0.020262629 -0.015122608 -0.098045744 0.1450584
0002d0 48 eb e4 bd a4 c2 6b 3d 13 4d ee bd 8b b3 5a 3d
       -0.11177689 0.05755867 -0.116357945 0.05339388
0002e0 26 95 b3 bd bc 11 84 bc b5 53 04 3e d7 29 18 bd
       -0.08768682 -0.016121738 0.12922557 -0.037149277
0002f0 c9 39 03 3d ca bf 03 3e 77 8c 4e bd 1e 24 ed 3d
       0.03203753 0.1286613 -0.050426926 0.115791544
000300 dd 68 39 bd c6 c2 06 3e c1 e8 5b 3d 9c 95 a6 bd
       -0.04526602 0.13160238 0.05368877 -0.081340045
000310 90 88 04 3c 08 e3 17 3e d8 1e 62 3d 74 0d 3e ba
       0.0080892 0.148327 0.055205196 -0.00072499295
000320 f1 74 23 3c 12 91 1f bd 6e c3 7e bc d8 80 42 3d
       0.0099766115 -0.03895671 -0.015549524 0.047486156
000330 dc da 7b 3b 84 ee e9 3d e6 36 98 3d 96 0b f4 3d
       0.003843001 0.11422446 0.07432346 0.11916272
000340 fd a2 5c 3c 79 1a 11 3e c5 4d 92 bd fc 3a 2f bc
       0.013466594 0.14170255 -0.071437396 -0.010695215
000350 bf d9 99 bd 9d ee 18 bc 62 6f 00 be 79 ae ca bd
       -0.07512235 -0.009334234 -0.12542489 -0.09896559
000360 54 29 9b 3c a1 14 be bd 69 63 9d bd dc e1 98 3d
       0.018940605 -0.092812784 -0.076849766 0.07464954
000370 d3 20 42 bc 9a 8a 83 3d cf 1e 70 3d e7 b5 b7 bd
       -0.011848646 0.064229205 0.05862313 -0.08970242
000380 21 df d3 bd 0b e1 f9 3c 3f 00 0e 3e 4b ca 13 3e
       -0.10345293 0.030502817 0.13867281 0.14432637
000390 04 60 b8 3d fb d7 31 3d df 76 af bd 43 0b 1a bd
       0.090026885 0.043418866 -0.08567595 -0.037608396
0003a0 7e 8e 9a bd 40 84 2c 3d 95 2e 7d 3d ba 02 b6 3b
       -0.075467095 0.04211831 0.061812002 0.0055545243
0003b0 29 f3 9a bd a8 df 23 3d e5 70 08 bd c1 18 23 3e
       -0.0756591 0.040008217 -0.03331079 0.15927412
0003c0 6c dd 19 3d 60 65 90 3d 71 6e 0a 3e 04 4b 7a bb
       0.03756468 0.07050586 0.13518693 -0.0038191685
0003d0 bc 04 f3 3d 98 1c 1e bd be 5d 0c 3e f4 fb d0 3d
       0.118661374 -0.038601488 0.13707635 0.10204306
0003e0 e2 86 00 be a3 8c 06 3e 7f 99 e7 3d 06 52 6e bd
       -0.12551454 0.13139586 0.11308574 -0.058183692
0003f0 44 a0 ea bd f2 cd a0 bd ba 76 0c bd 40 23 b0 bd
       -0.114563495 -0.07851781 -0.034292914 -0.086004734

sequential_2/dense_1/MatMul f4 [4, 64]
000000 ee c2 8f be 06 3f 43 bd 1b bf 94 3e 31 09 af bd
       -0.28078407 -0.047667526 0.29052052 -0.08546675
000010 e5 5b cd bd 84 ec 32 bc d4 3e fb bc ba 59 5c be
       -0.10027293 -0.0109206475 -0.030669607 -0.21518603
000020 42 f3 d7 bd 2c 54 a1 bd c4 54 09 be 1d 0a 0d be
       -0.105444446 -0.07877383 -0.13411242 -0.13773389
000030 14 3d 06 3e 2a 31 3a be 0d 41 ba 3d ca 90 44 3d
       0.13109237 -0.18182817 0.09094439 0.047989644
000040 da b4 7c bd dc 18 0c bd 33 a5 47 3e d9 62 c3 bd
       -0.06169591 -0.034203395 0.19496612 -0.09540338
000050 8d 7c 4a 3e 42 35 4d 3d 42 a8 5b be 97 62 87 3e
       0.19774075 0.05009962 -0.21450904 0.26442406
000060 85 5f 26 be 2c 85 9d bc 3d 0d 60 be ad 57 6f be
       -0.16247375 -0.01922854 -0.2188005 -0.2337329
000070 93 cd e6 3c 74 14 28 be 62 41 e1 3d 89 3c 2c bd
       0.028174197 -0.16414052 0.10998799 -0.04204992
000080 00 a2 87 be f0 9d e1 3d 15 3d 8f 3e 5b 06 60 3e
       -0.26490784 0.11016452 0.2797629 0.21877424
000090 6b 80 fa 3d 01 ae ea bd 67 f1 7c be 50 c3 ef bc
       0.12231525 -0.1145897 -0.24701463 -0.029267937
0000a0 0e f3 cb bc b1 d4 b3 be 10 18 40 3e 3f 98 0c be
       -0.024896171 -0.35123208 0.18759179 -0.13729952
0000b0 df 5c 20 3c 46 3b 9f 3c c8 e8 84 3d a2 4c 32 3e
       0.009787767 0.019437443 0.06489712 0.17412046
0000c0 56 b2 91 3e 58 e7 84 bc f7 33 8e be b1 8b 22 3e
       0.28456372 -0.016223595 -0.2777402 0.158736
0000d0 ff de 6b bd b5 9a 26 be df f4 77 be 6b 6c 89 3e
       -0.057585713 -0.16269954 -0.24214505 0.2684053
0000e0 22 33 31 3e f9 b6 73 be 19 70 54 be 60 a8 85 b9
       0.17304662 -0.23800267 -0.20745887 -0.00025493186
0000f0 ce 01 71 be b3 1e 2b 3e 5b 0a 9a bd f0 ea b2 bd
       -0.23535845 0.1671093 -0.075215064 -0.08736217
000100 24 30 7a 3e c5 9b 5c be 44 1a 32 3e 34 7a 73 be
       0.24432427 -0.21543796 0.17392832 -0.23777086
000110 a0 ac a2 3d a2 b6 79 be bd 56 96 be 2a 25 b2 3d
       0.07943082 -0.24386075 -0.2936305 0.08698495
000120 50 e2 13 be d7 73 c9 be ae d8 41 3e ac 50 95 be
       -0.144418 -0.3934619 0.18930313 -0.2916311
000130 db 09 f7 3d 2e 4b bc bd e4 c4 3a 3e bc 91 92 be
       0.12062427 -0.09194027 0.1823917 -0.28626812
000140 26 85 5b be fc 14 84 be 6b 2b 26 3e bd a6 87 be
       -0.21437511 -0.2579726 0.162275 -0.264944
000150 c6 86 cb 3c 22 10 79 be ee 15 23 3d fd c2 97 3e
       0.024844538 -0.2432256 0.039815836 0.29640952
000160 64 37 6a 3c 1f b3 8e 3e d9 99 47 3e 4a fb 0b 3e
       0.014295433 0.27871034 0.19492282 0.13670078
000170 32 95 a6 3d 47 c6 bc 3d 22 3c dd 3c 2d 45 53 3e
       0.081339255 0.09217506 0.027006213 0.20631857
000180 fe fe ba bb e1 b7 cd bd 19 2a 0e 3e 90 94 7a be
       -0.005706667 -0.10044838 0.13883246 -0.24470735
000190 fe 53 3e be 29 b4 3f be 60 92 96 3c 3d f7 74 be
       -0.18586728 -0.1872107 0.018380344 -0.23922439
0001a0 a5 90 4b bc e8 45 c6 3b 03 c2 45 3d 8b 24 3b be
       -0.012424623 0.006050814 0.048280727 -0.18275659
0001b0 6c 1a 22 3e b8 31 91 3e 36 50 35 be c2 c5 7f be
       0.15830392 0.28358245 -0.1770638 -0.24977782
0001c0 fc 57 aa bd ab f3 22 3e 32 64 23 be 17 49 7d be
       -0.08317563 0.15913264 -0.1595619 -0.24734913
0001d0 8d de 65 bd 71 57 80 be b6 04 db 3d 61 f3 c2 3c
       -0.056120444 -0.25066712 0.10694258 0.023797693
0001e0 ec 5c 76 3e e5 d6 5b 3e 1b 5a 42 bd f0 bf 63 3e
       0.24058884 0.21468695 -0.047449213 0.22241187
0001f0 6b 36 47 be b9 98 44 3e 6e 89 81 be 4f 26 55 be
       -0.19454353 0.19198884 -0.25300163 -0.20815395
000200 ff 33 6a be 07 dc 83 3e 6c ae b8 bd 1e 32 12 3e
       -0.22871397 0.25753805 -0.09017643 0.1427693
000210 2b a0 6e bd 4f 63 6e 3e d6 e8 64 3e 76 5e 1b 3d
       -0.058258217 0.2328007 0.22354445 0.03793188
000220 06 b2 5a be 5a d1 f4 3c 32 2a 94 be 89 bb 81 3e
       -0.21356973 0.029884983 -0.28938442 0.2533839
000230 90 ad 0e be 1a 4c 5d 3e f0 96 19 be 70 71 96 bd
       -0.13933396 0.21611062 -0.14998984 -0.07345855
000240 e3 fe 77 be 4b e7 69 3d 11 d2 1e bc cf 36 4e be
       -0.24218325 0.057105344 -0.009693638 -0.20138095
000250 0b dc 33 3e e1 f1 10 3e b4 9f bf bd e3 c5 1d be
       0.17564408 0.1415477 -0.09356633 -0.15407519
000260 b9 6b 93 bc d7 dd 0b 3d f8 d6 9a 3d e6 0c 0e bd
       -0.017995702 0.03414711 0.07560533 -0.03468027
000270 89 49 89 bd 9d ba 79 3c 06 86 63 be 1b a1 3a 3d
       -0.06703479 0.015242246 -0.22219095 0.0455638
000280 8a 85 f5 bb 7e 02 b1 3d df eb 88 3d 2a 0f 27 be
       -0.0074927257 0.086430535 0.06685614 -0.16314378
000290 1f a3 e8 3d bf 5d 7b 3d d0 71 20 bd d4 9e 30 3e
       0.11359238 0.0613687 -0.03917104 0.17248088
0002a0 c5 74 75 3e b9 f8 3a 3d e4 08 1c be f4 fd 49 be
       0.23970325 0.045647357 -0.15237767 -0.19725782
0002b0 56 55 9f 3c 52 09 74 3e 14 27 1d 3e f7 07 46 be
       0.019449871 0.2383168 0.15346938 -0.19338976
0002c0 de 34 c9 3c 90 ea 46 3e 56 14 5b be 23 da 83 be
       0.024561342 0.19425416 -0.21394476 -0.25752363
0002d0 a7 e6 68 3e a7 7b 0e 3e 81 06 3b be 16 47 54 be
       0.22744237 0.13914357 -0.182642 -0.20730242
0002e0 01 e7 8c bd ba 92 15 bc c8 64 39 3d 68 96 16 3e
       -0.06879998 -0.009129221 0.045262128 0.14705813
0002f0 28 b9 3b 3d 21 dc 7e be 06 dc 18 3e 6f 4a 69 3e
       0.045830876 -0.2488866 0.14927682 0.227823
000300 21 01 41 be 07 a7 76 be 60 1f 28 3e a5 e6 12 be
       -0.18848087 -0.24087153 0.16418219 -0.14345796
000310 b4 8c 40 be ef ad 81 3e 4a 02 74 3d 50 f1 b0 3d
       -0.18803674 0.25328013 0.059572496 0.08639777
000320 44 63 a5 3e f4 02 a4 3e 8b 93 82 3e 01 24 2f 3e
       0.32302296 0.32033503 0.2550319 0.17103578
000330 3c 34 3a be 3d da 94 3e a1 bc df bd af 81 98 be
       -0.18183988 0.29072753 -0.1092465 -0.2978644
000340 fa 95 d6 3d 99 85 0b be f0 d3 89 3e 10 d0 7d be
       0.104778245 -0.13625182 0.26919508 -0.24786401
000350 04 55 2d be 74 fa a6 3e 38 c2 b9 3e 79 bb 30 be
       -0.16926962 0.32612956 0.3628099 -0.17259015
000360 0f 98 bb 3d db c0 7b bd 06 a2 05 3c ae a0 90 be
       0.09159862 -0.06146322 0.008156305 -0.2824759
000370 12 74 92 be 9f 90 af be 25 1e 44 3e b8 e0 69 3d
       -0.2860418 -0.34290025 0.19152124 0.057099074
000380 46 68 aa 3e fc f5 52 3e 61 6e 9b 3e f9 77 6f 3d
       0.3328268 0.20601648 0.3035765 0.058464024
000390 f7 e8 5a bd 8e ef b1 be 44 d6 fe 3d 23 ae 87 3e
       -0.05344483 -0.34753078 0.12443212 0.26500043
0003a0 f3 99 a7 be c9 71 4d be 1c 7d 11 3e 1d cf 61 3e
       -0.3273464 -0.20062937 0.14207882 0.22051664
0003b0 e9 92 ad 3d 44 04 0e 3e 9a 51 7e bc e4 da 8e 3d
       0.084752865 0.13868815 -0.015522385 0.06975344
0003c0 5d 48 96 be 47 8c 90 3d e7 d1 a8 3d 05 e0 4b be
       -0.29352084 0.07058006 0.08243161 -0.19909675
0003d0 9a 00 9b 3c 63 91 53 bd 54 6b 9d 3e 37 d9 0f be
       0.018921185 -0.051652323 0.30745947 -0.14047705
0003e0 ac 55 8f bd 8a 78 3c be 96 fe 19 3e fc 25 1a 3d
       -0.069987625 -0.18405357 0.15038523 0.03763388
0003f0 d4 f3 44 3e 4a c6 42 be 13 c6 18 be 49 d7 0e be
       0.19233638 -0.19020954 -0.1491931 -0.13949312

sequential_2/conv2d_1/Conv2D f4 [64, 3, 3, 32]
000000 5b db d6 3b 2c d4 74 bd 41 ac 01 3d b5 dc ce bc
       0.006556911 -0.059772655 0.031658415 -0.025251726
000010 64 d5 23 3d 63 18 94 bd 14 40 3b bd 32 16 cb bd
       0.039998427 -0.07231214 -0.045715407 -0.09916343
000020 2c ec fb 3c ca 56 a3 bd db 31 af bd 40 b6 c6 3d
       0.030752264 -0.07975538 -0.08554431 0.0970273
000030 ae 05 27 3c 10 70 fb 3c 1c d6 fd bc 84 f9 37 3d
       0.010194225 0.030693084 -0.030985884 0.04491569
000040 12 3b 96 bd 3f 51 6d bc b4 6a 4e 3b 57 36 30 bd
       -0.073354855 -0.014484703 0.0031496705 -0.043020573
000050 bd 26 1f bc 4f c5 85 bd d7 9d a3 bc 91 b9 50 3c
       -0.009713826 -0.06531774 -0.019972725 0.012739555
000060 71 3d c8 bc 89 33 de 3b e0 53 34 3c fb fe c3 bb
       -0.02444336 0.006781046 0.0110063255 -0.005981324
000070 a3 93 a9 bb 6c 75 b1 3d 6e 1b 84 bd 5a 0f b5 bc
       -0.0051750704 0.086649746 -0.06450544 -0.022102047
000080 51 db 06 3d 3a c2 ad bd 8c ee 26 3a 3a 39 67 bd
       0.032924 -0.084843114 0.0006367944 -0.05645106
000090 88 be 88 bd a3 c1 8f 3d 31 ed 70 3d 4c ec 4d 3d
       -0.06676966 0.07019355 0.058819953 0.05027418
0000a0 ae 44 8b bd d6 ee 8a bd 25 9a 8a bb 52 15 bd 3a
       -0.06800209 -0.067838356 -0.0042298012 0.001442591
0000b0 13 99 0a 3c 3a 51 e8 bc a6 3e ae 3d 37 0b 6e 3d
       0.008459347 -0.028359044 0.08508043 0.058116164
0000c0 28 58 75 bd 52 1b 79 3d 26 12 8b 3d 33 8d 12 3d
       -0.059898525 0.06081707 0.06790571 0.03577919
0000d0 ae ce ae 3d bb 50 c8 3c e5 b2 85 3b 23 cc 23 bd
       0.08535515 0.024452558 0.004080164 -0.0399896
0000e0 d1 c5 49 bd 8e 35 f6 3c a1 62 91 3d f3 83 31 bd
       -0.049260918 0.030054834 0.0709889 -0.043338727
0000f0 2f f5 24 bd 95 4a 75 3d 0b 0a cc bc e5 a5 98 bd
       -0.040272888 0.05988558 -0.024907133 -0.07453517
000100 e9 51 b0 3c 7f 24 9a 3b 2c fd be 3d 2a 4b 85 3d
       0.021523433 0.0047040577 0.093256325 0.06508477
000110 90 9b a9 3d 79 58 79 bd ff 8d 40 bd 68 f6 21 3d
       0.08281624 -0.06087539 -0.047010418 0.039541632
000120 04 09 05 bd a2 fc 8b 3d 01 f1 cf 3d 05 ec 75 bd
       -0.0324793 0.06835295 0.1015339 -0.06003954
000130 51 1b a7 3d 9d da 61 bc df c0 d9 3c 4b fa 0c 3d
       0.08159507 -0.013785032 0.026581226 0.034418385
000140 df 3e 8d 3d 92 3a 27 3c 36 d2 01 bc 6d 06 9f 3d
       0.06896757 0.010206835 -0.007923653 0.077648975
000150 77 ab 74 3d 9e b4 a0 3d 8e 39 06 bc d5 57 c3 3d
       0.059733834 0.0784695 -0.008192433 0.09538237
000160 dd 0f db 3a 2b e8 b5 bb 8c a4 8c 3c 07 52 ca bc
       0.0016713102 -0.005551358 0.017168306 -0.024697317
000170 c4 7c 2b 3c 95 16 cf 3d 36 0d c5 3c 60 97 8f bd
       0.010466758 0.10111729 0.024054151 -0.07011294
000180 6c ee ac ba a8 0b e8 3a a1 71 b4 bd e8 97 81 bb
       -0.0013193614 0.0017703669 -0.088107355 -0.003954876
000190 ff 5d 2d bd e2 7b 50 bd 28 46 10 bc 03 e1 c0 3c
       -0.04232597 -0.050899394 -0.008805789 0.023544794
0001a0 ed 97 58 ba 73 14 2c bd 47 6a 75 bd 12 18 c2 3d
       -0.0008262385 -0.04201169 -0.059915807 0.09477247
0001b0 71 d7 48 bd 36 07 8a bd 02 c2 9c 3d 95 39 bb 3d
       -0.049033586 -0.067396566 0.076541916 0.09141842
0001c0 5c 8b 07 bd d4 04 77 3c f4 56 89 3b 7a 09 ae bd
       -0.033091888 0.015076835 0.004191274 -0.08497901
0001d0 7d 3e c3 3b 7c 6c 7a bb 88 23 2e bd 2f 34 89 3d
       0.005958377 -0.0038211634 -0.042514354 0.06699406
0001e0 5d 6a 79 3d c3 5f 82 bd 72 7d 09 3c f5 50 30 3d
       0.06089245 -0.06365921 0.008391725 0.043045957
0001f0 47 9b 8d 3d 6f 7a 98 3c f1 de 6c 3c b0 62 b0 bd
       0.069143824 0.018613068 0.01445745 -0.08612573
000200 ba 8a 66 3d 2e bd 67 bd a7 36 43 bc 9f 9c 64 bd
       0.056284644 -0.0565769 -0.011914886 -0.055813428
000210 48 1a 38 bd 45 80 94 3d 9c dd 0a 3d bb ef b6 bd
       -0.04494694 0.07251028 0.03390275 -0.08932444
000220 85 ea a3 3d 82 57 b9 3c 0f 23 06 bd 4c d9 0d 3d
       0.080037154 0.022624735 -0.03274828 0.03463106
000230 51 5d 62 3c ec 36 93 bd 33 c3 60 3d 9e 4a 43 bd
       0.013816194 -0.0718821 0.054873656 -0.047678582
000240 a8 10 13 bd 1b f4 9d bd 5a 4b 89 bd a3 8b e0 bb
       -0.035904557 -0.07712575 -0.06703825 -0.0068525835
000250 55 60 35 3d d5 64 6b 3d 28 01 60 bd bf ed 5a 3d
       0.044281323 0.057469208 -0.054688603 0.05344939
000260 2d ab 81 bc 75 7c e5 3b 6b ff 5b bc 92 4c 0d bc
       -0.015828693 0.007003362 -0.013427596 -0.008624213
000270 7c c8 36 bc 27 e1 ca 3d 32 d7 09 3c 4b 0b 8c 3b
       -0.011156198 0.09906226 0.008413123 0.004273807
000280 51 77 e9 3a 98 27 73 bd 04 de 00 bd 29 47 91 3d
       0.0017812048 -0.05936393 -0.03146173 0.07093651
000290 fc 56 03 3e 5c 6b 94 bb 82 da 4d bd f7 a2 95 3d
       0.1282615 -0.0045294 -0.050257213 0.07306474
0002a0 ad 47 15 3d b5 03 59 3d e6 42 0b 3d a6 90 0b 3c
       0.03644531 0.05298205 0.033999346 0.008518374
0002b0 8d eb a5 3b 7d 9b 27 bc 3a 97 3f 3d ed e2 25 3d
       0.00506348 -0.010229942 0.04677508 0.040499616
0002c0 a3 e1 4e 3d fe 14 d0 3c f8 57 82 ba 13 7d d4 3c
       0.050508153 0.025400635 -0.000994443 0.025938546
0002d0 f3 8f 8b 3d 20 3b e5 bc e4 4d be 3c 4e d9 5b 3d
       0.068145655 -0.027982295 0.0232305 0.053674035
0002e0 e7 dd 3f bc 0e 52 a5 3d 5b 57 0d 3d fb f2 24 bd
       -0.0117106205 0.08072291 0.034507137 -0.040270787
0002f0 a2 e7 93 3d 49 05 a9 3d b4 61 7c bc a7 74 9d 3d
       0.07221915 0.08252961 -0.015404154 0.07688265
000300 ae b7 89 bc 87 b5 e5 bd 2b 10 b2 bc 0b 44 3f 3c
       -0.016811218 -0.11216264 -0.021736225 0.011673938
000310 ee 4a e0 bc ca ce 0f bd af 5d 14 3d 30 05 69 bd
       -0.02737948 -0.03510932 0.036222156 -0.056889713
000320 ac fe 43 3c 16 8c bb bc f8 25 f1 3c 65 95 ed 3d
       0.011962574 -0.022893947 0.02943705 0.1160076
000330 42 a3 cf bc b1 8c 59 3d a6 6d a0 3d c1 7c 7c 3a
       -0.025346402 0.05311269 0.07833414 0.0009631627
000340 ef 96 76 3d 96 54 12 3d a1 35 77 bd 1e 88 43 3d
       0.060202535 0.0357252 -0.06035388 0.047737233
000350 90 fe 2c bd 92 56 d0 3c c3 98 94 3d 58 f7 38 3c
       -0.042234957 0.025431905 0.072556995 0.01128944
000360 31 83 ab bb 92 15 cf bb 0b cd 43 3d f9 9d 2f bd
       -0.005234145 -0.00631971 0.047802966 -0.042875264
000370 dd 4c 7e ba 40 35 82 3d b8 67 07 bd 04 f2 24 bd
       -0.00097007846 0.06357813 -0.0330579 -0.040269867
000380 63 7e 94 3d 56 49 55 bd b0 00 30 bd 6c 87 d4 bd
       0.07250669 -0.05207189 -0.042969406 -0.10377392
000390 1a db 50 3d 3e ea b9 3d 05 3a 87 3c a2 4e 20 3c
       0.0509902 0.09077881 0.016507158 0.0097843725
0003a0 2b 8d 67 3d 0c 0c e4 3c 6a 5f 94 bd ee a9 9e 3d
       0.056531113 0.027837776 -0.07244761 0.07747255
0003b0 2f 43 90 3d 23 cb 97 3d 42 3a 40 3d 18 9a 9f 3d
       0.07044064 0.07411792 0.04693056 0.07793063
0003c0 38 b3 7b 3d 65 24 3f 3d e5 47 d1 3c b5 c0 45 bc
       0.061450213 0.046665568 0.025546977 -0.012069871
0003d0 47 29 c3 3d 95 64 44 bd 07 d9 69 bc c0 e4 92 3c
       0.095293574 -0.047947485 -0.014272935 0.017931342
0003e0 c2 b7 3a bd 88 60 53 bc a7 66 ad bc 9a e1 af 3d
       -0.0455854 -0.012901433 -0.021167113 0.08587952
0003f0 2c 57 72 bd 68 0b bd 3c 9e c4 9e 3d 95 1c ac ba
       -0.059165165 0.023076728 0.077523455 -0.0013131077

sequential_2/conv2d_2/Conv2D f4 [64, 3, 3, 64]
000000 cb 69 a7 bb a9 99 57 bb de 74 e2 bc c5 90 44 3d
       -0.005109047 -0.0032897985 -0.027643617 0.047989625
000010 e1 7c de 3c a3 73 a5 3c 10 fd bd bd 8b 4f bc 3c
       0.027159156 0.020196741 -0.092767835 0.022987148
000020 e5 b3 5b 3d c0 b4 0e bc 0e 9a 3c bb 18 21 78 3c
       0.053638358 -0.008710086 -0.0028778347 0.015144609
000030 9c 87 ea bc fc 2b 4f bd 78 d6 f2 bd 14 4b 41 3c
       -0.028629117 -0.050579056 -0.11857313 0.011797685
000040 24 ac a0 bb 2c fc a3 bc 98 94 8f bd ff 0f 0d be
       -0.0049033333 -0.020017706 -0.07010764 -0.13775633
000050 7f b5 1a 3d 06 f8 8d 3c ca bd 06 be 74 39 de bd
       0.037770744 0.01733018 -0.13158336 -0.10850802
000060 84 22 8e 3c 1d 53 61 3c ea 4f 9f bd c9 85 85 3d
       0.017350443 0.013752726 -0.07778914 0.06519658
000070 3c 7b 02 be 80 0d c3 bb 3c 26 5c 3d 89 2f 81 3c
       -0.12742323 -0.005952537 0.0537474 0.015769737
000080 70 2e e9 bc 9c 75 9a bd f0 ca 87 bc 70 37 53 3d
       -0.028464526 -0.075419635 -0.01657626 0.05156654
000090 25 9d 8c 3d 5b 44 ce bd 8c 21 8a 3c af 2d b1 bd
       0.068659104 -0.100716315 0.0168617 -0.086512916
0000a0 81 56 69 3c 97 31 51 3d 78 1c 32 bd 57 2f ad 3b
       0.014241816 0.051072683 -0.04348418 0.0052851844
0000b0 4a 3e 31 3d ed bb 26 3d cc dc 03 be 1b fa 8e bd
       0.043272294 0.040706564 -0.12877196 -0.069812976
0000c0 13 1c 43 3d ac bc e6 bd 05 d9 81 bd 55 00 b6 bc
       0.047634196 -0.11266455 -0.06340221 -0.022216955
0000d0 4e 1a 2b bc 32 07 88 3b d8 d6 a8 bc 8a 1e 4a bc
       -0.010443283 0.0041512484 -0.020610258 -0.012336383
0000e0 34 e1 47 bd f9 3e d3 3c 5a f0 09 bd 0d bd db bd
       -0.048798755 0.025786864 -0.033676483 -0.10729418
0000f0 7d f9 0f 3d 9c 4c 8f 3d 55 56 b6 3c 54 95 5c bd
       0.03515004 0.06997034 0.022257963 -0.053853348
000100 79 2e 11 3d 25 6e fe 3c 07 9b 35 bd f5 45 54 bd
       0.03544471 0.03105838 -0.0443373 -0.05182453
000110 6e df fe 3c 1f 28 84 bd a7 ab d0 3c 35 66 97 3d
       0.031112399 -0.06452965 0.025472475 0.07392541
000120 35 5b cf 3c 1d f7 5c bd 67 ff 7e bd cc 4f 5b 3d
       0.025312046 -0.053946603 -0.06225529 0.053542897
000130 57 e0 5a 3c 21 c4 64 bd 4b 4f db bd dc ea 1d bd
       0.013359151 -0.055851106 -0.10708483 -0.038554057
000140 77 81 31 bd c7 7f 4e bd 1f 50 ff bc 37 a0 b2 3c
       -0.043336358 -0.050414827 -0.031166134 0.021804912
000150 25 51 1b 3d dc 17 ec bc a7 29 87 bd 54 8a 88 bd
       0.037919182 -0.02881997 -0.065997414 -0.06667009
000160 6f ef a2 3c 6f 27 d8 bc 7c b6 37 bd de 5d 52 3b
       0.019889561 -0.02638599 -0.044851765 0.0032099406
000170 a8 8d 3e bc a8 5a 86 bd 41 b0 8e bd 91 b0 6d bd
       -0.011630453 -0.0656026 -0.069672115 -0.058029715
000180 5b 16 02 3d df 94 ae bd 36 ff 88 3c 4d 4a 06 bd
       0.0317596 -0.08524489 0.016723257 -0.032785702
000190 14 6a e0 bc cd cc 98 bd f6 87 c9 bc 68 c6 8d 3d
       -0.027394332 -0.07460938 -0.024600964 0.069226086
0001a0 db 30 32 bd c9 f0 92 bc d0 bd c4 3c 66 6c ff bc
       -0.043503623 -0.017937081 0.02401629 -0.031179618
0001b0 9f 76 8a bd 7e 67 db 3b a7 4e 96 bd 12 b6 a0 bd
       -0.067609064 0.006695687 -0.073392205 -0.07847227
0001c0 f1 72 8e 3c 98 6e d8 bd e1 f5 99 3c eb 61 26 bd
       0.017388793 -0.10567969 0.018794002 -0.040620726
0001d0 18 14 b7 bc 39 f2 85 bd 30 4f 45 3d b2 5c 7c bd
       -0.022348449 -0.06540341 0.048171222 -0.06161184
0001e0 76 66 d4 3c e7 00 52 3d ec b8 67 bc a4 db 19 3b
       0.025927763 0.05127039 -0.01414321 0.0023476863
0001f0 60 d6 03 3e b2 6f fd bc ba 17 74 bd 69 ea ae bd
       0.12874746 -0.03093705 -0.05959294 -0.08540804
000200 fe c0 77 bd 9b 2f a7 bd 8b 8a 1a bd f1 f8 b4 bd
       -0.060486786 -0.08163377 -0.03772978 -0.08836544
000210 13 d5 d4 bd ce e3 2f be 94 f9 60 bd 8a 85 3d 3d
       -0.10392203 -0.17176744 -0.054925516 0.04626993
000220 69 e2 af bc 32 e7 aa 3c 37 81 90 3c 3a 5b bf 3a
       -0.021470265 0.020862196 0.01763974 0.0014599331
000230 bd 01 8a 3d d4 21 05 bd 7e a9 07 bd 68 21 2f bd
       0.06738613 -0.032502964 -0.033120625 -0.042756468
000240 b8 eb 9d 3d 00 52 32 3d 62 94 f6 bd ce cb ef 3d
       0.077109754 0.043535233 -0.120400205 0.117087945
000250 65 98 e4 3d 0d 26 37 be bd 82 ca bb 04 da b6 3c
       0.111618795 -0.17885609 -0.006180136 0.022320755
000260 14 25 bb bd da 64 b3 bd e8 d1 7c bd 2d 14 3a bb
       -0.091379315 -0.0875947 -0.06172362 -0.0028393373
000270 c1 bc f4 3c a0 2e 0a be 00 0a 8d bc 9e 34 67 bd
       0.029875161 -0.13494349 -0.017216682 -0.056446664
000280 91 2d a2 bd 1a 0a 18 3d 01 3a dc bc ab cb 8e 3d
       -0.07918847 0.03711901 -0.026883127 0.0697244
000290 97 ea a4 bd a9 88 5b 3b 18 5e be 3d 24 bb 91 3d
       -0.08052557 0.0033498204 0.09295291 0.07115772
0002a0 4f ea 2b bb 37 aa c4 bb d1 d6 11 3d b7 08 ec bc
       -0.0026232188 -0.0060017365 0.035605256 -0.02881275
0002b0 c4 13 a7 3b 63 a9 4e 3c fe e9 14 3e af 73 83 bc
       0.005098792 0.012613627 0.14542386 -0.016046373
0002c0 6d 17 53 3c e0 16 86 bc d1 fb 02 bd 72 02 cc bd
       0.012884003 -0.01636833 -0.031978432 -0.09961404
0002d0 6f be b2 3b ce 2a 35 bd 3f 2e a1 bb 6d 19 cb bd
       0.0054548304 -0.044230275 -0.004918843 -0.09916959
0002e0 19 a6 cc 3d bc 02 86 3d 03 9e f2 bd c8 08 cf 3a
       0.09992618 0.0654349 -0.118465446 0.0015795464
0002f0 d2 1d 16 3e e6 33 60 be 92 b8 d4 3c 8c 85 03 be
       0.14659813 -0.21894798 0.025966916 -0.12843913
000300 84 ce 5b bd 9d 03 27 3d 12 4c 85 bc e6 5e 7b 3d
       -0.053663746 0.04077493 -0.016271625 0.0613698
000310 e0 9d 58 3d 5c a3 76 3d 26 9c 60 bd e8 cb 77 bd
       0.052884936 0.060214385 -0.054836415 -0.060497195
000320 fb e5 bc 3c 34 9c 79 bd 7d 63 a4 bd 00 92 b9 bd
       0.023058882 -0.060939983 -0.080267884 -0.090610504
000330 13 a4 d7 3a 75 f2 7f 3c b9 58 98 bd 47 42 4f 3d
       0.0016452096 0.015621771 -0.074387975 0.050600316
000340 ee e7 02 3d ab 39 56 3b e6 62 60 bd e8 00 4e be
       0.031959467 0.0032688181 -0.054781817 -0.20117533
000350 ae 61 65 3c be 20 e1 3d b9 28 77 bd 7b fd de bd
       0.014000339 0.10992573 -0.06034157 -0.10888191
000360 5a 91 2d bc 37 1b c9 3c 2a 01 72 bc 2d 08 43 bd
       -0.010593737 0.02454911 -0.014770785 -0.04761522
000370 12 88 aa bd bf af 74 ba de ca 49 bc 70 19 e5 3c
       -0.083267346 -0.00093340495 -0.012316434 0.027966231
000380 2d 90 76 bd f4 29 38 be 10 61 4a 3c ef 6c 5a bd
       -0.06019609 -0.17984754 0.012352243 -0.053326543
000390 f6 96 52 3d 85 cc 40 bd 01 28 55 3b 65 75 c0 bd
       0.0514135 -0.047070045 0.0032525065 -0.09397391
0003a0 d4 9f fe 3c 4d 42 a1 3c a2 54 27 3d d9 76 99 3c
       0.031082071 0.019684935 0.040852197 0.018733429
0003b0 6b 26 0b bd 46 af 7d bd c7 05 27 be 65 a2 7b 3d
       -0.033972185 -0.061934732 -0.16310798 0.06143417
0003c0 50 53 68 3c 0f e9 aa bd 03 4b 35 bd f9 35 0a bc
       0.0141800195 -0.08345234 -0.04426099 -0.00843572
0003d0 9a 72 38 3d 7c 08 33 3c 04 1b 70 bd 25 38 b6 3d
       0.045031168 0.010927316 -0.058619514 0.088974275
0003e0 33 9c 8b bd b5 45 ad 3b 0b 4e 60 3d c2 57 c7 bd
       -0.06816902 0.0052878507 0.054761928 -0.09733535
0003f0 b5 e2 ab bd 99 35 4f 3e d9 bd 55 3d 83 ea e6 3c
       -0.0839285 0.2023529 0.052183006 0.028187996

sequential_2/conv2d_3/Conv2D f4 [64, 3, 3, 64]
000000 6c fb 5c 3b 1a 97 f9 3c 14 a7 4d bd 8b da 1b bc
       0.0033719195 0.030467559 -0.050208166 -0.009512554
000010 37 2f 92 bd 07 4f c2 bd 61 00 2b bc bd c6 2c bd
       -0.07137912 -0.094877295 -0.010437102 -0.04218172
000020 a5 b9 22 3d 66 1d 35 bd e8 41 d8 b8 14 49 c6 bd
       0.039727826 -0.04421749 -0.000103119586 -0.09681907
000030 c0 56 c3 3a 01 49 a2 3d 2f f6 9b bd 41 16 9e bc
       0.0014903173 0.07924081 -0.07615315 -0.01929772
000040 c5 e3 22 3d 55 98 35 3d bf 18 59 3d 5e 79 e3 3c
       0.039768 0.04433473 0.053002115 0.027767833
000050 6a 27 7c bc f1 bb 6f 3c e2 1b 3d bd 24 9f f9 bc
       -0.015390256 0.014632211 -0.04616917 -0.030471392
000060 6d 89 76 3c 61 8c 0f 3d d3 34 8f 3c 84 66 56 3c
       0.015047413 0.035045985 0.017481243 0.013085965
000070 4d 3d 10 bd 9c ae 09 3d f8 21 8c bc 5a d1 8f bc
       -0.03521471 0.033613786 -0.017106041 -0.017555881
000080 8c 20 27 bd c1 0b 36 3d 78 1a 80 bc 54 c3 a8 3d
       -0.040802523 0.044444803 -0.015637621 0.08240381
000090 7e f2 44 bc 09 6b f6 3b 49 6f 83 3d d9 47 44 3c
       -0.012020705 0.007520084 0.0641771 0.01198002
0000a0 b0 c3 52 bc 9d 3b 32 bd f5 d8 5e 3b 7d d2 7f 3d
       -0.012864038 -0.043513883 0.0034003828 0.062456597
0000b0 3a b8 04 3c 5d d1 02 3d b3 d9 cc 3c 7f ce fc 3c
       0.008100564 0.031937946 0.02500615 0.030860184
0000c0 66 70 05 3e f6 43 b5 bc e4 fc e1 bc fa 7e 47 3d
       0.13031158 -0.022127133 -0.027586408 0.04870508
0000d0 c3 1f 45 bd 62 b4 05 bd 03 a4 a0 bd ed a8 c4 ba
       -0.048125993 -0.03264273 -0.07843783 -0.0015003957
0000e0 0f 7b b1 bd 8a 21 50 3b 11 f5 88 bd 60 64 a9 bb
       -0.0866605 0.0031758272 -0.06687368 -0.0051694363
0000f0 78 19 34 3c 73 4b 0c 3d 42 d0 45 3d 4d 5c 85 bd
       0.0109924 0.03425164 0.048294313 -0.065117456
000100 21 05 d9 3c 50 8f 99 bd f4 3d cb 3c a8 35 4d b8
       0.026491703 -0.07498038 0.024809815 -4.892578e-05
000110 d7 df 96 bd 3f 4b c0 3c 2c 21 40 bc 36 4d 41 3c
       -0.07366913 0.02347338 -0.011726659 0.011798194
000120 94 2f 19 3c 67 23 b4 3c 5d e8 79 3d dd cd b5 bd
       0.009349722 0.021989537 0.061012615 -0.08877156
000130 b8 d1 96 bd f0 a4 56 bb 4b c5 2c 3c e0 5c 81 3d
       -0.073642194 -0.003275212 0.010545085 0.063165426
000140 8f d7 21 bd 97 31 57 bd 70 32 84 bd 5b 67 b6 3c
       -0.039512213 -0.052537527 -0.06454933 0.02226608
000150 2f 20 13 3d 3f 8d 87 3b 5f 06 b8 3c 85 fb f3 3c
       0.035919365 0.004136711 0.022463975 0.02978302
000160 01 30 56 3d ff 9d 60 3c a7 90 77 3c 27 ad 5c bd
       0.052291874 0.013709544 0.015110171 -0.05387607
000170 a9 ab 6e 3d 09 0b 8d bc ee bf 2f bd 87 10 16 3d
       0.058269177 -0.017217176 -0.042907648 0.036636855
000180 d1 6e 54 bd 21 a1 97 bc a8 c7 ad bd 7c 8e 22 3d
       -0.051863495 -0.01850945 -0.08485347 0.039686665
000190 80 c8 ea 3c 67 aa 9d 3d 1b c9 3e 3d 2b 92 77 bd
       0.028660059 0.07698517 0.046578508 -0.06044213
0001a0 12 d7 f6 bc 01 e9 d0 bc 4c a5 70 bd e1 72 45 bd
       -0.03013185 -0.02550173 -0.05875139 -0.04820526
0001b0 43 85 ae bc 19 3c 84 bd 05 10 78 bd c1 58 50 3d
       -0.021303779 -0.06456775 -0.060562152 0.050865892
0001c0 d4 9b 8e 3d 00 2c 73 3d 4a 71 7d 3c 13 99 16 bc
       0.069633156 0.059368134 0.015468905 -0.009191769
0001d0 30 94 d6 bc 43 c3 61 3d 40 51 c4 bd 25 a5 91 3d
       -0.026193708 0.055117857 -0.0958581 0.07111577
0001e0 5a b5 9e bb 37 a4 ca bd 25 89 73 3d 9e 45 55 bd
       -0.004843396 -0.09894603 0.059456963 -0.052068345
0001f0 b8 a2 93 3c 26 dc 0c 3d 00 4e b9 3c a8 e8 be bc
       0.018021926 0.034389637 0.022620201 -0.023304299
000200 33 87 73 3d 57 54 98 bd f2 51 9c 3c 71 a5 1f bd
       0.059455108 -0.074379615 0.019082043 -0.038976137
000210 1c c3 3c bd 16 e0 04 bd 3d 2d f4 bc 0e c6 bb bd
       -0.04608451 -0.032440268 -0.029806728 -0.09168635
000220 a5 49 9c bd 57 98 59 3d 5f 4f c2 bc 9b f5 84 bd
       -0.07631234 0.0531238 -0.023719488 -0.06492158
000230 ba 50 c9 bc 8e 81 86 bc ef 92 3e 3c 64 b7 2b bc
       -0.024574626 -0.016419198 0.011631711 -0.010480735
000240 c1 e7 38 bd 01 bf 7f 3d 20 fc bb bc 2e 67 e4 3b
       -0.045142893 0.062438015 -0.022947371 0.006970308
000250 44 f9 25 bc 3c de e8 bc 07 8f f5 3c a6 d7 ba bd
       -0.01013023 -0.028426282 0.029975427 -0.09123163
000260 69 d2 66 3d c3 8d 8c bc 0a 3b d1 3c 37 2a fc 3c
       0.056353007 -0.017157441 0.025540847 0.030781848
000270 36 81 13 bd 64 a1 0b bd e9 f3 69 bd ed 9e 50 3c
       -0.036011897 -0.03408946 -0.057117376 0.012733203
000280 a3 70 6c bd af 43 3b 3d 63 6d 40 bd 5b 03 b2 bc
       -0.057724606 0.045718845 -0.04697932 -0.021730116
000290 3d ac 25 bd 74 b8 27 bd 01 fa 81 bd 3d 4f 90 3d
       -0.040447462 -0.040947393 -0.063465126 0.070463635
0002a0 5a a5 ef 3c 61 b9 7c 3c 65 51 68 3d 8d 35 8e bd
       0.02925365 0.015425057 0.05671825 -0.06943808
0002b0 f4 9e 78 bb 32 bc 02 bd c0 a1 b3 3c 88 d3 86 bd
       -0.003793654 -0.03191776 0.021927714 -0.06583315
0002c0 f3 bd 02 3e 62 7a 2d 3d 11 08 1d 3d ca 76 f9 bc
       0.12767772 0.04235304 0.03833777 -0.03045215
0002d0 7c 66 7d bd 81 49 ab bc af be a0 bd b2 5f 28 3d
       -0.061865315 -0.020909073 -0.0784887 0.041106887
0002e0 2d 31 c0 bb f1 06 fa bd 5c b5 94 bd 2e 94 c5 bc
       -0.005865237 -0.12208355 -0.07261154 -0.02411851
0002f0 a6 74 83 bd c0 8a 3b 3c 8f ff 8d 3d 02 0b 20 3c
       -0.06418733 0.011446655 0.069335096 0.0097682495
000300 5c 72 27 bd 70 ed 5d bd fe 6a 38 bd 9a 89 5d 3a
       -0.040880546 -0.054181516 -0.04502391 0.0008450985
000310 17 9e 1a 3d 2c ef c6 bd 05 12 69 bd 21 8c 3b 3b
       0.037748422 -0.09713587 -0.05690195 0.002861746
000320 9f 3b 4a 3d f7 be 95 3b cb 27 e8 3c ea be 87 bd
       0.049373265 0.004569884 0.028339287 -0.06628211
000330 50 ed 97 bd b2 2a 48 3d c0 76 f6 bc 34 de af 3b
       -0.07418311 0.048868842 -0.030085921 0.005367065
000340 d4 0a 95 3c f5 5a 3e 3d 6b c3 82 bd ec 49 58 3d
       0.01819364 0.046473462 -0.06384929 0.052804872
000350 09 84 7c bc 15 78 a0 bd 94 29 85 3b 96 4b a1 bd
       -0.015412339 -0.07835404 0.0040637944 -0.07875745
000360 83 3e 3d 3b d8 72 9f bd 8a 35 95 3d b0 90 71 3d
       0.0028876371 -0.077855766 0.072856024 0.058975875
000370 28 c3 4f bd db 8a 29 3d 69 24 4a 3c f1 65 f2 bc
       -0.050723225 0.04139219 0.012337782 -0.029589625
000380 7b 26 1d 3c 87 49 86 bd a3 57 99 bd f3 9a 02 3b
       0.009591694 -0.06556993 -0.074874185 0.0019928783
000390 25 33 41 bd 7b de 58 3d 36 49 5d 3c 0e 1b 29 bd
       -0.047167916 0.05294655 0.013506224 -0.041285567
0003a0 5b 42 a8 3c e4 1c 22 bc 3e f3 8c bd 75 79 3d 3d
       0.020539453 -0.009894583 -0.06882332 0.04625841
0003b0 81 b5 12 bd 3b 77 97 bd fd 66 ff bc 65 9c fd bc
       -0.035817627 -0.07395788 -0.031177038 -0.030958364
0003c0 09 de 39 3e 59 cc 40 bd 11 c0 84 3d 80 07 5b bd
       0.18151106 -0.04706988 0.06481946 -0.05347395
0003d0 78 bd 15 bd f3 4f 9c bd 2b 2c b9 bd c1 6e e8 bc
       -0.036557645 -0.076324366 -0.090416275 -0.028373124
0003e0 d0 e7 a4 bd bb 4d 16 be 87 d2 07 3d 74 74 25 3d
       -0.08052027 -0.1467809 0.03315976 0.04039426
0003f0 0b f6 ee 3c 73 95 a5 bd 4e f9 ac bc 56 7c c8 bb
       0.029170057 -0.08085146 -0.021114971 -0.0061183376
