app/src/main/ml/PepperDisease.tflite (tflite, 741400 bytes, 16 tensors)

sequential_2/dense/BiasAdd/ReadVariableOp f4 [64]
00000000: 4734 ecbc ef75 42bc c984 b03d 4135 38bc
00000010: 87ce 1e3d 23b4 3c3d ab52 59bb d1bd a1bc
00000020: 6d60 c23d 6593 31bc be32 adbc a587 b3bc
00000030: b346 86bc 3d57 4fbb d963 983d 97e9 393d
00000040: e25a 38bc b452 deba 2a6f 36bb 8616 05bd
00000050: 5157 0bbc c02e e9bc 6d82 663d 1f40 7b3d
00000060: e685 88bc 83cd 553d 63dd fdbb 24e9 9bbc
00000070: 74fe 9fbc d37f a5bc f2b3 f0bb b6ba a53d
00000080: 6c86 c6bc da4e dabc 10d3 07bd d5a4 23bc
00000090: 5e86 c6bb 6218 5f3d 8fc2 a3bc 206c f0bc
000000a0: 75a9 7dbc 3b01 8ebc 18b4 02bc 7021 cabc
000000b0: fbe7 f1bc 3fc4 96bc 9af2 0fbc f1e8 42bc
000000c0: 75d7 bebc 1d78 74bc 207c 623d 45e8 41bc
000000d0: 303a 4f3d 45b6 e3bb 973a edbb 5b6a 0ebd
000000e0: 2905 c73d ec6a 72bb 712b 183d 2e90 b4bc
000000f0: dbec 8a3d fe30 193d 89f5 a2bb 4a8a f3bb
-0.028833522 -0.011868938 0.08619077 -0.0112431655 0.03877118 0.04607023 -0.0033160846 -0.019743832
0.09491048 -0.010838364 -0.02114236 -0.021915266 -0.016391134 -0.0031637691 0.074409194 0.045388784
-0.011252137 -0.0016961903 -0.0027837255 -0.032492183 -0.008504705 -0.028464675 0.056276727 0.061340448
-0.01666541 0.052197944 -0.0077473386 -0.019032069 -0.019530512 -0.020202553 -0.00734567 0.08092253
-0.02423402 -0.026648927 -0.03316027 -0.0099880295 -0.0060584983 0.054466613 -0.019990234 -0.029348433
-0.015482296 -0.017334571 -0.007977508 -0.024674147 -0.029529562 -0.018404124 -0.008785868 -0.011896358
-0.023296097 -0.014921215 0.055294156 -0.0118351625 0.0505926 -0.0069492185 -0.0072396505 -0.034769397
0.09717781 -0.003699 0.037150804 -0.022041406 0.06783458 0.03740024 -0.0049731177 -0.007432257

sequential_2/dense_1/BiasAdd/ReadVariableOp f4 [2]
00000000: 882c 36bd 882c 363d
-0.044476062 0.044476062

sequential_2/conv2d/BiasAdd/ReadVariableOp f4 [32]
00000000: 0074 5abd 64ce 3dbd 43e6 f5bc 24ea 003c
00000010: 8704 a8bc 760a 80bc e72e 8bbb 8a93 7a3b
00000020: 9566 07bd b5da 4cbc 089b 43bc 0b03 7a3c
00000030: 7a37 16bd 6e0f ddbc 4c97 8eb9 1787 8ebc
00000040: 8a8e b0bc 650a 65bc 7a99 25bc b816 53bc
00000050: 195d 94bc 872a b7bc 7fbe c13b ba91 1dbd
00000060: 6f39 e6b7 8e5d e7b9 0d5a 1dbc b642 90bc
00000070: ee24 343d 5d19 213d efdc 99bb 66b5 6abb
-0.053333282 -0.046339408 -0.030017024 0.0078683235 -0.020509971 -0.015629988 -0.0042475346 0.0038234913
-0.033056814 -0.012503316 -0.011938818 0.015259515 -0.036674 -0.026984897 -0.00027197076 -0.0173984
-0.021552343 -0.013979529 -0.010107392 -0.012883835 -0.018110799 -0.022359146 0.0059126015 -0.038469054
-2.7444881e-05 -0.00044129457 -0.009603989 -0.017609935 0.04398053 0.03933083 -0.004695527 -0.0035813688

sequential_2/conv2d_5/BiasAdd/ReadVariableOp f4 [64]
00000000: a7f5 11bc 6e63 98bc 5d1b 443d e481 bb3c
00000010: 32d8 26bd 6203 babb 085b d7bc 5569 17bd
00000020: 40e2 00bd f5a0 1abb 114b 9f3d 6ab5 04bd
00000030: 029e cabc 5354 10bd 73ae 68bc ea81 b7bc
00000040: 0e09 0ebc fdb2 20bd 4a6b d3bc 0ed6 4cbc
00000050: c572 1dbd 1664 7f3d 558a 27bc f44c fdbc
00000060: 3483 04bd 3c02 653d 644a 743d 8164 26bc
00000070: 0049 b5bc b809 8cbc a4e8 2bbc b49a c9bc
00000080: 7681 a4bc 5b86 983d 3c31 963d 07a2 90bc
00000090: 068b bbbc 03cb 1bbd 864f 0dbd 7af9 86bc
000000a0: 9266 733d 25e2 9fbc 61cf b0bc 2d96 813d
000000b0: 1f5c 0ebd d34f 9fbc 688e 2ebc 0493 2cbc
000000c0: 7f50 9e3d f846 29bd 0536 983d b5bf 9a3d
000000d0: a732 a33d 0dbd bdbc abe3 6fbc 8887 a7bc
000000e0: bee9 f5bc dd41 0ebc be00 2abd c79a ecbc
000000f0: a8ec 95bc 0b32 71bc 9f82 8f3b e5fe eebb
-0.008908666 -0.0186021 0.04787766 0.022889085 -0.040733524 -0.005676673 -0.026288524 -0.036965687
-0.03146577 -0.0023594473 0.0777799 -0.032399572 -0.024733547 -0.035236668 -0.014201748 -0.022400815
-0.008669151 -0.039233197 -0.025807995 -0.0125022065 -0.03843953 0.06235131 -0.010225852 -0.030920483
-0.032351688 0.055910334 0.059641257 -0.010155798 -0.022129536 -0.017094478 -0.010492478 -0.024609901
-0.020081263 0.07447501 0.073336095 -0.017655386 -0.02289344 -0.038035404 -0.034499668 -0.016476382
0.05942399 -0.019517014 -0.021583261 0.06327472 -0.034755822 -0.019447243 -0.0106540695 -0.010533098
0.07730197 -0.041327447 0.074321784 0.075560965 0.079686455 -0.023161435 -0.014641683 -0.020450369
-0.030018684 -0.008682695 -0.041504614 -0.028882397 -0.018301323 -0.014721404 0.004379585 -0.0072935694

sequential_2/conv2d_4/BiasAdd/ReadVariableOp f4 [64]
00000000: 9b78 54bc d079 eabc bfdf 343d f288 d5bc
00000010: 0177 31bc baef 513d bb84 a2bc a0b9 d4bc
00000020: 65cb 753d 7959 4abc bb1a 81bc ddac f63c
00000030: 2064 5cbd 420f 16bc c4e3 3fbc eb9b 09bc
00000040: 891b 94bd fe58 3abc 0f14 86bc 26d4 47bc
00000050: cc03 bfbc b071 623d c474 c8bc e9e1 053d
00000060: b095 823c e46a 7cbc ed46 93bc 6733 a3bc
00000070: 3fe2 0abd 278f 2bbc ea99 a2bc 0089 b1bc
00000080: f825 a3bc 11e8 1d3d 2655 043d 6d48 343d
00000090: 7868 95bc 2e11 96bc 446c f9bc 7066 d4bb
000000a0: 2b12 2a3d 3dd5 523d 43b1 97bc edad adbc
000000b0: 030f a5bc 9936 9ebc f0b1 45bc c108 4fbd
000000c0: 748b a8bc d71a 9fbc 5c19 98bc e6e4 d3bb
000000d0: f2f9 81bc cb13 81bc 2e43 4ebc 9c3d 8ebc
000000e0: b6c8 a1bc 026f cebc 956e f13c 9969 eabc
000000f0: 25f1 80bc 2e2c fcbb 0522 a4bc d600 563c
-0.012968208 -0.028622538 0.044158693 -0.026066277 -0.010831595 0.05125401 -0.019838681 -0.02596742
0.060008425 -0.0123504335 -0.015759816 0.030111725 -0.053806424 -0.009158911 -0.011712018 -0.00839899
-0.072318144 -0.011373756 -0.016366987 -0.012196576 -0.02331724 0.055284202 -0.02446974 0.032686148
0.015940517 -0.015406344 -0.017978156 -0.019921971 -0.03390717 -0.010471142 -0.019848783 -0.021671772
-0.019915566 0.038551394 0.032307766 0.044014383 -0.018238291 -0.018318739 -0.030447133 -0.006481938
0.041521233 0.05147289 -0.018517142 -0.021201098 -0.02014876 -0.019313144 -0.012066349 -0.050545458
-0.020574309 -0.019421978 -0.01856678 -0.006466496 -0.015866254 -0.015756508 -0.012589259 -0.017363362
-0.019749027 -0.025199417 0.029471675 -0.028614806 -0.015739987 -0.0076956963 -0.020035753 0.013061723

sequential_2/conv2d_3/BiasAdd/ReadVariableOp f4 [64]
00000000: d849 05ba e07b 02bc e5ba fdbb 7fe2 85bc
00000010: 906b f8bb 9c8a 24bc 890d 1dbd a93f acbc
00000020: 8e84 90bb e7a8 94bb 7374 1bbc 9a75 7ebc
00000030: 892b 92bb a30c 07bd 3a8c 9dbc 0160 36bc
00000040: aad8 1cbc a087 a9bc 02ba c0bb 7595 37bc
00000050: f238 7abc ae6c 77bb cff4 8fbc 1fc4 24bb
00000060: 3279 0ebc 9674 1cbc 4cf7 2ebc 0d3c c7bc
00000070: 8ac0 dcbb e216 44bc 4477 13bd a720 d13c
00000080: 2d11 9b3a 7ec0 02bc 8090 07bc 2078 28bc
00000090: 65c1 6dbb f563 50bc 3ba5 4fbb 755f c9bc
000000a0: a8b3 9abc 01ef 9cbc ced8 73bc 2a5d 5abc
000000b0: c37e 19bc db74 67bc 9440 c739 6089 633c
000000c0: 8817 92bb ff4b cdbb 3259 c7bb 54c8 933a
000000d0: 71b8 f5bb 28cf a8bb 3424 8abb 2bff 49bc
000000e0: bd2e 9e3c a206 90bc d8dc 64bc 0d9f 51bc
000000f0: 9ad7 93bb 83ee f3bc 4aca abbc 647a 49bc
-0.0005084551 -0.007964104 -0.007743227 -0.016343353 -0.007581182 -0.010042813 -0.038342986 -0.02102645
-0.004410333 -0.0045367363 -0.009488213 -0.015530968 -0.004460756 -0.032971036 -0.019231904 -0.011131288
-0.009573141 -0.020694554 -0.005881549 -0.011205067 -0.015272366 -0.0037753987 -0.017572789 -0.0025141311
-0.008695887 -0.009549281 -0.010679077 -0.024320627 -0.0067368196 -0.011968346 -0.036002412 0.025528265
0.001183068 -0.007980464 -0.008274198 -0.010282546 -0.0036278602 -0.012719144 -0.0031684178 -0.02458165
-0.018884495 -0.019156935 -0.014883233 -0.013327876 -0.009368601 -0.014126982 0.00038004352 0.013887733
-0.0044583715 -0.006265163 -0.006083631 0.0011274912 -0.007498794 -0.005151648 -0.0042157415 -0.012328903
0.019309396 -0.017581288 -0.013968669 -0.012794268 -0.0045117857 -0.029776817 -0.020970482 -0.012297247

sequential_2/conv2d_2/BiasAdd/ReadVariableOp f4 [64]
00000000: 1b7b b1bc 1662 00bd 90b2 38bd 04d7 b2bc
00000010: fd6e b3bc 5524 83bc fa6f 9c3b 91cf b93b
00000020: 06b9 1bbb 350c 363b 830a bdbc 4ce6 b03b
00000030: 138c e3bb db35 c9bb f3ab 8ebc 7cf7 e2bb
00000040: 73f2 10bd a719 32bb 1f8a 13bd 37f1 1cbd
00000050: c6b9 09bd 2579 e13b 3378 c5bc a9c9 39bc
00000060: 5199 0ebd 04eb adbc af74 3ebc 10c6 fcbc
00000070: fb33 14bd 284e 283b 8503 5ebb 13ec a5bb
00000080: 01bf 273c 193f 11b9 3e61 03bd 5d22 86bb
00000090: 834a 203c 79f1 833b e425 3ebd 7e9d b7bc
000000a0: 7584 10bc 6bef 623c 8bcf bbbc cd3a d6bc
000000b0: aba1 94bc 22fb 8b3b cf33 acbc 133c 673b
000000c0: f1fd ccbc f12d 68ba d5db ce3b 5d0c e9bb
000000d0: ed59 cbbc c92d 15bd f94b ffbc e137 bdbb
000000e0: e77b 6dbc cccc 8b3c 7192 fcbc 602d f4bc
000000f0: 34de cd3b 489f 5dbc 9209 e2bc 129a aabc
-0.021665147 -0.031343542 -0.045092165 -0.021831043 -0.02190351 -0.016008535 0.004774091 0.005670496
-0.0023761406 0.0027778272 -0.023076301 0.0053985473 -0.0069441884 -0.0061404533 -0.017415976 -0.006926475
-0.035387468 -0.0027175935 -0.036020394 -0.038315978 -0.033624433 0.0068808966 -0.024105167 -0.011339583
-0.034814183 -0.021230228 -0.011624499 -0.030856162 -0.036182385 0.002568135 -0.003387661 -0.0050635426
0.01023841 -0.00013851783 -0.03207516 -0.004093452 0.00978339 0.0040265885 -0.046422854 -0.022413965
-0.008820643 0.013851027 -0.022926113 -0.026151085 -0.018143496 0.0042718807 -0.021020798 0.003528361
-0.025023432 -0.00088569435 0.006312827 -0.0071120695 -0.024823153 -0.036420617 -0.031164156 -0.0057744836
-0.014494873 0.017065428 -0.030831547 -0.029806793 0.006282592 -0.013526745 -0.027592454 -0.02082542

sequential_2/conv2d_1/BiasAdd/ReadVariableOp f4 [64]
00000000: eb44 46bc 0205 c1b9 0ea2 b23c aed6 fe3a
00000010: 82f8 80bc 149b f83b b42b 733c 2566 813b
00000020: 9bf2 38bd af27 d7bb 5bc7 043b 7310 6fbc
00000030: a492 10bd cdc3 92bc e26c 3dbc b1c8 f9bc
00000040: 5f85 09bd 8545 4bbc aa1d e4bc c2f9 b3bc
00000050: 0af3 20bc a798 adbb 8878 b9bc 8614 6cbc
00000060: 1c7e cfbc b208 873b 9a6a b9bc 392f e3bb
00000070: f744 76bc 89e2 15bd bf3c e0bc 67f5 8b3b
00000080: 45f4 94bc 5372 d73b 64ca a4bc 1b77 c1bc
00000090: 56b4 b93b 3502 9abc 6247 323c 6291 2d3b
000000a0: 360f 7cbc 9120 b6bc 5036 eebc 7254 2cbc
000000b0: 2513 b8bc 0a33 35bd 887d b53b b4ca f83c
000000c0: 33b3 2dbc 8a6f 1f3d a436 bcba 887f 47bc
000000d0: b830 8e3b adc4 1b3d decb 15bc 5543 30bd
000000e0: 1c09 c8bc a6cb 84bc d9c7 82bc 7f6e a0bc
000000f0: 73a0 e7bc 3c34 17ba 9155 d8bc 935c 59bc
-0.012101392 -0.0003681556 0.02180579 0.0019442642 -0.015743498 0.007586846 0.014841963 0.003948944
-0.04515324 -0.00656601 0.0020260427 -0.014591324 -0.035296097 -0.01791563 -0.011561604 -0.030491205
-0.03357446 -0.0124067115 -0.027846176 -0.02196968 -0.00982357 -0.0052977386 -0.022640482 -0.01440919
-0.025328688 0.0041209096 -0.02263384 -0.0069331196 -0.015031091 -0.036592994 -0.027372716 0.0042711976
-0.018182883 0.006574908 -0.020116039 -0.023616364 0.0056672497 -0.01879988 0.010881277 0.002648436
-0.015384486 -0.022232326 -0.029078633 -0.01051818 -0.022470066 -0.044238128 0.005538646 0.030370094
-0.010601806 0.03892473 -0.0014359546 -0.012176402 0.004339304 0.03802936 -0.009142844 -0.043032963
-0.024418406 -0.016210388 -0.015964435 -0.019583939 -0.02827475 -0.00057679764 -0.026407989 -0.0132667

sequential_2/dense/MatMul f4 [64, 256]
00000000: ddb0 153c 7473 a5bd 7d85 fbbd 02e1 403d
00000010: 5077 0abe f4c7 71bd 278f fbbc 1832 45bd
00000020: cd45 963d 1167 efbc 19a9 16be c12a b8bd
00000030: 6230 413d a4d9 26bd 0c10 48bd f4a5 26bd
00000040: f77e 07be 9b7b b9bd 8d82 223c e14d f03d
00000050: d41e 843c a22a fbbc 137f 103e 84e3 b23d
00000060: 46dd a13c 904e 003e 9342 4d3d 94e6 59bd
00000070: acae 51bd 37f3 c33c 11db df3d 7ad7 d3bd
00000080: 2743 403b 4307 40bd c7b9 033e e386 eabd
00000090: 1a6b 7fbd 5e92 ff3c 47ad 593d 32b8 85bd
000000a0: 144e 013e 9655 fbbd dee4 42bc b1b8 c53d
000000b0: 0948 d5bd edad 903d 2302 d0bd 805d b53b
000000c0: f725 e0bc 5a61 17ba d4d3 523c 26d0 99bd
000000d0: 0c6a 60bd fcfd 22be 380e 8c3c eaa7 adbd
000000e0: 62f6 efbd 3888 65bc 394b 74bd a36a 0f3d
000000f0: b036 293e 6b02 87bc 6a37 cb3d 3e19 883d
00000100: 73fb 573d f4df 90bd 0213 763b 3ac1 953d
00000110: a235 843d e85b 193e ce06 ee3d 3c37 e33d
00000120: 3c06 2abb 9636 ea3d 7df9 c33d e4ef 8c3d
00000130: a8af 19bd acf2 ba3d af68 4ebd 92ac 9abd
00000140: 6e15 ab3d 1bd6 edbd 6c10 77bd 28e0 0d3e
00000150: d5fc 0b3e 3207 ae3d 1dd9 a33c 15a7 1cbc
00000160: c714 e5bd 67a0 d6bc c065 adbd eb58 263d
00000170: 3d68 053d 7526 0f3e 52f0 673d 7a2a cb3c
00000180: 6960 58bd 7dd9 83bd 8fe2 08bd 3960 06be
00000190: cc44 ee3d 5a03 d1bd 9452 a73d 7534 743c
000001a0: 8ec6 c4bd 2529 5d3d f9d0 4fbd 2b12 d43d
000001b0: e17d 103e 66bc 87bd c3e5 d0bd 5da3 913c
000001c0: eec0 bc3c b7d8 cbbd d2bc d5bd c23f c93d
000001d0: 4278 133d c90a 193e a83d e63d 9aca dd3d
000001e0: 6751 17be c71b ef3c f8f5 a53b a13c 7f3d
000001f0: 4028 013e df6e ab3d 5a90 f6bd 9838 e9b8
00000200: ad8f 043e ae48 ff3c c64c ed3c 1964 9c3d
00000210: 55ca a53d ba19 06bd 10ed d2bd 3d61 84bd
00000220: cde3 81bd 6eaf dd3d 5a43 e53d bcc3 87bd
00000230: 4fff 083d dd09 70bd b78a 2e3e 95b9 76bc
00000240: 6402 433d 20e5 373d c33d 5bbd 83be dabd
00000250: 961e 1a3d 9486 be3c f297 723d b734 97bc
00000260: 8694 db3d 0399 07be 4728 70bd a241 603d
00000270: a101 f53d e6ef 883d bb95 a8bc 791f c43d
00000280: bfe9 063e 2667 2bbc 9998 a43d 8e84 01be
00000290: c060 163d b568 ce3b 037e 1c3a 6872 c33d
000002a0: df26 14bc fcf6 8ebd 077d 96bd 3cf1 e6bd
000002b0: 4191 97bc c8c4 eebd b4ec 773d 172b b83d
000002c0: 3fd5 923d 9a62 103e 8aae cabd 6eb7 223d
000002d0: 4127 3b3c dee5 e1bc 575d 0e3b f539 063e
000002e0: bc7c 3b3c c0db d8bd e640 74bd a153 7b3c
000002f0: e23b 913b c5f8 273e 5c3e b6bd fb14 00be
00000300: 56ed c53d 1f36 a93c 4ad7 403d 8921 48bd
00000310: ea03 49bd e3f5 6f3d 1f6d 04be 3d5b fb3d
00000320: 42ec e93b c29a 62bc ed35 df3d 8ba9 363d
00000330: af17 1ebd 20c3 0a3e e758 303e b9e4 7c3d
00000340: d925 d6bd aa3c 01bb 1e40 c1bc 23e8 d43a
00000350: 3c6d d93d 1796 e9bd 390f d53c c132 333d
00000360: 1bf1 e23c c3a7 46bd 2c94 0b3e 7b6e ee3c
00000370: 5bc1 04bd 22cc 1a3d 90f5 cabd e672 c83d
00000380: 7cf4 15bd 0fbd cb3c f1a0 26bd ef67 a9bd
00000390: 4317 01be 1e02 c7bc 6b6c 26bd 042f d53d
000003a0: c354 53bd a9a7 80bd d84f 98bd fc33 993d
000003b0: 3014 5b3d 0a2d a93d 0966 863d 437d 6b3d
000003c0: 037b a1bc 1bd9 063e 905c 9dbc 88db 7ebd
000003d0: 84d8 d33d 9024 173e 6a6f 083d 5204 1b3e
000003e0: 6760 ff3d 95b1 5f3d bf9d 933d 1b77 c4bd
000003f0: 4a15 35bd 71b8 8b3d f231 9ebd 1726 fbbd
0.009136406 -0.080786616 -0.1228132 0.047089584 -0.13522077 -0.05902858 -0.030707909 -0.048143476
0.07337532 -0.02922395 -0.14712943 -0.0899253 0.047165282 -0.040734902 -0.04884343 -0.04068561
-0.13232027 -0.09056779 0.009918821 0.11733604 0.016127981 -0.030659977 0.14110975 0.087348014
0.019758832 0.12529969 0.05011232 -0.053198412 -0.05119197 0.023919685 0.109304555 -0.10343833
0.00293369 -0.046881925 0.12863837 -0.11451509 -0.062358 0.031197723 0.053143766 -0.06529273
0.1262744 -0.122721836 -0.0118953865 0.09654368 -0.1041413 0.07064424 -0.101566575 0.0055348277
-0.027361853 -0.00057746994 0.012867887 -0.07510404 -0.054788634 -0.159172 0.017096624 -0.08479293
-0.11716916 -0.014009528 -0.05964205 0.035013806 0.16524768 -0.016480645 0.09922679 0.066454396
0.052730035 -0.07073966 0.003754795 0.07312246 0.06455542 0.14976466 0.11622392 0.110945195
-0.0025943657 0.11436193 0.095690705 0.06881693 -0.037521034 0.09128317 -0.050392803 -0.075524464
0.08353697 -0.11613103 -0.060318395 0.1385504 0.13670667 0.08497466 0.020000989 -0.00956132
-0.111856036 -0.026199533 -0.08466673 0.040612143 0.032570112 0.13979514 0.05662567 0.024800528
-0.05282632 -0.06437967 -0.033419188 -0.13122644 0.11634216 -0.102057174 0.081700474 0.014905085
-0.09608184 0.053994317 -0.0507364 0.10355028 0.14110519 -0.06627731 -0.102000736 0.017778093
0.023041215 -0.099534445 -0.10436405 0.09826614 0.03600336 0.1494552 0.11242229 0.10829659
-0.14777146 0.02918805 0.005064722 0.06231368 0.1261301 0.08370756 -0.120392516 -0.00011120847
0.12945433 0.031162586 0.028967272 0.076362796 0.080952324 -0.03273938 -0.10299122 -0.06463859
-0.06342278 0.10824476 0.11194487 -0.0662913 0.033446606 -0.058603156 0.17045103 -0.015058895
0.0476097 0.044896245 -0.053525697 -0.106808685 0.037626825 0.023257531 0.059226938 -0.018457754
0.10721688 -0.13241963 -0.05863216 0.054750092 0.11963201 0.06686382 -0.02057921 0.095763154
0.13175105 -0.010461604 0.08036918 -0.12648222 0.03671336 0.006299103 0.0005969705 0.09543306
-0.009042471 -0.06980702 -0.07348066 -0.112764806 -0.01850188 -0.11658627 0.060528472 0.08992594
0.0716958 0.14100114 -0.09896572 0.039725713 0.011422933 -0.02757543 0.0021723115 0.13108046
0.011443313 -0.10588789 -0.059632204 0.015339763 0.0044321874 0.16403492 -0.08898613 -0.12508003
0.09664409 0.02065569 0.047080316 -0.048860107 -0.049076 0.058584105 -0.12932251 0.12273262
0.00713876 -0.013830842 0.108989574 0.044595283 -0.038596805 0.13550997 0.17221414 0.061741564
-0.104564376 -0.0019719996 -0.023590144 0.0016243499 0.10616538 -0.114055805 0.026008235 0.043749575
0.027702859 -0.048499834 0.13630742 0.029105416 -0.03241096 0.037792332 -0.099101186 0.0978754
-0.03661011 0.024870424 -0.04068083 -0.08271777 -0.1260653 -0.024293002 -0.04063074 0.10409358
-0.051594507 -0.06281979 -0.07437104 0.07480618 0.05348605 0.08260544 0.065624304 0.057492506
-0.019711977 0.13168757 -0.019209176 -0.06222108 0.103440315 0.14760041 0.033309378 0.15138367
0.12469559 0.054612715 0.07207822 -0.0959303 -0.044209756 0.06822289 -0.0772437 -0.122631244

sequential_2/dense_1/MatMul f4 [2, 64]
00000000: 29bf 153d a7be 25be 2e93 a7be 8fa3 883e
00000010: f421 1b3e 53dc 4b3d 5432 76bd fa73 10be
00000020: 7d15 613d 1ae8 ce3d 04a7 51be bbfb 1a3e
00000030: a2a2 953e a9ba 86be 4a70 9fbe 065c 8a3c
00000040: 5e37 473d fdbc 43be 359a 033e 3ab1 103e
00000050: d018 843e c3c4 803e e096 a2be 6584 4cbc
00000060: 3f61 a8bd 38d9 6dbe 89dd 0dbe f156 3a3d
00000070: 8d19 22be a19c 43bd 3cdf 7cbe c4c7 5bbe
00000080: a2e8 173e 9b12 ed3b 8405 70bd dfcc 113e
00000090: a2f0 28be b502 73be 7c6b a43e e99f 8c3e
000000a0: e609 9ebd 1bce 313e 0051 e6bd 52b4 b13c
000000b0: 8419 8dbd a054 6f3d 7f4b f1bd 6003 0ebe
000000c0: 94cf 713e a213 90bc 7be8 47be fc51 f43c
000000d0: 2055 a8be a5b8 8dbe 27c9 4ebe c2ac 92bd
000000e0: 94ea 323d 06a3 4fbe aa57 e5bd 1d92 503e
000000f0: ee77 8dbe 2cf2 91be c168 7bbd 4c82 813d
00000100: 443c 01bc 8530 62be b4f4 d43c 4e21 74be
00000110: 0b6e 5d3e 86aa 6b3e 4fc2 2b3e b9c2 69be
00000120: b26a 883e 050a abbd 99a5 76be b36d 46be
00000130: 8f8b 483e 1be4 07be 2950 ba3e d471 a33e
00000140: fe09 25be b92a 40bd 5956 13be c9d9 83be
00000150: 9d6b c6bd 58df e2bc fd25 033d 8b18 8a3e
00000160: 632a 1dbe e38e 973e 763c e1bc 6f83 5dbd
00000170: 6796 24be fdb5 2ebe 70c5 5d3e f635 133e
00000180: 5939 59be 82e7 78be 55df 6bbd 17c6 fe3d
00000190: 7bd2 3e3e 4f52 b9bc 7ba2 493e 1a44 ebbd
000001a0: c941 c2bd 595f ff3c 1e1c eb3d 3acf 1cbe
000001b0: fe3f 65be a839 5cbe d2ae 093e bfea 3d3e
000001c0: 4395 0dbe d8bd 02bd 34c0 a03e 913a 2d3e
000001d0: 9564 a13e 6838 8dbe ec0e 33be a1b7 0fbe
000001e0: 8e3e b73e e8db 553e 7b25 023e 2217 e9bd
000001f0: a6b0 643e 7d0f 5d3e bebe 27be 3a64 5c3e
0.036559258 -0.1618601 -0.32729477 0.26687285 0.15149671 0.049770664 -0.06010659 -0.14106742
0.054952133 0.101028636 -0.20473868 0.1513509 0.2922564 -0.26314285 -0.31140357 0.016889583
0.048636787 -0.19115062 0.12851794 0.14130107 0.2580018 0.25150117 -0.31755733 -0.012482737
-0.08221673 -0.23227394 -0.1385404 0.04549307 -0.1583006 -0.047756795 -0.24694532 -0.21462923
0.14834836 0.007234884 -0.05859901 0.14238308 -0.16498044 -0.23731501 0.32113254 0.27465752
-0.07716732 0.17363779 -0.11245918 0.021692429 -0.06889632 0.058430314 -0.11781978 -0.13868475
0.23614341 -0.017587487 -0.19522278 0.02982425 -0.32877445 -0.27679935 -0.20193921 -0.07161857
0.043680742 -0.20277032 -0.11198361 0.20368238 -0.27630562 -0.28505075 -0.061379198 0.0632368
-0.007887904 -0.22088821 0.02599559 -0.2384083 0.2162401 0.23014268 0.16773342 -0.22828187
0.26643902 -0.083515204 -0.24086608 -0.19377784 0.19584487 -0.13270609 0.36389282 0.3192278
-0.16117093 -0.046915743 -0.14388408 -0.25752094 -0.09688494 -0.02769439 0.03201865 0.2697185
-0.153482 0.296012 -0.02749465 -0.054080423 -0.16072999 -0.1706161 0.21657348 0.14376053
-0.21213283 -0.24307063 -0.057586033 0.124401264 0.1863498 -0.022622256 0.19690888 -0.11487599
-0.09485204 0.031173395 0.11479972 -0.15313426 -0.22387692 -0.21506369 0.13445595 0.1854658
-0.1382647 -0.03191933 0.3139664 0.16916873 0.3152205 -0.27582097 -0.17486161 -0.14034893
0.35789913 0.20884669 0.1270961 -0.11381365 0.22333011 0.2158794 -0.16381356 0.21522608

sequential_2/conv2d_1/Conv2D f4 [64, 3, 3, 32]
00000000: f1bf 62bd 08a6 5fbc 6f48 51bd 3e7e 8dbd
00000010: b2f9 6a3d 3af1 5c3d 47e3 01bd 33c2 003d
00000020: 3f99 65bd 0904 30bd 5309 96bc 4630 4fbd
00000030: 08c2 08bd c256 463d 2a27 d2bb 00c4 26bb
00000040: 5043 25bd 37b2 92bd 00a3 2bbd f7a9 013d
00000050: ee71 c0bd 3f8f e7bc 2c89 93bd 8691 873c
00000060: 1bb5 c7bc bfc3 ec3c 7dbc 25bd fd7f 7b3d
00000070: 0657 a9bd c434 3e3d f727 903c b5bb d53c
00000080: 6eab 673c 23c1 93bd 496a 883c 60ac c33c
00000090: 6e1c 133c f175 bbbd 1df6 133d 19ca 16bd
000000a0: fde7 563d 145f 88bc 811e 68bd d1a7 423d
000000b0: a023 d2bb 8803 273d 2bf8 373d e250 313d
000000c0: 3f73 573d d190 a7bd 5846 873d 7355 c0bc
000000d0: c839 60bd 4883 023d 495d 003d f9f2 fabc
000000e0: 650f a2bd 1a9e 943d 552d 543d 1c5d 603c
000000f0: a4ec 06bb 83bf 073d 348d 703c 0157 d93b
00000100: 94b4 1e3d 93be 22bd bcd2 02bd dc3d d53c
00000110: ac69 73bd d9c3 17bd 5409 cb3c 4aa4 27bd
00000120: 1785 b8bd 227a 8b3d 700a 97bd bfd1 bc3c
00000130: 759b 263d 8672 093d ae59 58bd d312 7ebd
00000140: 3134 03bc d46d 153c 5d68 24bd eb2e 613c
00000150: 0dce bc3b c376 febc aaf7 463d f303 2e3d
00000160: 90e4 51bd eed2 6ebc 97cd 62bd 397a 2ebd
00000170: 13bb 483c fb4a ff3b 0a15 083d cb85 9a3d
00000180: 5d95 b33c 6aa4 ad3c e104 0dbd fd96 a4bd
00000190: 86f4 3bbc 4688 8ebd f4ef d0bc 89f2 2f3d
000001a0: a874 47bb ac2e 8d3d 983c 1d3d b260 673d
000001b0: 8915 99bb 1480 803c a28b 69bd 4f53 3cbc
000001c0: db61 44bd c7a2 233d e14e 0f3d 1fa1 c0bd
000001d0: 81e5 273c 553b 35bd b42f c9bd 22a9 863d
000001e0: 7c66 043d 0764 fabc f925 cc3b be53 9e3d
000001f0: 7c87 b6bc 284c e53c fc4b afbc 8082 893d
00000200: bfe6 6dbd 6b23 0c3d 0cc0 7e3d d678 adbd
00000210: 034b 853c a98b 663d 9b04 0abd e4e2 263d
00000220: 35e9 a6bd bd3d 053d 77b1 94bd e488 7b3d
00000230: c7b1 103d 9a0b 003d f605 4e3d 6a57 bbbd
00000240: 5a21 bfbd ace5 b5bd c8cf 833d 4e89 963c
00000250: ec84 88bc 31ab 633d 2130 373d b19c 30bc
00000260: 5476 a33c 6c26 b5bd a2d8 70bd 8d12 f73c
00000270: e809 35bd 9700 7d3d 311a 953d a2d0 7ebd
00000280: 4e7e d4bc 73f1 a4bd 4c74 843d 3cc2 de3c
00000290: cb9c 253d 92fb ed3c 93c0 5bbd 726f 28bd
000002a0: 08ba 8abd 02be e9bc 7edd 1e3d 079b 2dbd
000002b0: 86e7 85bd 251d 5fbd 129c 6abd 03d9 29bd
000002c0: b0ae 79ba ed1b 643d 9301 60bc 49fa 86bd
000002d0: 8b47 93bd 1062 c0bd bdf5 7d3d c1c7 67bd
000002e0: e054 a03c a0af 01bd 259b aebd a4f0 7b3d
000002f0: b15c 35bd e871 c7bc 842d 5f3c e340 14bd
00000300: d9a0 b9bd 02bc 333b 8745 b7bd 98ff 883b
00000310: a02c b9bc 0454 c2bd 1122 1fbc 9475 683c
00000320: 71fb 70bd b8ea e9bc dd3f 0abd b0da 28bd
00000330: cea6 853d d83b 74bd d17b 91bd 83ef 113d
00000340: 9d7f 3abd 0ea3 1c3d bed2 f13c c01b 19bd
00000350: 3e73 5f3d 0afb 14bd 9839 f43c ae28 6f3d
00000360: 0737 583d 68e2 3c3d d65c 6d3d 29d2 7039
00000370: c9f5 133d 24a7 e43b ae60 b03c e337 793a
00000380: 3b51 fcbc 51b9 a2bd e647 8ebc acff 52bd
00000390: e3d3 a5bd 5ba1 28bd effb 283d d9a2 efbc
000003a0: 41c4 7d3d 9d4a 0f3d c0ba 6dbc d977 95bc
000003b0: 083a 5dbd 8da2 bcbd ea13 a3bd a87e b63c
000003c0: 74eb 7f3d 5794 a4bc 2655 b73c b5e2 f23c
000003d0: 5f6d 1c3d df7b 8d3d 1fb5 c2bd 1435 2d3d
000003e0: 6142 6a3d b727 4d3d ebdd b1bd bc33 fb3b
000003f0: 563f 1bbd 51ce 0cbd ffe4 8ebd a6b7 90bd
-0.05535883 -0.013650425 -0.05109447 -0.069088444 0.057367034 0.05394099 -0.03171089 0.031435203
-0.05605435 -0.0429726 -0.018314993 -0.050583147 -0.033388168 0.048422582 -0.00641336 -0.0025446415
-0.040347397 -0.07162898 -0.041903496 0.03165623 -0.0939673 -0.028266547 -0.07203898 0.016548883
-0.02437835 0.028901933 -0.04046296 0.061401356 -0.082685515 0.04643704 0.017597182 0.026090482
0.014139993 -0.07214572 0.016652243 0.023885906 0.008978946 -0.09153355 0.036123384 -0.03681383
0.052467335 -0.0166469 -0.056669716 0.047523323 -0.0064129382 0.040774852 0.044914406 0.043290026
0.05260014 -0.081819184 0.06605214 -0.023478245 -0.054742604 0.03186348 0.031338964 -0.030633437
-0.079130925 0.07256718 0.051801044 0.013694074 -0.0020587826 0.033141624 0.014682103 0.006632686
0.03874643 -0.039732527 -0.031939253 0.026030473 -0.05942695 -0.03705201 0.024784721 -0.040928163
-0.0900976 0.06810404 -0.07375038 0.023049233 0.0406756 0.033556484 -0.0528199 -0.06202967
-0.008008049 0.009120423 -0.04013859 0.013744096 0.005761868 -0.03106249 0.048576035 0.042484235
-0.051243365 -0.014576657 -0.055371847 -0.04259703 0.012251633 0.007790921 0.03322319 0.0754505
0.021921808 0.021196563 -0.03442848 -0.08036611 -0.011471873 -0.06959586 -0.025505044 0.04295591
-0.0030434523 0.068936676 0.038387865 0.0564887 -0.0046717566 0.015686072 -0.05701793 -0.011494472
-0.047944885 0.03995016 0.034987334 -0.094057314 0.010247589 -0.044246037 -0.09823552 0.06575228
0.0323243 -0.030565275 0.0062301126 0.07730816 -0.0222814 0.027990416 -0.021398537 0.06714344
-0.058081385 0.034213465 0.06219487 -0.08470313 0.01627112 0.056285534 -0.0336958 0.040743724
-0.081499495 0.03252958 -0.07260411 0.061409846 0.03532579 0.031261064 0.050298654 -0.09147532
-0.09332533 -0.08881697 0.064361155 0.018376019 -0.016664945 0.055583183 0.044723634 -0.010779546
0.019953884 -0.08845219 -0.058800347 0.030160213 -0.0441989 0.06176814 0.07280386 -0.062210687
-0.025939133 -0.08053865 0.06467494 0.027192228 0.040432733 0.029050622 -0.05365045 -0.041121908
-0.06773764 -0.028532986 0.03878545 -0.042384174 -0.065383 -0.054471154 -0.057277746 -0.041466724
-0.00095246267 0.055690695 -0.01367225 -0.06590707 -0.0719138 -0.09393704 0.062001932 -0.056586985
0.019571722 -0.03166163 -0.08525685 0.06150879 -0.04427785 -0.024346307 0.013621692 -0.036194693
-0.090638824 0.0027425294 -0.08948808 0.00418086 -0.022604287 -0.09488681 -0.009712712 0.014188189
-0.058833543 -0.028554305 -0.03375231 -0.04122418 0.06525956 -0.059627384 -0.07103694 0.035628807
-0.045531858 0.03824144 0.029519435 -0.03737998 0.054553263 -0.036372222 0.02981262 0.058388405
0.052786853 0.046114355 0.057949863 0.00022966474 0.03612307 0.0069779325 0.021530475 0.0009506924
-0.030800452 -0.079455025 -0.017368268 -0.05151336 -0.08097055 -0.041169506 0.041255888 -0.029252457
0.06195474 0.034983266 -0.014509857 -0.018245624 -0.05401042 -0.092106916 -0.07962783 0.022277191
0.062480405 -0.020090265 0.02237947 0.029649118 0.038190242 0.06908392 -0.09507202 0.042286947
0.05719221 0.050086703 -0.086849056 0.0076660793 -0.0379022 -0.034376446 -0.06977271 -0.07066278

sequential_2/conv2d_2/Conv2D f4 [64, 3, 3, 64]
00000000: a87e 1c3c 8afa a63c 8ddb e6bc 2d60 e2bb
00000010: fdfe 4c3d 112b 34bd efb5 1dbd 7f3c 9d3c
00000020: 2ad4 8bbd 9bff 90bc 5d38 ef3b ceca 23bd
00000030: 5928 51bd 8205 0ebd 82f4 95bd 8f1d 063d
00000040: c2c3 82bd 1ec3 833d 5541 dd3c 05cd 603c
00000050: 8936 123c c3be 5ebd 6fb7 fcbb 593b c3bc
00000060: 8f48 983b fba4 0cbd 3615 81bd a321 febc
00000070: ee76 3f3c 1b05 c03b ed7f 63bd 570c 5bbd
00000080: df40 3dbd 19ff 0fbd d16e 84bd d152 85bd
00000090: 3611 223d 3c32 f0bc d26c 8ebc 8785 3fbd
000000a0: 2556 883c bfc6 d0bc bcca 2dbd 3c23 813d
000000b0: 6095 663d 0bef 7b3d 6c3a 743d d9a9 413d
000000c0: a54e 06bd 472a 683d f781 79bc 5bd5 533d
000000d0: eebf 93bd dc29 28bc 646c 94bd eddf 9abc
000000e0: 4018 b03c 41bc 0cbb 53a3 353d 5c37 9dbd
000000f0: e5d1 9ebd d482 873d 5dba 8c3c f615 95bd
00000100: 505c 7e3d 0c0d 68bd 5a94 993d 0188 303d
00000110: ebed 88bd a094 8b3d c019 b53c ca85 4b3d
00000120: 27e6 e0bb 3748 463d 9fb4 8ebd deb4 ca3c
00000130: a9c1 33bc 9a19 bebc 664c d83c 53ce 1b3d
00000140: af66 d53b bf6c 4dbc 4c40 bd3c 831a 7e3d
00000150: 3f2c e4bc c901 52bd 17e4 0dbc aede 14bc
00000160: a83c 3a3d 4bcc 5c3c 1a7d f43b bcc6 543d
00000170: 9616 a03b 15f7 ec3c 3e00 273d fa6a cfba
00000180: 2941 d7bc 7bf1 97bd 6514 0b3d 86c4 b13c
00000190: 3e03 1e3c ec15 893c 3769 43bd ca88 1b3c
000001a0: 886d 643d db3c 353d c23f 113d ebd7 67bd
000001b0: 0418 78bd 8607 96bd 7451 87bd 72c2 1abd
000001c0: a079 11bd d887 063d 6183 88bd 8275 813d
000001d0: f87e d23c 8f54 923d 5154 3dbd 8bb4 073d
000001e0: 1bcb 73bd 3121 743d ac6d 3bbd 5b74 06bd
000001f0: 2def 36bc 6098 babc 5983 5cbd 0a9b 91bb
00000200: 9bff c2bc c937 5c3d 31c0 963c d938 003d
00000210: 926a a0bd 4368 30bd 73ca da3b 7934 2ebd
00000220: 4411 2d3d 7dbf 0cbd 632f 863b 3161 373d
00000230: 09c4 3f3d 3b22 5bbd 3c8a b43c 6443 803c
00000240: 2491 9dbd 16a0 23bd 5462 633d 247d 8d3a
00000250: c9ce 14bd 209c afbc 6d8e 37bc 14cb 143d
00000260: 3c8b d63c 32a1 fdbb a060 babd cc8f 1cbd
00000270: 9806 8ebd e305 0c3b d319 7a3c 1740 81bc
00000280: b221 52bc 5871 65bd ec79 16bc 5d84 c93c
00000290: 2dc6 83b9 a9c7 103d 9934 16bd b7bc 373c
000002a0: cd97 2f3d d2d7 0dbc 10db 4cbd 7d62 58bc
000002b0: 4bfd 303d d014 8dbd 76a7 69ba 051a 083d
000002c0: 0d8e 5dbd 01bf 59bd 41c6 86bd 85d6 bfbc
000002d0: ba38 92bd b7d4 dfbc 36f8 463d 701c a1bb
000002e0: 931e 80bd 60da 8fbb a692 e0bc a1a0 01bd
000002f0: f9fa 7f3d 9ac0 65bb 8e1d f43c e0e0 183d
00000300: ae8f 6e3c 518f 5fbd aa82 9a3b 99e4 9b3b
00000310: ae32 89bd 3460 733d 59e7 bc3c 350e 72bb
00000320: 955d 413c 6667 02bd e3ca ec3b 412b 98bd
00000330: cce9 dd3b c695 0f3d de35 92bd 6402 67ba
00000340: d9a3 7b3d 89b1 123d 591d 80bd cedf 53bd
00000350: 5864 463d 7867 6b3d 2928 7f3d d323 3c3c
00000360: 63d9 12bd 6a70 56bd 1331 9bbd d5f6 673d
00000370: e0c4 9dbd cb1a 85bd d824 6f3d 7f6a 1ebd
00000380: 866a 283d 1928 113d 56c9 883d b7e7 2fbb
00000390: 58bb 133c 0ad3 503a 7fa1 f9bc 3549 09bc
000003a0: 219d 083d 325a 40bd 5a43 16bd 0e04 a93b
000003b0: f56a 65bc e846 213d 2476 cd3b 0efa 733d
000003c0: 64af b33c 9833 22bd dca4 7bbd a76a 8fbd
000003d0: 9304 a53c f045 b83c d58d 9bbc 5af8 8ebc
000003e0: 58df dbbc 5402 f43c dfde 6ebc 9cae c93c
000003f0: c9d1 26bc 7fb0 8e3b 5380 3fbc e01d 8ebc
0.009551682 0.020383138 -0.028180862 -0.0069084377 0.050047863 -0.043986384 -0.038503584 0.019193886
-0.068275765 -0.017700007 0.00730042 -0.03998833 -0.05106387 -0.03467322 -0.07322027 0.032743033
-0.06384994 0.064337 0.027008692 0.013720755 0.008924135 -0.054381143 -0.0077122967 -0.02383201
0.0046473215 -0.034337025 -0.06302874 -0.031021899 0.01168607 0.0058599836 -0.05554192 -0.053478565
-0.046204444 -0.03515539 -0.06466449 -0.065099366 0.039567195 -0.029320829 -0.017385874 -0.0467582
0.01664264 -0.025485395 -0.04242967 0.063055485 0.0562948 0.061507266 0.059626028 0.04728112
-0.032789845 0.056680944 -0.01522874 0.051717144 -0.07214342 -0.010263886 -0.07247236 -0.018905604
0.021495938 -0.0021474513 0.04434521 -0.076765746 -0.07754878 0.0661675 0.017178709 -0.07279579
0.062099755 -0.056653067 0.07498999 0.043098453 -0.06686004 0.06815457 0.022107005 0.049688138
-0.006863374 0.048408713 -0.069680445 0.024744447 -0.010971465 -0.023205567 0.026403617 0.038038563
0.006512485 -0.012538134 0.023101948 0.062037002 -0.02785313 -0.051271234 -0.008660338 -0.009086294
0.045468003 0.013476442 0.0074612023 0.05194734 0.004885505 0.028926412 0.040771715 -0.0015824728
-0.026276188 -0.074191056 0.033954997 0.021700155 0.009644328 0.016734086 -0.047707763 0.009493062
0.05576852 0.04424749 0.035461195 -0.0566024 -0.060569778 -0.07325654 -0.06607333 -0.037783094
-0.03551638 0.032844394 -0.066656835 0.06321241 0.025695309 0.071450345 -0.04622299 0.033131164
-0.05951987 0.059601966 -0.045758888 -0.03282581 -0.011165422 -0.022777736 -0.0538362 -0.004443531
-0.023803523 0.05376414 0.01840219 0.031304214 -0.07832827 -0.04306818 0.006676966 -0.04253051
0.042252794 -0.034362305 0.0040950044 0.044770423 0.046817813 -0.05349944 0.022038572 0.015657134
-0.07693699 -0.03994759 0.055513695 0.0010794741 -0.03633002 -0.02143675 -0.011203391 0.036326483
0.026189439 -0.0077401632 -0.09100461 -0.038223073 -0.069348514 0.0021365813 0.015264946 -0.01577763
-0.012825416 -0.056016296 -0.009184342 0.024599249 -0.0002513392 0.03534666 -0.036671255 0.011214427
0.042869378 -0.008657413 -0.0500136 -0.013207075 0.04321031 -0.06888735 -0.0008913198 0.03322794
-0.05409055 -0.05316067 -0.06580783 -0.02341772 -0.07139726 -0.02732311 0.048576556 -0.00491672
-0.062558316 -0.004390046 -0.027413677 -0.03164733 0.062495206 -0.0035057426 0.029799249 0.037323833
0.014560623 -0.054580037 0.0047152834 0.0047574756 -0.066991195 0.05941792 0.023059534 -0.0036934738
0.011802097 -0.03183689 0.0072263344 -0.07430125 0.0067722555 0.035054944 -0.071391806 -0.0008812307
0.061435554 0.035813842 -0.062555976 -0.05172711 0.04843554 0.057471722 0.06229416 0.0114831505
-0.035851847 -0.0523533 -0.075777195 0.05663188 -0.077035666 -0.06499251 0.058384746 -0.03867578
0.041117214 0.03543863 0.06679027 -0.0026840994 0.009016834 0.00079660176 -0.030472515 -0.00837927
0.033352975 -0.046961017 -0.036685325 0.005157954 -0.014002551 0.039374262 0.006270187 0.059564643
0.021934219 -0.039599985 -0.06143652 -0.07002764 0.020143783 0.022494286 -0.01898853 -0.017452408
-0.026839897 0.029786266 -0.014579504 0.024619393 -0.010181853 0.004354536 -0.01168831 -0.01734823

sequential_2/conv2d_3/Conv2D f4 [64, 3, 3, 64]
00000000: f99d 683d 3076 173d 33fe 363d 4847 65bd
00000010: 5554 9d3c bbbd 193d b0be e13d ec79 e93d
00000020: 7d7b 82bd 855b e13d bd8a e63b 1164 903d
00000030: f494 d03d f856 293e e0ba 183d 58c2 e73d
00000040: aea9 bc3b 42af 44bd d3c9 5bbc f096 d63b
00000050: 67ae 01bd c851 4e3e fbe7 7ebd b6ef 9a3d
00000060: d13d adbb 1993 183c 9a70 093e 04e6 a4bb
00000070: 1c0c 743d 6361 9a3d 12f9 bd3a 518c d23d
00000080: aaf5 3e3c dee9 3d3d 8572 2d3c 5a17 f13d
00000090: a956 ff3d e833 803d c2d7 493d 57bd 16bd
000000a0: 2224 783d aa4c cc3d e379 0f3d 8ce2 23bd
000000b0: dd50 babb fc23 133e a3b6 cfbc e53e a3bd
000000c0: 8e2e d53d cfd0 033e 17aa da3d ee6c 8b3d
000000d0: a17a 5d3d 6596 a93c 1cac 6cbd d1c1 843c
000000e0: c709 383d 0208 b13c 532d 543d db3c da3c
000000f0: 51dd 6f3d 5cc6 f23b a3f4 bbbc e3cf 48bd
00000100: 5520 14bd bbd1 6cbd f60f 25bd 0195 4dbd
00000110: c3ca f93c 1c66 bd3d a5b9 4e3c 7bff ab3b
00000120: 09f8 31bd 39ce b93c cc3a a13b b486 8ebc
00000130: 7393 2f3c 1344 873c 2ea6 ae3c 00ed 083d
00000140: 6ee1 963d f3a2 d33a bbe7 82bd 68d1 a53c
00000150: ae1e 563c 3088 793d 04fa 893c b4eb 5c3d
00000160: 03fa e23c 6ad3 8bbd a09a e33d 49cb b83d
00000170: 6edb 69bc f794 903d dcba cf3c a097 8b3d
00000180: 8910 8f3d 2735 783d 629d 6fba 2254 673c
00000190: 30b8 28bb 33cf c93c b7e7 443d 555d 0cbc
000001a0: bcd1 463d 91d9 dc3d d0fa 49bd 4bf8 b1bc
000001b0: be98 fdbc e988 9dbd fd23 18bd f4ce 533d
000001c0: 0735 90bb feaa cf3c e56f b3bc 657e d4bc
000001d0: 3d9e 0ebd 6c1c 423d 6a28 0cbd 1974 ce3d
000001e0: a90d 9e3d fedc 99bd 396a dfbc 9ef8 bdbc
000001f0: 50ac 7d3b f55f 973c aba2 3fbd faeb 793c
00000200: 3a97 eabc b125 ddbd 23d3 53bb a119 1fbd
00000210: 7a51 b6bd c5a5 87bd 2af1 08be 6caa 8dbd
00000220: 20ff b73c ee30 17be c5ad 95bd 55b8 24be
00000230: 7ccc f3bd 8d55 9ebd 814b 8dbd 6fc2 3ebd
00000240: 1014 e3bc 1b3f 7cbd 4e76 3cbd d25b 80bd
00000250: 9be7 cc3c 6dcf d2bc 9516 a7bd fc8e 3ebd
00000260: d988 43bd d983 213d 937b c5bd 9478 b53d
00000270: f916 eabc 1081 8fbd b30b 3fbe 85ca f2bd
00000280: 9dfb 2bbd 3035 f3bd e254 d73c 15df 52bd
00000290: 816b 6ebd a14e 4bbd 0656 333d a02d 03ba
000002a0: f4df 6a3d e8e3 543d 7635 3cbc 62e5 ebbb
000002b0: 9018 71bd 970f 21be d40a 4c3d c42d bb3d
000002c0: f139 28bd aac2 18be fc7b 3b3c b90c 66bd
000002d0: 1b00 fabd b495 15bd 1f23 6f3c 5c74 dfbd
000002e0: 1f1d f0bc 6966 3fbe e130 95bd 21b6 753d
000002f0: c275 31bd a212 b9bc 33d6 95bd cc91 243c
00000300: 11ae 773d ae7f b63d 9b70 1bbb 6acd 73bd
00000310: 694e 84bb 288e d9bc 1dbc daba db31 0e3d
00000320: 8ad0 c9ba ce7f 643b 04ec 843d 7859 a43d
00000330: bd90 03bc e569 f8bd 3bcc febb f362 963c
00000340: 65dd 84bb 9aa2 8e3d 7297 3e3b c28b 94bc
00000350: 8f0f 9abd 1c79 0bbd 2548 e3bd a9fa 673d
00000360: f621 aa3c 6b42 aa3c dd7e f5bd 018b 5cbd
00000370: 52f9 b23c 9ebe 2b3d f41b 443d a2c2 533c
00000380: 172a b3bc 5b90 ba3c e925 cfbc 72f6 f7bc
00000390: ebd3 eebc b435 153e 775d 20bd 635a d9bc
000003a0: 3d01 ac3c b857 06be 7144 343d 55c4 0ebd
000003b0: f048 423d 33bb 1a3d a205 453d 6c6f 83bd
000003c0: df69 ac39 4796 fcbc 49bd d0bc 0dea 113d
000003d0: ad48 e73d c65e 8fbd ab36 203d d4e7 98bd
000003e0: fb34 5b3d 1309 573d db90 aa3b 6d17 65bd
000003f0: 5b1d 4d3d bb91 093c e219 7c3c 7a62 403d
0.05679128 0.036977947 0.044676017 -0.055976182 0.019205252 0.037534457 0.11022699 0.11400208
-0.0637121 0.11003784 0.007035582 0.07050336 0.101846606 0.16537082 0.037287593 0.11316365
0.005757532 -0.0480187 -0.013414818 0.006548755 -0.031660464 0.20148385 -0.062232953 0.075652525
-0.00528691 0.009312415 0.1342186 -0.005032303 0.05958186 0.07538106 0.0014493784 0.102806695
0.011655251 0.04636561 0.010586386 0.11772032 0.12467701 0.062599 0.04927803 -0.036801662
0.060581334 0.0997556 0.03502835 -0.040010974 -0.005685909 0.14369196 -0.025355643 -0.079709806
0.1040927 0.12872623 0.10676973 0.06807886 0.054072026 0.020701597 -0.057781324 0.0162057
0.0449312 0.021610264 0.051801037 0.026640346 0.058560673 0.0074089 -0.0229438 -0.04902638
-0.036163647 -0.057817202 -0.040298425 -0.05019093 0.030492192 0.092479914 0.012617503 0.0052489615
-0.043449435 0.022681342 0.004920339 -0.017398216 0.010716307 0.016511953 0.021319475 0.033429146
0.07367216 0.0016146585 -0.06391855 0.020241454 0.013068838 0.060920894 0.01684285 0.05393572
0.027707106 -0.068274334 0.11113477 0.090231486 -0.0142735075 0.07059663 0.025357656 0.068160295
0.06985576 0.060597565 -0.00091405783 0.01411918 -0.002574455 0.024634933 0.048072543 -0.008567174
0.048539862 0.10783685 -0.04931146 -0.02172484 -0.030956622 -0.07692129 -0.037143696 0.051711038
-0.0044008526 0.02535009 -0.021903941 -0.025939176 -0.034818877 0.047390386 -0.03421823 0.100807376
0.07717449 -0.07512854 -0.02727233 -0.023189839 0.0038707443 0.018478373 -0.04678599 0.015254015
-0.028636564 -0.10798205 -0.0032321892 -0.0388428 -0.08902259 -0.06623415 -0.13373247 -0.06917271
0.02246052 -0.14764759 -0.073085345 -0.16085942 -0.11904237 -0.07731161 -0.06899167 -0.046572145
-0.027719527 -0.06158362 -0.04601126 -0.06267513 0.025012782 -0.025733674 -0.08158604 -0.04652308
-0.04773793 0.03943238 -0.096427105 0.08860889 -0.028575407 -0.070070386 -0.18656807 -0.11855034
-0.041988004 -0.11875379 0.026285592 -0.05148228 -0.058207992 -0.049635533 0.04378321 -0.0005004052
0.057342485 0.05197516 -0.011487355 -0.0071989754 -0.058861315 -0.15728603 0.049815014 0.091395885
-0.041070882 -0.14918008 0.011443134 -0.056164477 -0.12207051 -0.03651972 0.014595776 -0.10910866
-0.029310761 -0.1869141 -0.072847135 0.059988145 -0.043325193 -0.022591893 -0.07316246 0.010044526
0.060468737 0.08911072 -0.002371824 -0.05952207 -0.0040376675 -0.026557043 -0.0016688142 0.034715515
-0.0015397232 0.0034866217 0.06490329 0.08024877 -0.008030114 -0.12129573 -0.007775811 0.01835773
-0.0040547126 0.069646075 0.0029081968 -0.018133048 -0.07522499 -0.034051046 -0.11097745 0.056635533
0.020768147 0.020783624 -0.11987088 -0.053843502 0.0218474 0.041929834 0.04787822 0.012924822
-0.021870656 0.022773912 -0.025286632 -0.030268881 -0.029153785 0.14571267 -0.039151635 -0.026532358
0.020996684 -0.131194 0.044010583 -0.034855206 0.04743284 0.037776183 0.048101075 -0.064177364
0.00032885277 -0.030833377 -0.025480883 0.0356236 0.11293159 -0.070004985 0.039114635 -0.07466093
0.053517323 0.05249889 0.0052052564 -0.055930544 0.050076824 0.008396561 0.01538703 0.046968915

sequential_2/conv2d_4/Conv2D f4 [64, 3, 3, 64]
00000000: 0a0f f8bc 8b64 6f3c e443 a03c beb3 8fbd
00000010: 86fd e9bc 9990 36bd c399 243c 4fdc 6c3d
00000020: 1b81 8c3d 760b 863c 5114 0f3d 93c8 d93c
00000030: b7fe f2bc df61 08bd 99fa c6bd 129f 8c3c
00000040: 363b 01bd 77da 39bc ec8b ed3c d57d e53b
00000050: dfb9 9abd 1067 aebd 6e76 86bd 04dc 9e3c
00000060: b617 2abd 2e9c 923d 38ae 31bd 487b 75bc
00000070: db5e 7d3d 7384 43bd e481 abbb c71e a33c
00000080: efd5 02bd 52aa 14bd 7c69 86bd d6ca 1c3d
00000090: af9a 273d b9ea a43c b04b 423d 76c0 57bd
000000a0: fc8b 85bd 0638 1c3a 7a9c 053d 550d 273d
000000b0: 8e01 e03c 1356 31bc b632 5f3d 3f7f 86bb
000000c0: 5856 6b3d 7e4a 2d3d 2ac2 053d 4146 3b3d
000000d0: 7c32 793d d3fd 5ebd eefc 03bd eb28 52bd
000000e0: 9680 ab3c b411 cdbc a28f 1d3d 0847 e7bb
000000f0: 0113 7a3c 85bf 57bc 4ae9 d839 ca8d e9bb
00000100: 74b4 b4bc 3a24 57bc 811c b63d a2a4 40bd
00000110: a2e3 80bd ec12 39bd 6a99 2dbd 5ac0 5bbd
00000120: ef7a 433e 016a 64bc 4abf d5bc e294 ae3d
00000130: 89eb 353d d46a ad3d 4118 813c 405d 823d
00000140: 6611 8d3d ec38 33bd 7c19 be3b 4bc5 62bd
00000150: 79e3 8fbd c292 b23d 1749 87bb a379 21bd
00000160: c77c 39bd 311a e33d 6e2f b23c 74e4 17bd
00000170: 826f 0b3e fc86 383d cc43 19bd 0224 c23c
00000180: 05a3 51bd 4709 113e 9ab9 603d ef5a 21bc
00000190: 079d 38bd 5aa1 153d 2b26 a43d a6e1 173d
000001a0: 36cf f63b 48bb db3d e55e f83c 27d5 803b
000001b0: 419f 3abd 3066 fb3c 069d d83b 3d42 38bd
000001c0: f278 3ebd b1ee 123d f100 873d f3c4 633d
000001d0: 156b 03bd 6826 13bb a98a 1f3d df07 643c
000001e0: 0759 0c3e 66ae 33bd ab5a 72bd 2449 8a3d
000001f0: e449 663c 713a ad3c 9984 91bc 38b6 91bd
00000200: ff83 993d aef9 cd3c 43ae c13d b9c8 c1bc
00000210: 9819 41bd 857a 133d 75f6 79bd ff32 493d
00000220: d202 523e 78a2 c73c ed17 ebba 7300 83bc
00000230: d746 03bd da11 39bd 3805 593d 5a91 533d
00000240: 87c7 18bd 30fd 633d 92bc 26bd bd8a 32bc
00000250: 3965 9a3d d616 b03d 3b47 393c e1c5 a73d
00000260: 00fd c2bb a45a 8e3d a85a 143c 7b43 dcbc
00000270: 75f4 1c3c 4eac 10bc 637f 8f3d bdce 6bbb
00000280: 5eb0 cbba fa13 a03d 605e 913c 1b41 093d
00000290: 8b6d 013d ae41 a53d 7b88 aebb 87ca 293a
000002a0: 45f5 47bc 7414 cbbb 31b5 85bd 9942 363d
000002b0: ca7d b83d 658b 07bc 26bf 85bc bb22 183d
000002c0: 0801 8ebc 86e5 1a3e f778 24bd 16f7 5dbd
000002d0: a223 babc d6f3 303d b515 b53d 67df 873d
000002e0: 1722 243e 7ab8 1eba b9de 533d 1720 fabc
000002f0: 8dd7 903c b7c1 063d 3e6a 81ba c18e 1f3d
00000300: d740 9bbd 4b83 a9bc dae7 46bd 91cf 94bd
00000310: 86dd f6bc 502f acbd 8d30 7bbd b394 01bc
00000320: 42e7 b53c 1c14 8d3d 0498 b4bb 7cec 1f3d
00000330: 602b a6bd e12a 84bc bcc0 a9bd 72d7 da3a
00000340: 9593 8fbd ab17 613d 54b5 1c3d 37b5 053d
00000350: ca8d b1bd 4dcf cebc db96 3c3d cac4 41bd
00000360: d682 34bd 2bae 223e 3980 d43a 48a1 1f3d
00000370: cfd6 22bc c52a 3c3d cda7 03be 088c 18bd
00000380: d965 593d 39f0 333e 564a 503d 6a57 b6bc
00000390: ad5c 19bd 0642 c1bc 26a2 373d 14ef 2d3d
000003a0: 07c8 89bd 71cf 883d f166 123d a4c1 a6bd
000003b0: 0b6e a7bc 73f8 1a3d 091b 8e3c 3572 cf3c
000003c0: e643 c13c a9e3 35bd cdaf 12bd c2cf afbd
000003d0: 4345 bbbc 4ee5 3abd 4071 15bd 9342 28bd
000003e0: 50e3 0abe 3ea3 93bd f841 123d e96b 34bc
000003f0: 3f02 fd3c 662e 53bd 86c8 85bc 94ec ee3c
-0.030280609 0.014611374 0.019563623 -0.07016705 -0.028563272 -0.044571493 0.010046425 0.05782729
0.068605624 0.016362887 0.034931485 0.026584899 -0.029662473 -0.033296462 -0.097157665 0.017165694
-0.03155061 -0.01134359 0.028997384 0.0070035257 -0.07554983 -0.08515751 -0.065655574 0.019392021
-0.04152652 0.07158695 -0.04337904 -0.014983006 0.06185804 -0.047733735 -0.00523399 0.019912137
-0.031942304 -0.036295243 -0.06563088 0.038279377 0.040919002 0.020131456 0.047435462 -0.05267378
-0.065208405 0.0005959276 0.03261993 0.0407842 0.027344491 -0.010823744 0.05449172 -0.0041045244
0.05745539 0.04230737 0.032655872 0.045721296 0.06083916 -0.054441284 -0.032223634 -0.051308554
0.020935338 -0.025032856 0.038467057 -0.007058028 0.01526332 -0.01316822 0.00041372544 -0.0071274983
-0.022058703 -0.013131196 0.088921554 -0.047032006 -0.062934175 -0.04518406 -0.042382635 -0.053650238
0.19089864 -0.013941289 -0.02609219 0.08524491 0.044414077 0.084676415 0.015758635 0.06365442
0.06888084 -0.043755457 0.005801378 -0.055363934 -0.07025809 0.08719398 -0.004128586 -0.039422642
-0.045285013 0.1108898 0.021751132 -0.037083104 0.13616756 0.045050606 -0.03741817 0.02369881
-0.05118086 0.14163695 0.054864503 -0.00984834 -0.045071628 0.03653083 0.080150925 0.03708043
0.0075320257 0.107290804 0.030318687 0.0039316597 -0.045562033 0.030688375 0.0066105155 -0.044985045
-0.04650206 0.035872165 0.065919764 0.055607747 -0.032084543 -0.0022453312 0.038950596 0.013917892
0.13705836 -0.04386749 -0.0591685 0.06752232 0.014055703 0.021146031 -0.017763423 -0.071148336
0.074958794 0.02514347 0.09457066 -0.023655282 -0.04714355 0.036005516 -0.061026055 0.0491209
0.20508888 0.024369463 -0.0017936208 -0.015991425 -0.03204998 -0.04518304 0.052983493 0.05165229
-0.03729966 0.05566138 -0.04070718 -0.010897336 0.07538838 0.085981056 0.011308487 0.08192039
-0.00595057 0.06950882 0.009054817 -0.026887646 0.0095797675 -0.008830143 0.07006719 -0.003598138
-0.0015540232 0.0781631 0.017745197 0.033509355 0.03159861 0.08069168 -0.0053263283 0.00064770173
-0.012204473 -0.0061975066 -0.065287 0.044497106 0.09008367 -0.00827298 -0.016326498 0.037142497
-0.017334476 0.15126619 -0.040154424 -0.054190718 -0.02272207 0.04320129 0.08842031 0.066344075
0.16028629 -0.0006054711 0.051726077 -0.03053288 0.017680908 0.032899585 -0.0009873582 0.0389545
-0.075807266 -0.020692488 -0.048560955 -0.07266153 -0.030134927 -0.08407462 -0.0613256 -0.007908988
0.022204999 0.06888601 -0.0055112857 0.03904389 -0.08113742 -0.016133728 -0.08288714 0.0016696288
-0.07010571 0.054954212 0.038258865 0.032643523 -0.08669622 -0.025245333 0.046042304 -0.047306813
-0.044070087 0.15886752 0.001621253 0.03897217 -0.00993891 0.045939226 -0.1285698 -0.03724292
0.053075645 0.17572106 0.050852142 -0.02225848 -0.037441898 -0.023591053 0.04483237 0.04246433
-0.06727605 0.06680191 0.035742704 -0.08142403 -0.020438215 0.037834596 0.017346876 0.025323013
0.023591947 -0.044406567 -0.035812188 -0.085845485 -0.022860175 -0.04562884 -0.036484957 -0.041079115
-0.13563275 -0.0720887 0.035707444 -0.011012056 0.03088486 -0.05155792 -0.016330969 0.029165544
