app/src/main/ml/PotatoDisease.tflite (tflite, 741660 bytes, 16 tensors)

sequential_2/dense/BiasAdd/ReadVariableOp f4 [64]
-0.004573919 -0.012071424 -0.009510343 -0.016171668 -0.00047872655 0.002718099 -0.01852817 0.05502797
0.018691968 0.0 0.035729907 0.03297794 -0.009663514 0.04847351 -0.006187464 -0.028422931
-0.009740511 -0.029918702 0.018730024 -0.01739645 -0.017077092 -0.006268442 -0.017340127 -0.014778751
-0.02392825 0.043118313 -0.036796056 -0.013704874 -0.040920306 -0.0065969434 -0.006660247 -0.019612119
0.0058543175 -0.011775357 0.039332245 0.048949122 0.010102231 0.034095794 0.030898 0.010790848
0.0 -0.04121995 -0.01153817 0.008408017 0.03649383 -0.00606582 -0.034106564 -0.01461096
-0.011633119 -0.022846185 -0.016862415 0.045716498 -0.017232232 0.04809069 -0.014716641 -0.013062624
-0.011457503 0.04985749 -0.009265079 -0.012152503 -0.014019663 -0.006305652 -0.012607141 0.0039403746
00000000: d0e0 95bb 39c7 45bc 45d1 1bbc 727a 84bc
00000010: 97fd fab9 2222 323b 64c8 97bc 0265 613d
00000020: e61f 993c 0000 0000 8659 123d e013 073d
00000030: b753 1ebc 298c 463d 36c0 cabb 35d7 e8bc
00000040: aa96 1fbc 1118 f5bc b56f 993c 0083 8ebc
00000050: 42e5 8bbc 8167 cdbb e20c 8ebc 9322 72bc
00000060: 2d05 c4bc d49c 303d 76b7 16bd 688a 60bc
00000070: 0d9c 27bd 2c2b d8bb 343e dabb 98a9 a0bc
00000080: 93d5 bf3b 6ded 40bc d91a 213d e07e 483d
00000090: d483 253c 08a8 0b3d cd1d fd3c 19cc 303c
000000a0: 0000 0000 40d6 28bd 980a 3dbc c8c1 093c
000000b0: 8e7a 153d c9c3 c6bb 53b3 0bbd cf62 6fbc
000000c0: d698 3ebc ec27 bbbc 0c23 8abc 3941 3b3d
000000d0: 9c2a 8dbc befa 443d 111e 71bc 9e04 56bc
000000e0: 40b8 3bbc 5e37 4c3d 8fcc 17bc 4b1b 47bc
000000f0: bbb2 65bc a59f cebb 2f8e 4ebc 421e 813b

sequential_2/dense_1/BiasAdd/ReadVariableOp f4 [3]
0.018336508 0.024131572 -0.046401005
00000000: 7236 963c 93af c53c fb0e 3ebd

sequential_2/conv2d/BiasAdd/ReadVariableOp f4 [32]
0.058031842 -0.09211431 0.055917498 -0.03952073 -0.028766938 0.016618518 -0.03677387 0.05326437
0.027928835 -0.061021164 -0.012892029 -0.019729987 -0.05924418 -0.050513852 -0.06587773 -0.07573542
0.057472385 -0.060334437 -0.01037436 -0.049555108 -0.012761413 -0.004359714 -0.045694496 -0.013262043
-0.0046623303 0.05802589 -0.03919796 -0.070433564 -0.025327267 -0.07234225 0.0918844 -0.047652707
00000000: ccb2 6d3d 6da6 bcbd bf09 653d 7de0 21bd
00000010: a4a8 ebbc 8f23 883c 33a0 16bd bd2b 5a3d
00000020: 03cb e43c 54f1 79bd 1739 53bc c8a0 a1bc
00000030: 06aa 72bd 9de7 4ebd e7ea 86bd 2c1b 9bbd
00000040: 2a68 6b3d 3e21 77bd 38f9 29bc 4cfa 4abd
00000050: 3f15 51bc efdb 8ebb 272a 3bbd 0a49 59bc
00000060: 76c6 98bb 8eac 6d3d 0a8e 20bd 793f 90bd
00000070: 217b cfbc 2c28 94bd e32d bc3d 7c2f 43bd

sequential_2/conv2d_5/BiasAdd/ReadVariableOp f4 [64]
0.039353773 0.042274833 -0.03671815 0.050209865 -0.011948944 -0.00670051 -0.024168855 0.0018825573
-0.01826503 -0.00748987 -0.012272703 0.02565324 0.049360897 -0.022625314 0.004263083 0.012646499
-0.0056540384 0.05609551 0.028329302 -0.0012359709 -0.020156309 0.000244002 0.03378599 -0.010337304
-0.010261645 0.041539922 -0.029629203 -0.0061921235 0.010974406 -0.013047481 -0.013674067 -0.0004549727
-0.029312667 -0.0045318743 -0.014104239 -0.018720223 -0.004695743 0.031402837 -0.019457158 -0.009793737
-0.008117653 -0.0064412015 0.0016184907 0.017687928 -0.008306756 -0.005691172 -8.815841e-07 -0.009432407
0.055959716 -0.008597709 -0.009540343 0.059575304 -0.0089062555 -0.020851128 -0.008300875 -0.034182232
-0.007178336 -0.009565031 0.012937421 0.04403981 -0.026376158 -0.018228058 0.038149398 0.029534543
00000000: 6c31 213d 6028 2d3d c565 16bd dca8 4d3d
00000010: 81c5 43bc f48f dbbb c3fd c5bc 24c0 f63a
00000020: 8ba0 95bc 956d f5bb 7313 49bc be26 d23c
00000030: a72e 4a3d b958 b9bc 55b1 8b3b 4333 4f3c
00000040: 8345 b9bb 68c4 653d da12 e83c 4d00 a2ba
00000050: d81e a5bc cada 7f39 2e63 0a3d cc5d 29bc
00000060: 7520 28bc c425 2a3d f1b8 f2bc 4ce7 cabb
00000070: ffcd 333c 1ac5 55bc 3209 60bc 6789 eeb9
00000080: 1e21 f0bc 1e80 94bb 7715 67bc 275b 99bc
00000090: bfde 99bb 43a0 003d 9e64 9fbc e975 20bc
000000a0: e8ff 04bc b710 d3bb 8923 d43a 46e6 903c
000000b0: 0f19 08bc 037d babb 00a6 6cb5 628a 1abc
000000c0: 0436 653d 68dd 0cbc 194f 1cbc 3c05 743d
000000d0: 8beb 11bc fccf aabc 6500 08bc ab02 0cbd
000000e0: 3f38 ebbb a6b6 1cbc 7af7 533c 1663 343d
000000f0: d012 d8bc 0253 95bc 8b42 1c3d 6df2 f13c

sequential_2/conv2d_4/BiasAdd/ReadVariableOp f4 [64]
0.04796587 0.02154227 0.034160767 -0.023237586 0.0012916741 -0.032685746 0.04296369 0.0054438286
-0.007592993 -0.0123301735 -0.04006934 -0.026612412 0.016855419 0.08012841 -0.04517369 0.012803671
0.031480704 0.06262351 0.032972287 -0.04309581 -0.009102986 -0.010230097 -0.01854053 -0.007006652
0.036025204 0.023369472 -0.027791535 -0.021998871 -0.009185407 0.04784305 -0.012042517 -0.009100745
0.011769497 0.019785184 -0.033247914 0.025642017 0.015798634 -0.049911078 -0.0376867 -0.009020536
0.011615861 0.048136115 -0.0052498 0.07440405 0.0011317554 0.055965032 -0.02090166 0.028198628
0.0116370255 0.015183002 0.008361113 -0.015487538 -0.00047945377 -0.003642757 0.07752604 -0.005603959
0.004756386 -0.02507727 -0.00914251 0.03230136 -0.03143708 0.070244394 0.0063580046 0.006706692
00000000: dc77 443d 6a79 b03c 29ec 0b3d c05c bebc
00000010: 644d a93a 7de1 05bd b2fa 2f3d 2562 b23b
00000020: a4ce f8bb 7f04 4abc c01f 24bd 4602 dabc
00000030: 6014 8a3c 5d1a a43d 0c08 39bd 7dc6 513c
00000040: e9f1 003d c140 803d f30d 073d 3b85 30bd
00000050: b124 15bc 239c 27bc 4fe2 97bc 0f98 e5bb
00000060: 2a8f 133d 5671 bf3c 13ab e3bc fa36 b4bc
00000070: 647e 16bc 13f7 433d fa4d 45bc 4b1b 15bc
00000080: d9d4 403c 8a14 a23c f72e 08bd 350f d23c
00000090: 236c 813c 8f6f 4cbd 5e5d 1abd dfca 13bc
000000a0: 7450 3e3c 602a 453d 8406 acbb 2761 983d
000000b0: 6957 943a 973b 653d f539 abbc cf00 e73c
000000c0: 39a9 3e3c 20c2 783c 0dfd 083c 71bf 7dbc
000000d0: 325f fbb9 52bb 6ebb f9c5 9e3d 6aa1 b7bb
000000e0: 75db 9b3b d96e cdbc 77ca 15bc 6e4e 043d
000000f0: 2bc4 00bd 4bdc 8f3d cf56 d03b cfc3 db3b

sequential_2/conv2d_3/BiasAdd/ReadVariableOp f4 [64]
0.05356279 -0.00631018 -0.01706028 0.00030799338 -0.0047696154 -0.013374031 -0.0035999145 -0.019519
-0.005975533 -0.006522744 0.023592766 -0.04231943 -0.012606343 0.01018146 0.034058075 -0.0065174834
0.046656445 -0.00915782 0.026717559 0.012814907 -0.03309002 0.053823177 0.015292842 0.013063138
-0.007712184 0.032364856 -0.0076399767 -0.014545075 -0.020718534 -0.009752549 0.024650147 -0.014186665
0.057161957 0.069040865 -0.009290309 -0.00514507 0.031605758 -0.025787525 -0.014847935 -0.0052789324
-0.0065839505 -0.018182987 0.078247376 -0.017563866 -0.014225436 0.02616833 -0.0041362923 -0.016857687
0.021868235 -0.008973881 -0.015241265 0.029169977 0.045680664 -0.00073254504 -0.0069283475 -0.00086105405
-0.008691084 -0.006746977 0.006425332 -0.040698387 0.014595202 -0.006866517 -0.020869426 -0.009641866
00000000: a864 5b3d a0c5 cebb 00c2 8bbc 2c7a a139
00000010: 6f4a 9cbb c01e 5bbc 8bec 6bbb 4fe6 9fbc
00000020: 67ce c3bb bebc d5bb 9e45 c13c 2357 2dbd
00000030: d68a 4ebc 23d0 263c 7b80 0b3d 9d90 d5bb
00000040: d41a 3f3d ae0a 16bc c8de da3c 9ef5 513c
00000050: 6789 07bd b175 5c3d d48e 7a3c c606 563c
00000060: 7db6 fcbb 0391 043d c558 fabb 774e 6ebc
00000070: eab9 a9bc 28c9 1fbc 1bef c93c 306f 68bc
00000080: a822 6a3d 4c65 8d3d 6136 18bc fa97 a8bb
00000090: 0a75 013d 5c40 d3bc c144 73bc e5fa acbb
000000a0: 2ebe d7bb 7df4 94bc 2940 a03d 19e2 8fbc
000000b0: ce11 69bc f75e d63c bc89 87bb 2219 8abc
000000c0: 0325 b33c 2f07 13bc 80b6 79bc e0f5 ee3c
000000d0: a61b 3b3d 4408 40ba 3107 e3bb 5cb8 61ba
000000e0: 0c65 0ebc bf15 ddbb 978b d23b 5ab3 26bd
000000f0: b720 6f3c 8500 e1bb 5cf6 aabc ebf8 1dbc

sequential_2/conv2d_2/BiasAdd/ReadVariableOp f4 [64]
0.00771312 -0.007129483 -0.016992206 -0.029222965 -0.019031363 -0.0042315507 0.0050873384 -0.052399274
-0.008914178 -0.0016255372 -0.0060633332 -0.008360023 -0.030629443 0.0146568185 -0.007254793 -0.008087414
-0.012816231 -0.009073323 -0.014614016 -0.0055845203 -0.02528928 -0.008861002 -0.009335739 -0.006885122
-0.023183547 -0.017709263 -0.011336861 0.021833638 0.0037359707 -0.03504864 -0.009223299 -0.008510921
-0.006743564 -0.058813747 0.032730862 -0.007873371 -0.0114660645 -0.02580599 -0.005247123 -0.007363664
-0.0027053934 0.0018165065 -0.0074691074 -0.009889147 -0.017569523 -0.031379048 -0.002156005 -0.028882746
0.016077952 -0.0017167097 0.0057649855 -0.0028911459 0.011324188 -0.0070037115 -0.0074008936 0.034925256
0.00070984935 -0.011057207 -0.02387079 -0.013504396 0.015732836 0.014052619 -0.027248291 -0.015244626
00000000: 57be fc3b 709e e9bb 3d33 8bbc 0065 efbc
00000010: a9e7 9bbc d2a8 8abb b0b3 a63b 9fa0 56bd
00000020: c60c 12bc fa0f d5ba edae c6bb 7af8 08bc
00000030: 99ea fabc 2723 703c 9db9 edbb 1381 04bc
00000040: 2bfb 51bc 46a8 14bc a06f 6fbc 5afe b6bb
00000050: 772b cfbc bc2d 11bc edf4 18bc 979c e1bb
00000060: 6ceb bdbc 0413 91bc 3ebe 39bc 75dc b23c
00000070: 30d7 743b 2a8f 0fbd 521d 17bc 6471 0bbc
00000080: 1df9 dcbb afe6 70bd cc10 063d 50ff 00bc
00000090: 29dc 3bbc 1567 d3bc 0ff0 abbb e44a f1bb
000000a0: f84c 31bb d817 ee3a 6abf f4bb 1706 22bc
000000b0: f6ed 8fbc 5187 00bd c34b 0dbb 829b ecbc
000000c0: e9b5 833c 3803 e1ba 34e8 bc3b 6179 3dbb
000000d0: 1689 393c 647f e5bb 3283 f2bb c90d 0f3d
000000e0: 2f15 3a3a 4a29 35bc ad8c c3bc 8b41 5dbc
000000f0: 26e2 803c f53c 663c cf37 dfbc 99c4 79bc

sequential_2/conv2d_1/BiasAdd/ReadVariableOp f4 [64]
-0.021767167 -0.034495875 -0.019728981 0.03792574 0.006900845 -0.010874016 -0.035037644 -0.02344055
-0.022922331 -0.026416287 -0.026525749 -0.01712713 -0.04188969 0.023967661 -0.018948989 0.00072973134
-0.02545672 -0.031437106 0.02467983 -0.024819365 -0.045771815 -0.037330482 -0.037752237 0.058822345
-0.010569074 -0.030265538 -0.044950113 -0.008631828 -0.027692845 -0.027295934 -0.034072958 -0.03262874
-0.021661004 0.054034296 -0.013927263 0.041875698 -0.027298607 0.042278282 -0.025424829 -0.0030676136
-0.02175757 -0.012585188 -0.0019253447 -0.043403722 -0.0065730386 -0.016190445 -0.047167264 -0.010542005
0.050938964 -0.05426769 -0.029191207 -0.00044677567 -0.01133581 0.031074125 0.029331097 0.033814225
-0.012806626 0.06408989 0.007298057 -0.030582977 0.058006726 -0.04330669 -0.021889023 -0.050042704
00000000: 0f51 b2bc 8c4b 0dbd ac9e a1bc 0558 1b3d
00000010: 7c20 e23b ee28 32bc a283 0fbd 6506 c0bc
00000020: 9dc7 bbbc f866 d8bc 874c d9bc 324e 8cbc
00000030: 8694 2bbd d457 c43c e93a 9bbc 714b 3f3a
00000040: 9c8a d0bc 32c4 00bd 5b2d ca3c fb51 cbbc
00000050: 3a7b 3bbd d9e7 18bd 17a2 1abd b3ef 703d
00000060: e929 2dbc 6fef f7bc 9c1d 38bd 836c 0dbc
00000070: 1bdc e2bc b99b dfbc 1690 0bbd b7a5 05bd
00000080: 6b72 b1bc 1153 5d3d 2d2f 64bc da85 2b3d
00000090: 54a1 dfbc fe2b 2d3d bb47 d0bc 040a 49bb
000000a0: ee3c b2bc 1b32 4ebc d95b fcba 1ac8 31bd
000000b0: a562 d7bb d3a1 84bc 7632 41bd 60b8 2cbc
000000c0: 60a5 503d cc47 5ebd 6622 efbc 373d eab9
000000d0: d5b9 39bc 2a8f fe3c c547 f03c c980 0a3d
000000e0: e2d2 51bc 8f41 833d 8a24 ef3b 2789 fabc
000000f0: 7698 6d3d 5b62 31bd 9c50 b3bc 94f9 4cbd

sequential_2/dense/MatMul f4 [64, 256]
0.050070282 -0.085722856 -0.052516457 -0.026017258 -0.049427573 0.078416504 0.09143224 0.031623695
0.14038138 0.12853444 -0.14854991 0.0018722599 0.07186308 0.067786664 0.02743926 0.06443307
0.04255086 -0.0022521873 -0.0831902 0.06661456 -0.12785104 0.0036335173 -0.10171292 -0.06510815
0.0144061055 0.08175075 -0.102663375 -0.01238844 0.015882473 -0.12146768 -0.055818185 -0.1108889
-0.082555786 0.021271545 -0.020591125 -0.019476881 -0.0040445398 -0.15839845 -0.10994709 0.122370206
0.04886538 -0.036212847 0.045849003 -0.031911965 -0.0023968709 -0.0027378218 0.059824813 -0.09531173
-0.01570358 -0.13964404 -0.043339785 -0.14140752 -0.030008895 -0.16235314 0.0814375 0.054347802
-0.0642459 -0.0065922253 0.044000525 0.04638341 -0.023257026 0.034532823 0.112318 0.021143932
-0.040752724 0.043544907 0.018538358 0.012302023 0.019604735 0.10311288 -0.035366416 -0.118651085
0.0033306926 0.113486744 -0.04945258 0.0743545 -0.041290507 -0.113402106 0.05258827 0.028857501
0.14124206 0.020696614 -0.07868536 0.044558752 -0.08102593 0.094242565 0.03236801 0.062861286
0.09253025 0.05722431 0.038414367 0.081664294 -0.16409728 -0.018129624 -0.13514459 -0.027418494
-0.09179119 -0.09363192 0.08733015 0.009580788 0.052751478 -0.038152482 0.05367022 -0.07633658
0.13850553 0.11372352 0.027247408 -0.015941707 0.0980675 0.050576456 0.04894662 0.11406772
0.013546724 -0.06662058 0.12764888 -0.06641635 -0.102301866 0.06438984 -0.038098402 0.08560356
-0.10785282 -0.028720863 0.047044665 -0.059655357 0.08327985 -0.041817203 0.07778684 -0.07390635
0.040553365 -0.010811552 -0.1771216 0.007815592 -0.053524684 -0.0681882 0.085441835 0.08481438
0.07850283 -0.092034996 0.0336292 0.0711035 -0.040330105 -0.04808206 -0.06550553 -0.023009563
0.05479117 -0.05208404 0.012232784 0.044780612 0.012109897 -0.08027074 -0.13229963 -0.11093028
0.03092771 -0.05744262 -0.10728284 0.077836335 -0.052301917 0.111793816 0.023867229 0.042722788
0.11551927 0.02166112 0.0012436695 -0.089380115 0.07832099 -0.051365264 0.00934826 -0.07402842
-0.11383283 -0.09890973 -0.10694844 -0.11659991 0.116402574 -0.07774463 0.0017264956 -0.13921377
-0.03239478 0.011336207 -0.077789165 -0.10918268 0.063531615 -0.07070609 0.11200556 0.036445506
-0.07657466 -0.073867224 -0.09262989 -0.119300455 0.087397404 -0.10810987 -0.04418239 -0.039238803
-0.049362022 -0.14087358 0.064849675 -0.06514766 0.09077802 0.005636072 -0.09628634 0.018425724
0.045133863 -0.09045529 0.02544021 0.082038835 -0.14909501 -0.1732826 -0.049685717 -0.08767517
0.03362408 -0.068367265 -0.11695859 0.09008123 -0.048678555 -0.11736909 0.10467694 -0.045925666
0.04776471 -0.05212006 -0.0433736 -0.12518565 -0.074951865 0.013991013 0.09989775 0.003168548
-0.09681972 0.030375253 -0.09557708 -0.054164514 -0.12766427 0.011938749 -0.024252094 0.08326937
0.024867767 -0.121510886 0.08592131 0.01562714 -0.09602124 0.010057167 0.07269342 -0.12769435
-0.03535713 -0.010298998 0.1183205 -0.1108378 -0.039191253 -0.05352565 -0.12634248 0.043994784
0.042906042 0.11826189 -0.15173733 0.11288383 -0.090348996 0.03271565 0.006750062 -0.07852097
00000000: 7f16 4d3d 778f afbd 7f1b 57bd 2522 d5bc
00000010: 9174 4abd d598 a03d d440 bb3d d987 013d
00000020: 23c0 0f3e 889e 033e 781d 18be 9e66 f53a
00000030: f32c 933d bcd3 8a3d 4dc8 e03c 7cf5 833d
00000040: d049 2e3d 6f99 13bb a05f aabd 376d 883d
00000050: 62eb 02be 4e20 6e3b dd4e d0bd 6c57 85bd
00000060: 9607 6c3c f06c a73d 2d41 d2bd e2f8 4abc
00000070: f61b 823c 0cc4 f8bd 9ca1 64bd b819 e3bd
00000080: 0213 a9bd aa41 ae3c b8ae a8bc fb8d 9fbc
00000090: 0f88 84bb 3433 22be f12b e1bd 3b9d fa3d
000000a0: 1127 483d ec53 14bd 2acc 3b3d 1fb6 02bd
000000b0: d214 1dbb 076d 33bb dd0a 753d cc32 c3bd
000000c0: cba4 80bc d9fe 0ebe 0f85 31bd 22cd 10be
000000d0: 37d5 f5bc e73f 26be b4c8 a63d cd9b 5e3d
000000e0: 5b93 83bd 9803 d8bb e539 343d 88fc 3d3d
000000f0: 8585 bebc 4a72 0d3d fb06 e63d 0a36 ad3c
00000100: 54ec 26bd 255c 323d c1dd 973c 6d8e 493c
00000110: 1c9a a03c d82c d33d 60dc 10bd 57ff f2bd
00000120: c047 5a3b bd6b e83d ca8e 4abd 2c47 983d
00000130: 3c20 29bd 5d3f e8bd cc66 573d 9166 ec3c
00000140: c2a1 103e f28b a93c ca25 a1bd 3d83 363d
00000150: ecf0 a5bd 3f02 c13d 5294 043d 6bbd 803d
00000160: 8080 bd3d 0a64 6a3d 6258 1d3d 9c3f a73d
00000170: 1e09 28be 9484 94bc 5863 0abe c09c e0bc
00000180: 05fd bbbd 18c2 bfbd 26da b23d bdf8 1c3c
00000190: ef11 583d c745 1cbd 4ed5 5b3d 5a56 9cbd
000001a0: 65d4 0d3e e0e7 e83d f535 df3c 2f98 82bc
000001b0: 9dd7 c83d 4229 4f3d 407c 483d 569c e93d
000001c0: 14f3 5d3c 5f70 88bd 63b6 023e 4c05 88bd
000001d0: a483 d1bd d2de 833d 120d 1cbd eb50 af3d
000001e0: f0e1 dcbd 0448 ebbc e8b1 403d 2d59 74bd
000001f0: a08e aa3d 8448 2bbd b54e 9f3d 365c 97bd
00000200: 491b 263d f022 31bc 5d5f 35be f80c 003c
00000210: b33c 5bbd 41a6 8bbd 21fc ae3d 29b3 ad3d
00000220: 17c6 a03d d87c bcbd c6be 093d b69e 913d
00000230: 2e31 25bd b2f1 44bd c327 86bd 8d7e bcbc
00000240: b56c 603d 1356 55bd 046c 483c e06b 373d
00000250: 9768 463c fc64 a4bd 8e79 07be 6a2f e3bd
00000260: 1c5c fd3c f448 6bbd 1bb7 dbbd a868 9f3d
00000270: 893a 56bd 28f4 e43d 3585 c33c 17fe 2e3d
00000280: 5e95 ec3d a972 b13c a002 a33a ec0c b7bd
00000290: c166 a03d 6264 52bd 7229 193c 369c 97bd
000002a0: 3021 e9bd 2f91 cabd c907 dbbd efcb eebd
000002b0: 7964 ee3d 9438 9fbd 944b e23a 0e8e 0ebe
000002c0: 64b0 04bd 80bb 393c ed4f 9fbd 2b9b dfbd
000002d0: dd1c 823d 5bce 90bd 2c63 e53d e247 153d
000002e0: 2dd3 9cbd b347 97bd bdb4 bdbd cc53 f4bd
000002f0: 69fd b23d b568 ddbd 98f8 34bd deb8 20bd
00000300: d52f 4abd 2a41 10be e8cf 843d 236c 85bd
00000310: d4e9 b93d ccae b83b c631 c5bd 8bf1 963c
00000320: 49de 383d a040 b9bd fd67 d03c fa03 a83d
00000330: 5dac 18be fe70 31be 4083 4bbd 0a8f b3bd
00000340: 67b9 093d 2304 8cbd fc87 efbd 827c b83d
00000350: 2a63 47bd 355f f0bd dd60 d63d 8d1c 3cbd
00000360: eea4 433d d87b 55bd 84a8 31bd ab30 00be
00000370: 5d80 99bd 903a 653c 3197 cc3d 6aa7 4f3b
00000380: 6b49 c6bd 86d5 f83c ebbd c3bd 9cdb 5dbd
00000390: 6cba 02be be9a 433c 54ac c6bc 2289 aa3d
000003a0: 7db7 cb3c b3da f8bd 83f7 af3d 7d04 803c
000003b0: c9a6 c4bd d1c6 243c 4ae0 943d 4fc2 02be
000003c0: a3d2 10bd 21bd 28bc 0552 f23d eefe e2bd
000003d0: 0287 20bd b63d 5bbd ec5f 01be e033 343d
000003e0: 3fbe 2f3d 4a33 f23d 0861 1bbe a32f e73d
000003f0: e508 b9bd d800 063d a02f dd3b 9acf a0bd

sequential_2/dense_1/MatMul f4 [3, 64]
0.2393875 0.12828375 0.2807067 0.037097692 0.018179266 0.059335884 0.25105307 0.19930656
0.1047299 -0.24428532 -0.0015792991 -0.29877234 -0.07045397 0.11476758 0.25286743 0.034645356
-0.22358519 -0.007898771 -0.07765722 0.06749198 0.14618933 -0.07140864 -0.033500817 0.0068555465
-0.080604486 -0.08168264 0.02246483 -0.055155884 0.052876204 0.0055603096 -0.26646015 0.06404942
0.25046524 -0.2063193 0.030331725 0.26859936 0.34360096 -0.18107812 -0.21445873 -0.26639986
0.124656945 -0.13397217 -0.20247102 -0.14257017 0.021945322 -0.011571094 -0.18914987 0.045200225
-0.084318444 -0.051052246 -0.17109439 -0.19911401 -0.27070758 -0.2277045 -0.14814344 -0.047368858
-0.13847673 0.05544998 -0.1486415 -0.12827833 -0.138279 -0.13971527 -0.2861971 -0.25730094
-0.21552677 -0.15559404 -0.0393486 0.2562353 -0.00969946 0.00252441 -0.1282539 0.24708915
-0.26953682 0.028009087 0.16747035 0.2505588 -0.087352015 0.23618796 -0.24182183 -0.07563464
0.06345249 0.09467612 0.12113478 -0.24737354 -0.058086317 -0.001814654 0.1502769 -0.2818643
-0.1124935 0.030586572 0.10396999 0.17611611 0.044564996 -0.06572992 0.0377691 0.15692301
-0.13805504 -0.052477513 0.27948084 0.26750484 -0.2736818 0.040045302 0.107763775 -0.070501275
-0.12476489 -0.040498134 -0.26716143 0.115412 0.04764566 -0.066473454 0.023031084 -0.034824654
0.17067926 -0.06181477 0.029831482 -0.2484399 0.29124796 -0.16888134 0.10314008 0.22483917
-0.08490232 0.082560666 -0.0927171 -0.09289037 -0.2500025 -0.28047347 0.14753854 0.12608641
-0.28139842 0.27729636 0.0075191227 0.25159675 0.07701966 -0.011901991 0.18649204 -0.19475989
-0.268092 0.20971304 -0.14253427 0.053710338 0.01740792 -0.29822746 0.12310011 0.14261374
0.061295293 0.1948485 -0.20552014 0.16969101 0.06197813 0.23659979 0.22554383 -0.09567698
-0.12025991 -0.21748583 0.17649738 0.21402842 0.2893137 -0.178322 0.066262946 0.27191135
-0.07840763 0.2290492 -0.15077183 0.15502 -0.044600744 -0.097504765 -0.19756943 -0.0033945788
-0.13469625 -0.010558681 0.06967619 0.2804413 -0.032293197 0.1278524 0.19119331 -0.09793638
0.20084926 0.14779387 0.27704617 -0.32620066 0.17090283 -0.19051781 0.1947798 -0.12010693
0.2558743 -0.10292669 0.14817159 0.28176236 0.08474927 0.25626993 -0.022138633 -0.06384593
00000000: ff21 753e d15c 033e cab8 8f3e c0f3 173d
00000010: afec 943c 2f0a 733d 078a 803e 0517 4c3e
00000020: a17c d63d ee25 7abe 7c00 cfba b0f8 98be
00000030: 2c4a 90bd 440b eb3d d777 813e 4ae8 0d3d
00000040: 84f3 64be d969 01bc c00a 9fbd 3c39 8a3d
00000050: a8b2 153e b13e 92bd 2738 09bd 7ea4 e03b
00000060: f713 a5bd 3a49 a7bd 2a08 b83c 23eb 61bd
00000070: b894 583d 4233 b63b 776d 88be 582c 833d
00000080: fb3c 803e 5e45 53be 3d7a f83c db85 893e
00000090: 77ec af3e 8b6c 39be 129b 5bbe 9065 88be
000000a0: 244c ff3d 0030 09be 9054 4fbe eafd 11be
000000b0: adc6 b33c b094 3dbc 81b0 41be df23 393d
000000c0: 26af acbd 291c 51bd 5e33 2fbe 8be4 4bbe
000000d0: 2f9a 8abe 5e2b 69be eab2 17be d905 42bd
000000e0: d8cc 0dbe 851f 633d 7a35 18be 655b 03be
000000f0: 0399 0dbe 8511 0fbe 6d88 92be f3bc 83be
00000100: 0db3 5cbe 0b54 1fbe ff2b 21bd 4631 833e
00000110: 7cea 1ebc 9270 253b fe54 03be f004 7d3e
00000120: bb00 8abe 5073 e53c 597d 2b3e 3e49 803e
00000130: 9de5 b2bd 42db 713e 24a0 77be 56e6 9abd
00000140: 61f3 813d 8ee5 c13d 8315 f83d 7d4f 7dbe
00000150: ebeb 6dbd afd9 edba 30e2 193e 8450 90be
00000160: fe62 e6bd b190 fa3c 38ee d43d c857 343e
00000170: c989 363d 699d 86bd c6b3 1a3d 6db0 203e
00000180: 4d5e 0dbe a9f2 56bd 1d18 8f3e 65f6 883e
00000190: 0520 8cbe 8b06 243d 41b3 dc3d f962 90bd
000001a0: bc84 ffbd 5fe1 25bd 62c9 88be 205d ec3d
000001b0: 1828 433d 3c23 88bd afab bc3c 4ca4 0ebd
000001c0: 8bc6 2e3e 7c31 7dbd 2761 f43c 0767 7ebe
000001d0: 741e 953e 3bef 2cbe 1b3b d33d 3d3c 663e
000001e0: 44e1 adbd 9115 a93d 77e2 bdbd 4e3d bebd
000001f0: 5400 80be 389a 8fbe 5814 173e cc1c 013e
00000200: 7413 90be caf9 8d3e f962 f63b 4ad1 803e
00000210: 7cbc 9d3d 9200 43bc c5f7 3e3e 236f 47be
00000220: 5b43 89be 04bf 563e 81f4 11be 5fff 5b3d
00000230: 0e9b 8e3c 45b1 98be e91b fc3d 5609 123e
00000240: c610 7b3d 5d86 473e df73 52be 7bc3 2d3e
00000250: c8dc 7d3d 3747 723e f6f4 663e 4bf2 c3bd
00000260: d44a f6bd 9bb4 5ebe bbbb 343e 442a 5b3e
00000270: ed20 943e 0b9a 36be deb4 873d f737 8b3e
00000280: 2e94 a0bd e08b 6a3e ee63 1abe 90bd 1e3e
00000290: 45af 36bd 94b0 c7bd a44f 4abe 9577 5ebb
000002a0: d0ed 09be 51fe 2cbc 64b2 8e3d 0196 8f3e
000002b0: df45 04bd bdeb 023e 2ec8 433e de92 c8bd
000002c0: 6eab 4d3e 4757 173e ffd8 8d3e c603 a7be
000002d0: 2701 2f3e 1a17 43be 5b74 473e 9ffa f5bd
000002e0: f501 833e 3acb d2bd 4bba 173e 2843 903e
000002f0: 0691 ad3d d035 833e 145c b5bc a8c1 82bd

sequential_2/conv2d_1/Conv2D f4 [64, 3, 3, 32]
-0.03087665 0.0029288873 0.03310634 -0.07611115 -0.060034998 0.045480367 -0.0405074 0.04777445
-0.07730432 0.038266458 -0.05436538 -0.022580858 -0.061982647 0.079371385 -0.015691007 0.02933528
-0.028032118 0.055804517 0.077294715 0.036014523 0.057174884 -0.035211347 -0.004876708 -0.072152525
-0.009751127 0.0044448082 -0.009378935 0.021040674 0.05538952 -0.05327212 -0.07371331 -0.0138140265
-0.052788403 -0.078289494 -0.028069748 0.043976862 0.02656015 -0.08163441 -0.08984902 0.039673097
0.05095303 0.003201645 -0.020085964 -0.058468524 0.027592147 -0.074181736 0.03032101 0.011100656
-0.027343303 -0.08818949 0.046008848 -0.05453553 -0.05054639 -0.04308816 -0.014920573 0.07936242
-0.0012400015 0.008488676 -0.071068786 0.036653608 0.041653365 -0.047577396 0.0607138 0.014537993
-0.025222905 -0.0071991803 0.0043309894 0.019843405 0.022191927 -0.09199697 -0.010174045 -0.04030556
0.01798618 0.047959607 0.032873917 0.02968664 -0.049365796 0.011474094 -0.04077315 -0.010620857
0.01369404 -0.08104142 -0.0780177 -0.051613823 -0.08312293 0.0050782785 -0.04506283 0.0055256053
-0.041535117 0.013133976 -0.012085827 -0.09855536 -0.056693584 -0.06174533 -0.0894952 -0.05346675
-0.05543978 -0.005470192 -0.010634749 0.030326223 0.0037996725 -0.028125718 0.036597986 0.026033534
0.059984043 0.020516597 0.07167919 -2.8928227e-05 -0.070356995 -0.08034767 0.073753566 -0.09288169
-0.103844695 -0.08311616 0.021194734 0.052709352 0.07283486 0.04326936 -0.049799528 0.018038543
-0.012497993 -0.024898112 -0.0068788715 0.046809547 -0.02120687 0.036652017 0.03371082 0.051953487
-0.037698917 -0.06429975 -0.03898619 0.013523717 -0.01798637 -0.03317581 -0.092383236 0.03537074
-0.05682616 -0.085459076 0.028949274 0.030839879 -0.09167143 0.03122059 -0.07694658 -0.007812819
-0.040212784 -0.05776976 0.06981685 0.05295524 0.07689681 0.04837949 -0.0043360577 -0.06084568
0.023380723 -0.067618206 0.0011111995 0.047882963 -0.051732183 0.017563166 -0.01724639 0.028470408
0.03418144 -0.00048112383 -0.07630292 -0.0032152194 -0.047311455 -0.08151684 -0.024315974 -0.048850622
0.05623728 -0.058325857 0.06577491 0.02748923 0.04344094 -0.06842658 0.019478256 -0.04117568
-0.027573146 -0.038353056 -0.0020151138 0.04225488 0.025273085 -0.07391612 0.007996118 -0.021243881
-0.024695512 0.05439796 0.0800473 -0.028584337 0.038172282 -0.04854022 -0.052261442 0.0105975615
-0.09605262 -0.07231784 0.021512236 -0.0042960355 0.052502964 -0.04432577 0.060455687 0.034803517
-0.03839929 0.017044874 0.0732762 -0.06670271 0.004045873 0.0017816013 0.012459996 -0.051251076
-0.022229895 -0.031795487 -0.04091394 -0.025256671 -0.06558663 -0.05184412 0.03720848 0.050334305
0.033759277 -0.07924387 0.0069391252 -0.07423675 -0.060953286 -0.09140645 -0.07459462 -0.04804374
-0.099238284 0.030304791 -0.07488605 -0.046304896 -0.026282404 -0.019348431 -0.09741715 -0.02426211
0.050323892 0.07602355 -0.08123782 0.0060352744 0.07491038 -0.06610346 -0.006216475 -0.07710637
0.06248009 0.05217408 0.07406963 0.06922916 0.028136175 0.048416875 0.054010183 -0.0017027506
-0.06868493 0.042286787 0.006115054 -0.020042665 -0.02590139 0.043975506 -0.08117068 -0.035644926
00000000: 07f1 fcbc 93f2 3f3b 839a 073d 2ae0 9bbd
00000010: 42e7 75bd 9f49 3a3d 16eb 25bd 24af 433d
00000020: ba51 9ebd 4abd 1c3d 3cae 5ebd 7efb b8bc
00000030: 84e1 7dbd 778d a23d 6d8a 80bc 8b50 f03c
00000040: 9da3 e5bc 4793 643d b14c 9e3d f783 133d
00000050: 3630 6a3d c639 10bd cbcc 9fbb b4c4 93bd
00000060: 31c3 1fbc c1a5 913b 1baa 19bc 7e5d ac3c
00000070: 1fe0 623d de33 5abd 01f7 96bd 3a54 62bc
00000080: a738 58bd 3e56 a0bd 87f2 e5bc 1521 343d
00000090: ac94 d93c f12f a7bd c302 b8bd 4280 223d
000000a0: 20b4 503d b1d2 513b 528b a4bc b17c 6fbd
000000b0: ed08 e23c 98ec 97bd c463 f83c 87df 353c
000000c0: 10ff dfbc b19c b4bd c673 3c3d a660 5fbd
000000d0: bb09 4fbd 367d 30bd 6b75 74bc c488 a23d
000000e0: 8c87 a2ba 1614 0b3c 838c 91bd 1822 163d
000000f0: b89c 2a3d 84e0 42bd 09af 783d c330 6e3c
00000100: 44a0 cebc 1ae7 ebbb f9ea 8d3b a38e a23c
00000110: d8cb b53c e868 bcbd 0ab1 26bc 7117 25bd
00000120: c157 933c 4b71 443d cda6 063d 6531 f33c
00000130: ca33 4abd d7fd 3b3c bf01 27bd 1a03 2ebc
00000140: f75c 603c 0bf9 a5bd bec7 9fbd 0469 53bd
00000150: 5b3c aabd b067 a63b cd93 38bd 2310 b53b
00000160: ba20 2abd e32f 573c a203 46bc 65d7 c9bd
00000170: 8837 68bd ace8 7cbd 4249 b7bd f3ff 5abd
00000180: d314 63bd 4c3f b3bb 5f3d 2ebc b36e f83c
00000190: ed03 793b e867 e6bc c5e7 153d 4744 d53c
000001a0: d4b1 753d 6c12 a83c 8acc 923d e5aa f2b7
000001b0: 5417 90bd 528d a4bd 1c0c 973d c138 bebd
000001c0: 87ac d4bd ce38 aabd 94a0 ad3c c3e5 573d
000001d0: 712a 953d 363b 313d 97fa 4bbd 91c5 933c
000001e0: 62c4 4cbc 20f7 cbbc 2868 e1bb 5ebb 3f3d
000001f0: 08ba adbc 6d20 163d 5b14 0a3d 2ecd 543d
00000200: 2e6a 1abd 96af 83bd fcaf 1fbd 9592 5d3c
00000210: 2758 93bc 5ce3 07bd 6c33 bdbd e9e0 103d
00000220: 8cc2 68bd 2b05 afbd 0727 ed3c eaa3 fc3c
00000230: 3bbe bbbd 53c2 ff3c 2b96 9dbd 5701 00bc
00000240: 29b6 24bd fc9f 6cbd 23fc 8e3d 98e7 583d
00000250: 137c 9d3d 9229 463d 7d15 8ebb 5239 79bd
00000260: ee88 bf3c 6a7b 8abd aba5 913a ed20 443d
00000270: 20e5 53bd a1e0 8f3c 4d48 8dbc c63a e93c
00000280: d601 0c3d 593f fcb9 b544 9cbd 6eb6 52bb
00000290: a8c9 41bd 4df2 a6bd 4b32 c7bc 9717 48bd
000002a0: 1059 663d 18e7 6ebd ffb4 863d 1831 e13c
000002b0: 21ef 313d 3c23 8cbd dd90 9f3c d4a7 28bd
000002c0: 14e1 e1bc 1818 1dbd 0010 04bb 7413 2d3d
000002d0: 8009 cf3c 5661 97bd 2602 033c a607 aebc
000002e0: 3e4e cabc 65d0 5e3d d7ef a33d b329 eabc
000002f0: 8a5a 1c3d 1cd2 46bd 1810 56bd 65a1 2d3c
00000300: 3cb7 c4bd 601b 94bd 6e3a b03c c2c5 8cbb
00000310: 590d 573d f08e 35bd 62a0 773d 228e 0e3d
00000320: 9348 1dbd b1a1 8b3c d511 963d 6e9b 88bd
00000330: 3e93 843b 9f84 e93a 0325 4c3c a6ec 51bd
00000340: 781b b6bc fc3b 02bd 6095 27bd 14e7 cebc
00000350: 4852 86bd 805a 54bd eb67 183d 582b 4e3d
00000360: 2b47 0a3d 9c4a a2bd 9a61 e33b 7009 98bd
00000370: 27aa 79bd 4e33 bbbd 10c5 98bd 83c9 44bd
00000380: 713d cbbd c141 f83c db5d 99bd 34aa 3dbd
00000390: 324e d7bc 9a80 9ebc a582 c7bd 55c1 c6bc
000003a0: 6d20 4e3d 3cb2 9b3d 0460 a6bd 8dc3 c53b
000003b0: 9d6a 993d 4061 87bd 92b3 cbbb f2e9 9dbd
000003c0: 1feb 7f3d 7db4 553d d1b1 973d 05c8 8d3d
000003d0: d67d e63c c650 463d c839 5d3d d42e dfba
000003e0: afaa 8cbd e934 2d3d ca60 c83b 8430 a4bc
000003f0: 272f d4bc a91f 343d d03c a6bd 6a00 12bd

sequential_2/conv2d_2/Conv2D f4 [64, 3, 3, 64]
-0.0617161 -0.021516373 -0.046537086 0.038379572 0.034692273 -0.0073325876 -0.021761445 0.051481325
-0.047912795 0.02152728 0.001658078 -0.07282084 0.06471276 0.09231355 0.048254278 0.007966582
-0.025845703 0.06214218 0.015864165 -0.06043045 0.10877115 -0.021488145 0.032442823 0.14007948
-0.010362284 -0.0055194064 0.05445322 -0.013024887 0.07364441 0.028063495 -0.08073147 -0.04026174
-0.020917833 0.00030150093 -0.038783856 0.08520028 0.059448287 0.061991263 0.015030518 -0.019220546
0.026237942 0.02639036 -0.040145315 -0.00478902 0.048277568 -0.012305538 -0.042039074 0.008982386
0.12683494 -0.06341444 -0.016123904 -0.015470586 0.018833779 0.0028334393 0.047357034 0.1415395
-0.048342533 -0.018895295 -0.076566644 -0.039600126 -0.0035290613 0.01499936 0.011684908 -0.0018163603
-0.031383455 -0.015740687 -0.060937043 -0.01272166 -0.057315186 0.060945738 -0.038940582 -0.005686577
0.044873662 -0.009101205 -0.027865192 -0.03290443 -0.017007552 0.00119772 0.038466845 0.029219007
0.055370525 -0.01804792 0.004123171 -0.027259074 0.11351283 -0.025753492 0.029179335 0.06889688
0.04155878 0.043439604 0.065804854 0.04393758 -0.0044432017 -0.032714974 -0.092388235 0.01936177
-0.05253043 0.027440803 0.047775436 0.061743915 0.014349591 0.11256872 0.006266523 0.016073352
-0.025186062 0.049940232 0.0017207981 -0.08435166 0.025939899 0.021399744 -0.010567089 -0.03910433
0.12194692 0.013671465 0.06496555 0.012505212 0.047307175 0.024936577 0.07252121 0.026781749
-0.0010870652 0.07357005 -0.017383395 0.0633424 -0.0013176432 -0.001635928 -0.056175705 -0.035358604
-0.0070907604 0.007315094 -0.03415748 -0.048800446 -0.031837307 0.09390476 -0.022040453 0.0039611245
-0.052927516 -0.040730372 -0.07543958 0.014465793 0.055819023 0.028014822 0.02060631 -0.03331902
-0.023210317 -0.058749102 -0.0039313007 -0.037321247 0.09839111 0.06993466 -0.034845617 -0.013366592
0.033637706 0.021953717 -0.032339618 0.05160256 0.0063783317 -0.0022412336 -0.0675924 -0.003483685
-0.008915702 0.09729358 0.06973991 0.0111445505 -0.061601456 0.084065765 -0.012950798 -0.030551273
0.002063574 0.050085876 -0.0002701227 -0.036874793 0.0477165 -0.061253536 -0.0848435 -0.024097629
0.05947496 0.00085961184 -0.019430172 0.005627515 -0.00125344 0.11556407 -0.018816082 0.08387167
0.042050507 -0.013112061 -0.011135658 -0.028525367 0.023217328 0.013812913 -0.0038525537 -0.022609726
0.062254805 -0.044365436 -0.04494776 -0.01344598 0.0041417247 0.0267739 0.07209838 0.055107825
-0.07181798 0.061873883 0.00030284582 0.011791401 0.047757898 0.06783358 0.059707467 -0.0033159829
-0.030785393 -0.036327645 0.0671471 -0.006686226 0.10902831 -0.057658017 -0.015390017 0.028244732
-0.06564575 0.030403363 0.067130014 0.012699257 0.02844246 0.040443227 0.01636009 -0.02736595
0.042605493 0.08566351 0.0117046675 0.04735657 0.027016137 0.09012853 0.06630442 -0.07765902
-0.060255043 0.010256053 0.08185393 0.017923547 0.040701956 0.016208861 -0.062806614 -0.048566982
0.0145304715 0.049390215 0.0013813057 -0.09460126 -0.0009326723 0.0970692 0.05040083 0.09338175
-0.043660868 0.031673957 -0.011799788 -0.0006395375 -0.024333341 -0.015832683 -0.07029216 0.013890164
00000000: 05ca 7cbd 1b43 b0bc ac9d 3ebd e633 1d3d
00000010: 7c19 0e3d 3446 f0bb 0f45 b2bc 15de 523d
00000020: 3540 44bd fa59 b03c de53 d93a 1823 95bd
00000030: 2088 843d e30e bd3d 47a6 453d 4486 023c
00000040: 5eba d3bc cc88 7e3d 91f5 813c eb85 77bd
00000050: 69c3 de3d e807 b0bc c4e2 043d ff70 0f3e
00000060: 92c6 29bc 23dc b4bb 570a 5f3d 5666 55bc
00000070: e1d2 963d 6ae5 e53c 8a56 a5bd 7fe9 24bd
00000080: e05b abbc c512 9e39 d2db 1ebd 7c7d ae3d
00000090: 0c80 733d 8dea 7d3d 9042 763c 6874 9dbc
000000a0: f4f0 d63c 9930 d83c 6a6f 24bd 36ed 9cbb
000000b0: b3be 453d 2b9d 49bc 2a31 2cbd dc2a 133c
000000c0: 05e1 013e 6edf 81bd 4716 84bc 5778 7dbc
000000d0: 4c49 9a3c 39b1 393b 73f9 413d bbef 103e
000000e0: d202 46bd 4eca 9abc f9ce 9cbd be33 22bd
000000f0: d347 67bb e0bf 753c 0e72 3f3c f012 eeba
00000100: f08b 00bd 9df2 80bc 1f99 79bd 826e 50bc
00000110: 54c3 6abd 3da2 793d 2980 1fbd 7756 babb
00000120: 72cd 373d 381d 15bc 8b45 e4bc ccc6 06bd
00000130: 6c53 8bbc d0fc 9c3a 698f 1d3d b35c ef3c
00000140: 34cc 623d 3bd9 93bc aa1b 873b 6c4e dfbc
00000150: 6a79 e83d fdf8 d2bc 8009 ef3c cf19 8d3d
00000160: 8a39 2a3d baed 313d b2c4 863d e4f7 333d
00000170: 4798 91bb 2300 06bd 0b36 bdbd 939c 9e3c
00000180: 262a 57bd 89cb e03c 2db0 433d 30e7 7c3d
00000190: 8c1a 6b3c 6e8a e63d 6857 cd3b 43ac 833c
000001a0: 0053 cebc 218e 4c3d 678c e13a 90c0 acbd
000001b0: e97f d43c 844e af3c 9521 2dbc dd2b 20bd
000001c0: 4fbf f93d 48fe 5f3c a90c 853d a9e2 4c3c
000001d0: 2bc5 413d cb47 cc3c 0086 943d 6665 db3c
000001e0: db7b 8eba e5ab 963d 9f67 8ebc a9b9 813d
000001f0: c5b4 acba a36c d6ba 7f18 66bd 2fd4 10bd
00000200: 9c59 e8bb 75b3 ef3b b7e8 0bbd fae2 47bd
00000210: d667 02bd 2451 c03d 2e8e b4bc 52cc 813b
00000220: 86ca 58bd e4d4 26bd 1180 9abd ef01 6d3c
00000230: 7da2 643d 577f e53c 90ce a83c 8679 08bd
00000240: 9023 bebc e6a2 70bd 24d2 80bb 2ade 18bd
00000250: 4781 c93d e739 8f3d 47ba 0ebd 8dff 5abc
00000260: b1c7 093d 48d8 b33c 8c76 04bd 355d 533d
00000270: 5301 d13b a9e1 12bb e26d 8abd 894e 64bb
00000280: 2a13 12bc db41 c73d ccd3 8e3d a297 363c
00000290: cf51 7cbd ac2a ac3d 952f 54bc aa46 fabc
000002a0: 073d 073b d926 4d3d 419f 8db9 060a 17bd
000002b0: 6072 433d fde4 7abd 6ec2 adbd 6468 c5bc
000002c0: 049c 733d 9357 613a 062c 9fbc 0467 b83b
000002d0: 784a a4ba dbac ec3d 2f24 9abc e9c4 ab3d
000002e0: 273d 2c3d f8d3 56bc 5672 36bc 08ae e9bc
000002f0: 4432 be3c 8e4f 623c 207b 7cbb 0838 b9bc
00000300: e5fe 7e3d 88b8 35bd 241b 38bd 874c 5cbc
00000310: 4eb7 873b f054 db3c 51a8 933d beb8 613d
00000320: 4e15 93bd 786f 7d3d 47c7 9e39 b830 413c
00000330: c99d 433d 55ec 8a3d d18f 743d f650 59bb
00000340: a631 fcbc 4ccc 14bd 6b84 893d 2118 dbbb
00000350: 3c4a df3d d02a 6cbd 6926 7cbc 7f61 e73c
00000360: 4771 86bd 7910 f93c 767b 893d 8b10 503c
00000370: 2900 e93c cca7 253d 9805 863c 8f2e e0bc
00000380: 1983 2e3d 5a70 af3d efc4 3f3c f6f8 413d
00000390: f250 dd3c 4f95 b83d 9dca 873d b10b 9fbd
000003a0: fecd 76bd 0109 283c 09a3 a73d 67d4 923c
000003b0: 18b7 263d 72c8 843c c1a0 80bd 2cee 46bd
000003c0: 3711 6e3c 654d 4a3d ee0c b53a 4ebe c1bd
000003d0: 947e 74ba 37cc c63d 1a71 4e3d ee3e bf3d
000003e0: bdd5 32bd 8dbc 013d e653 41bc a3a6 27ba
000003f0: b756 c7bc 8bb3 81bc 56f5 8fbd 9293 633c

sequential_2/conv2d_3/Conv2D f4 [64, 3, 3, 64]
-0.035687424 -0.021620573 -0.011081551 -0.092966415 -0.023473576 -0.02637873 0.006625435 -0.030267617
-0.05746704 -0.0869072 -0.020874878 0.024615057 -0.0918431 0.0025286211 -0.03171758 0.074302845
-0.04571283 0.021536924 -0.015633022 -0.03204487 0.007384136 -0.08294952 -0.05258977 -0.024354074
0.00146999 -0.033349782 -0.029477134 0.025726508 -0.012494922 0.004795354 -0.028678304 -0.03905131
0.08094673 0.03419399 0.040662717 0.037225395 -0.06248826 -0.054914325 0.0641927 -0.04842478
0.037263576 0.00995218 0.054260794 0.008883631 0.029849902 -0.12593621 0.02247158 0.01689471
0.053658932 -0.048153345 -0.050143078 -0.016885754 -0.003036572 0.015443983 0.013010112 0.03870338
-0.07048789 -0.0527888 -0.031827353 0.074416526 -0.085378446 -0.04854456 -0.0296321 0.048366547
-0.06098671 -0.015365849 -0.052781098 -0.11179598 -0.082442805 -0.045984678 0.013603469 -0.026457742
-0.060956966 0.040601887 -0.015320058 -0.015306925 -0.0096133575 -0.0177123 0.0005403382 -0.045048196
-0.060365487 0.008792801 -0.019746484 -0.058801766 -0.08278021 -0.06666823 -0.065936014 -0.0023487753
-0.069792874 -0.043663584 -0.06735166 -0.009686756 0.047438852 0.02396774 0.03673159 0.031706855
-0.03519745 -0.02539299 -0.044126544 -0.06042273 0.05190145 -0.04721321 -0.0594285 -0.007818829
0.025382122 -0.011248275 -0.0010481743 -0.05908074 -0.07891459 -0.12841886 0.03760186 -0.086429335
-0.03800202 0.061282985 0.011869227 -0.084543645 -0.011910557 -0.045231495 0.06895829 -0.035437778
-0.0867459 -0.007642768 0.0057000606 -0.049674578 0.013312018 -0.048982393 -0.053282827 0.04728676
-0.063002355 -0.06779377 -0.08901925 0.003675178 -0.052877143 0.050527256 -0.019290317 0.003590628
-0.05824693 0.02631218 0.009108108 0.029976403 -0.05009556 -0.06732955 0.032651864 -0.043148592
0.046255648 0.0021803048 0.029063992 0.039654925 0.029830558 0.027916148 0.018864207 -0.019625274
0.03816468 0.010531584 0.06700616 -0.05150872 0.04945223 0.023965633 0.0052924864 -0.073257364
-0.015357816 -0.07403856 0.0105358325 -0.05607377 0.04316196 0.023215689 0.04847653 0.07227934
0.034560423 0.030848252 -0.06751409 -0.0012973075 0.043059908 -0.07740179 -0.016687827 -0.029678391
-0.00609968 0.029898841 -0.0073466464 -0.07344547 -0.039546646 0.033840008 0.009549232 -0.06089806
-0.06511691 0.04626645 -0.051060148 -0.0034160307 0.03508427 0.054961156 0.03138629 -0.040327188
0.005463039 0.056625474 0.011268587 0.0032496387 -0.084251486 -0.06985196 -0.06290169 0.047569398
-0.059917852 0.023915473 0.074164994 0.043098845 -0.067295246 -0.08236267 -0.052533604 -0.064654484
0.046086702 -0.041182272 0.036619563 -0.049506545 -0.06326341 -0.013864031 -0.034025133 -0.013619259
-0.009609632 0.084795974 0.044731773 0.050349433 0.025389886 -0.018803753 0.065271504 -0.05959938
-0.03037404 -0.095512755 0.037157137 -0.019388096 0.057772033 -0.06538778 -0.04742784 0.0005614839
-0.0538958 -0.06442357 -0.027361404 0.024956284 0.011058392 -0.121527165 0.018512169 -0.046297252
0.04273304 0.055771112 -0.0028050642 -0.07469531 -0.02259512 -0.061805807 -0.048688926 -0.04920111
0.039463278 -0.008073487 -0.056777637 -0.0103085805 -0.084678054 -0.057026215 -0.065067306 -0.03551351
00000000: fa2c 12bd a11d b1bc 658f 35bc 2d65 bebd
00000010: a84b c0bc 3518 d8bc 2d1a d93b cbf3 f7bc
00000020: 8f62 6bbd 67fc b1bd cb01 abbc 84a5 c93c
00000030: 3c18 bcbd 39b7 253b 4bea 01bd 172c 983d
00000040: 603d 3bbd 346e b03c d310 80bc 7b41 03bd
00000050: 9ff6 f13b 70e1 a9bd 5f68 57bd 3282 c7bc
00000060: aeac c03a c899 08bd 087a f1bc 66c0 d23c
00000070: 80b7 4cbc 5822 9d3b c3ee eabc 44f4 1fbd
00000080: 66c7 a53d ff0e 0c3d f38d 263d a879 183d
00000090: b1f3 7fbd d8ed 60bd 7677 833d 1059 46bd
000000a0: b1a1 183d 780e 233c 9140 5e3d a68c 113c
000000b0: c887 f43c 6cf5 00be 5216 b83c c666 8a3c
000000c0: 78c9 5b3d 713c 45bd d462 4dbd fe53 8abc
000000d0: 3901 47bb c208 7d3c 5d28 553c 6f87 1e3d
000000e0: f45b 90bd 1239 58bd 665d 02bd b167 983d
000000f0: e5da aebd a9d6 46bd 05bf f2bc 001c 463d
00000100: 33cd 79bd 0bc1 7bbc fe30 58bd 4af5 e4bd
00000110: c6d7 a8bd 6e5a 3cbd 16e1 5e3c e8bd d8bc
00000120: 03ae 79bd 2a4e 263d fb00 7bbc e6c9 7abc
00000130: 5881 1dbc 6319 91bc 7ca5 0d3a 7584 38bd
00000140: cd41 77bd ae0f 103c 61c3 a1bc 1fda 70bd
00000150: ac88 a9bd 5a89 88bd 7609 87bd e9ed 19bb
00000160: 91ef 8ebd 96d8 32bd abef 89bd 33b5 1ebc
00000170: 3e4f 423d fe57 c43c dd73 163d 0cdf 013d
00000180: 342b 10bd f604 d0bc 09be 34bd d37d 77bd
00000190: 9d96 543d a462 41bd 4c6b 73bd 8c1a 00bc
000001a0: 2bee cf3c af4a 38bc e562 89ba a5fe 71bd
000001b0: f99d a1bd 3c80 03be 6804 1a3d dd01 b1bd
000001c0: 02a8 1bbd de03 7b3d 2577 423c 3825 adbd
000001d0: 7f24 43bc a944 39bd 013a 8d3d 3427 11bd
000001e0: d6a7 b1bd 2f70 fabb 93c7 ba3b 9277 4bbd
000001f0: a61a 5a3c c3a1 48bd 183f 5abd c3af 413d
00000200: 6107 81bd 76d7 8abd b94f b6bd 41db 703b
00000210: b495 58bd abf5 4e3d ba06 9ebc be50 6b3b
00000220: 5594 6ebd a48c d73c 2c3a 153c 1391 f53c
00000230: 0031 4dbd 13e4 89bd f6bd 053d 94bc 30bd
00000240: 9076 3d3d 72e3 0e3b 9c17 ee3c 346d 223d
00000250: 375f f43c 68b0 e43c 1c89 9a3c 2fc5 a0bc
00000260: 9152 1c3d aa8c 2c3c 873a 893d cffa 52bd
00000270: 6c8e 4a3d 9353 c43c 986c ad3b f507 96bd
00000280: 599f 7bbc 87a1 97bd 7c9e 2c3c 9cad 65bd
00000290: 98ca 303d d42e be3c 538f 463d 3107 943d
000002a0: 3b8f 0d3d 79b5 fc3c d444 8abd 6b0a aaba
000002b0: 965f 303d d484 9ebd e9b4 88bc 1920 f3bc
000002c0: d3df c7bb 6aee f43c 23bc f0bb 946a 96bd
000002d0: aafb 21bd d29b 0a3d 6274 1c3c 3f70 79bd
000002e0: 045c 85bd e481 3d3d 7224 51bd 7cdf 5fbb
000002f0: 86b4 0f3d f31e 613d e98e 003d 1f2e 25bd
00000300: 4b03 b33b 1df0 673d e19f 383c e4f7 543b
00000310: 0b8c acbd 8b0e 8fbd 9ad2 80bd 21d8 423d
00000320: 6c6c 75bd 62ea c33c d1e3 973d 6a88 303d
00000330: 17d2 89bd c2ad a8bd 7a2d 57bd 9269 84bd
00000340: 69c5 3c3d beae 28bd 65fe 153d 60c7 4abd
00000350: 3f90 81bd f625 63bc f05d 0bbd 5023 5fbc
00000360: b871 1dbc 83a9 ad3d aa38 373d 353b 4e3d
00000370: 73fe cf3c 540a 9abc 11ad 853d 7b1e 74bd
00000380: fbd2 f8bc 319c c3bd 1532 183d c9d3 9ebc
00000390: 5ea2 6c3d 07ea 85bd b243 42bd 8c30 133a
000003a0: d8c1 5cbd 81f0 83bd 0625 e0bc 1f71 cc3c
000003b0: 422e 353c 3ce3 f8bd d5a6 973c 30a2 3dbd
000003c0: d708 2f3d 4070 643d 2bd5 37bb dbf9 98bd
000003d0: 6719 b9bc 1628 7dbd 0a6e 47bd 1a87 49bd
000003e0: 3fa4 213d a946 04bc ab8f 68bd 52e5 28bc
000003f0: b06b adbd 5294 69bd 0242 85bd 9d76 11bd

sequential_2/conv2d_4/Conv2D f4 [64, 3, 3, 64]
0.0072230133 -0.043629866 0.0072240047 -0.07297667 0.0422392 -0.06614909 0.05373901 0.06645852
0.033942174 0.016001884 0.03356638 -0.05137635 -0.056820426 -0.02621881 0.07428282 -0.056050148
0.065848656 -0.07815347 -0.03534247 0.040501583 0.0052567776 -0.039040994 -0.054615453 -0.024218882
-0.09880442 0.07686175 -0.057877216 -0.030698398 0.01904158 0.018642295 0.021162279 -0.02710719
-0.008196361 0.084483534 -0.014235932 -0.05802322 -0.045485646 -0.06500746 -0.03762608 -0.009656183
-0.0131672025 0.038388077 0.10047589 -0.018217187 -0.06118084 -0.007900493 -0.017904237 -0.046374105
0.019340172 0.021605834 -0.06317873 0.03513639 -0.04755169 -0.04636563 0.04933801 -0.020901058
-0.077507325 -0.00862213 -0.012614409 -0.041417394 0.075000055 0.007969405 0.0027890508 0.008131675
-0.042266108 0.035866417 0.022616519 -0.103613265 -0.025903946 -0.017667104 0.050376635 0.0772158
-0.055771943 -0.0034092197 0.033128325 -0.02142421 0.051852804 -0.04307681 0.02026338 -0.020294875
-0.01004058 -0.06510399 -0.012620705 0.05202548 -0.04873491 0.076507606 -0.0854633 -0.047795802
-0.07280894 -0.026858564 0.0019721722 -0.02782649 -0.05598038 0.026281565 -0.048400115 -0.08722146
0.039773125 -0.032171473 0.040763434 -0.04842348 -0.084109955 -0.056219842 0.020198055 0.056115482
-0.075178444 0.06105671 0.0024901084 0.069997504 0.031301446 -0.041471627 -0.030380435 -0.04788395
-0.06032638 -0.068063654 0.0035471753 0.015097507 0.06902736 -0.07330417 0.04994209 0.07125219
-0.037611935 0.052776407 -0.010176458 -0.06519613 0.04744207 -0.05720352 0.0043299915 -0.06894637
0.056355912 0.04745673 -0.0697723 -0.104450814 0.017168298 0.10102603 0.05983564 -0.02521662
0.00017103773 -0.051597077 -0.014220699 -0.019052135 -0.03770753 -0.12112966 0.020214463 -0.073030055
0.04427802 0.021860503 0.008963615 0.009540529 0.07829012 0.061220422 0.034224227 -0.0049112495
0.0006282832 -0.053063743 -0.030944344 -0.053277496 -0.094946325 -0.05505846 -0.057679974 0.012925982
-0.0031998293 0.10073338 0.06041231 -0.023781138 -0.041429743 -0.07034352 0.03535975 0.07439356
-0.011841578 -0.014478985 0.048174232 0.009537552 -0.013989715 0.07722794 0.07143509 -0.03370543
0.07975356 0.03131283 -0.04371389 -0.10922213 0.074124396 0.040693298 -0.023885855 0.06738988
-0.011458508 -0.04075095 -0.037792757 -0.1155276 -0.0414709 -0.043797225 -0.07221845 0.031098107
0.0012957469 0.062963456 0.016665103 0.051623553 0.045941632 -0.05920761 0.028493265 0.045439135
-0.0470514 0.06887072 -0.045451425 -0.07945766 -0.009040958 0.07720303 0.033351026 0.022861028
-0.035660375 0.054158114 0.015549547 0.057825048 -0.00808166 0.055535518 0.059254438 0.023266137
-0.017387372 0.004574708 0.0559688 0.07414925 0.05935891 0.0039873286 0.054673865 0.023159895
-0.028538002 -0.06801879 -0.067644805 -0.010953621 0.075370416 0.03138409 -0.090427384 -0.046995617
0.052263454 0.06465868 -0.013905803 0.07216481 0.016604755 -0.0118460255 -0.06965125 -0.061849155
-0.07031673 -0.062320307 0.06139982 0.016511044 0.004749198 -0.01543904 -0.025376683 -0.055706326
0.029741904 0.059357554 0.0581074 -0.043890998 0.01978382 -0.048467606 0.0066657336 -0.0030797874
00000000: 07af ec3b 3bb5 32bd 58b7 ec3b cb74 95bd
00000010: 0303 2d3d 2d79 87bd 701d 5c3d 681b 883d
00000020: f306 0b3d 6216 833c e77c 093d 0270 52bd
00000030: 89bc 68bd d4c8 d6bc 9721 983d d794 65bd
00000040: a9db 863d ed0e a0bd 44c3 10bd fde4 253d
00000050: 0c41 ac3b 73e9 1fbd 74b4 5fbd ad66 c6bc
00000060: f959 cabd b169 9d3d a910 6dbd 357b fbbc
00000070: 16fd 9b3c bab7 983c 845c ad3c e60f debc
00000080: 084a 06bc b405 ad3d d43d 69bc c2a9 6dbd
00000090: 284f 3abd a222 85bd ce1d 1abd f834 1ebc
000000a0: 40bb 57bc d13c 1d3d 4ec6 cd3d 363c 95bc
000000b0: c398 7abd 1271 01bc e8ab 92bc c6f2 3dbd
000000c0: 486f 9e3c b8fe b03c da63 81bd 2deb 0f3d
000000d0: 90c5 42bd e3e9 3dbd a716 4a3d b238 abbc
000000e0: 29bc 9ebd d643 0dbc abac 4ebc 49a5 29bd
000000f0: a199 993d 1b92 023c 82c8 363b b83a 053c
00000100: 3a1f 2dbd aae8 123d 4746 b93c 3133 d4bd
00000110: 8334 d4bc 9aba 90bc bb57 4e3d 5123 9e3d
00000120: 1f71 64bd 376d 5fbb 91b1 073d d381 afbc
00000130: 9b63 543d 4f71 30bd 63ff a53c 7041 a6bc
00000140: 3f81 24bc 3e55 85bd 13c7 4ebc ab18 553d
00000150: 429e 47bd 05b0 9c3d 6207 afbd 88c5 43bd
00000160: db1c 95bd 7e06 dcbc 8f3f 013b 61f4 e3bc
00000170: af4b 65bd 704c d73c 333f 46bd 2aa1 b2bd
00000180: 25e9 223d 3cc6 03bd 8ff7 263d b357 46bd
00000190: d741 acbd c746 66bd 6476 a53c 59d9 653d
000001a0: 28f7 99bd 9a16 7a3d 1631 233b da5a 8f3d
000001b0: f235 003d 27de 29bd 64e0 f8bc f621 44bd
000001c0: cb18 77bd f564 8bbd ba77 683b 895b 773c
000001d0: 375e 8d3d 7f20 96bd 1490 4c3d abec 913d
000001e0: f90e 1abd 132c 583d 29bb 26bc 8c85 85bd
000001f0: 9e52 423d 3d4e 6abd 9ae2 8d3b c133 8dbd
00000200: 75d5 663d fd61 423d c8e4 8ebd 4fea d5bd
00000210: 88a4 8c3c bce6 ce3d 3716 753d 1693 cebc
00000220: 9758 3339 7557 53bd effd 68bc 3913 9cbc
00000230: 3673 1abd d412 f8bd cd98 a53c c890 95bd
00000240: de5c 353d cc14 b33c 20dc 123c e14f 1c3c
00000250: 9256 a03d 44c2 7a3d b42e 0c3d 8cee a0bb
00000260: 5fb3 243a 5e59 59bd fe7e fdbc 8139 5abd
00000270: 3873 c2bd fb84 61bd d641 6cbd 7fc7 533c
00000280: 3ab4 51bb 4d4d ce3d e672 773d a9d0 c2bc
00000290: 3cb2 29bd 4310 90bd 63d5 103d a75b 983d
000002a0: 2e03 42bc 4439 6dbc 5852 453d 6443 1c3c
000002b0: 1e35 65bc af29 9e3d 8f4c 923d b40e 0abd
000002c0: d655 a33d e241 003d 560d 33bd daaf dfbd
000002d0: 88ce 973d 04ae 263d 45ac c3bc b503 8a3d
000002e0: 77bc 3bbc 78ea 26bd 94cc 1abd bc99 ecbd
000002f0: 64dd 29bd b864 33bd 44e7 93bd 75c1 fe3c
00000300: 0dd6 a93a fcf2 803d 4185 883c 3873 533d
00000310: 4b2d 3c3d ae83 72bd b56a e93c 631e 3a3d
00000320: f8b8 40bd 180c 8d3d 462b 3abd b3ba a2bd
00000330: 8720 14bc 9f1c 9e3d 169b 083d 0d47 bb3c
00000340: 9d10 12bd e6d4 5d3d 87c3 7e3c f5d9 6c3d
00000350: f068 04bc 3679 633d c8b4 723d a098 be3c
00000360: f66f 8ebc 6fe7 953b 8a3f 653d 90db 973d
00000370: 5422 733d 23a8 823b b4f1 5f3d d2b9 bd3c
00000380: 87c8 e9bc 6f4d 8bbd 5c89 8abd d176 33bc
00000390: ce5b 9a3d 9b8c 003d fe31 b9bd 7a7e 40bd
000003a0: 3412 563d c56b 843d 2ad5 63bc 25cb 933d
000003b0: b206 883c d515 42bc 51a5 8ebd 8a55 7dbd
000003c0: 3802 90bd 9443 7fbd 617e 7b3d 2b42 873c
000003d0: 299f 9b3b 07f4 7cbc c3e2 cfbc 512c 64bd
000003e0: 4ba5 f33c e820 733d 0602 6e3d 0cc7 33bd
000003f0: ad11 a23c f885 46bd 3a6c da3b 42d6 49bb
