app/src/main/ml/potato.tflite (tflite, 741824 bytes, 16 tensors)

sequential_2/conv2d/Relu;sequential_2/conv2d/BiasAdd;sequential_2/conv2d/Conv2D;sequential_2/conv2d/BiasAdd/ReadVariableOp f4 [32, 3, 3, 3]
000000 0b 66 03 b9 88 28 a1 b9 7a 9b ac b9 3b b5 54 b9
       -0.00012531148 -0.0003073851 -0.00032922236 -0.00020285409
000010 8f a0 1f b8 e9 46 a3 b9 7c 58 b9 39 5c 97 97 b9
       -3.8058086e-05 -0.00031142615 0.00035351876 -0.00028913736
000020 56 bb 81 39 7d 22 a1 39 fb 22 3e b9 b0 24 90 b9
       0.00024744374 0.0003073401 -0.00018132843 -0.00027493155
000030 20 7a bd b9 c0 3d a0 b9 7f c8 57 b9 9a 52 74 38
       -0.0003613988 -0.00030563585 -0.00020578688 5.8251062e-05
000040 d8 36 e3 b9 7d 24 84 b9 13 21 c4 39 2b 3c 59 39
       -0.00043337676 -0.00025204188 0.00037408675 0.00020717147
000050 0d c5 ec 39 11 66 72 b9 33 96 05 ba 8f 5a 01 3a
       0.00045160242 -0.00023116941 -0.0005095929 0.0004934454
000060 c4 1a 92 37 e5 72 ec 39 8b cb df 39 4d e5 b0 b8
       1.741702e-05 0.0004509903 0.00042685526 -8.4350446e-05
000070 71 b3 0a b9 b9 42 93 b9 b2 05 98 38 2a 78 0c ba
       -0.00013227553 -0.00028087737 7.248986e-05 -0.0005358482
000080 54 fc b3 b9 ad 1d b2 b8 47 a4 96 39 00 5a a6 b9
       -0.0003432954 -8.493229e-05 0.00028732626 -0.00031729043
000090 f7 7d 8b 36 35 c3 e5 b9 d4 ab df b9 4f 7c cd 39
       4.157187e-06 -0.00043823724 -0.00042661896 0.00039193264
0000a0 37 71 7e b9 99 5f 4d 39 e7 e4 e2 39 ec fe a6 39
       -0.00024265503 0.00019585936 0.00043276625 0.0003185192
0000b0 c1 c6 55 39 e0 73 bf b9 6e b0 d7 39 29 db 8d b9
       0.00020387305 -0.00036516692 0.00041139446 -0.00027056903
0000c0 f0 91 93 38 3b 64 b0 39 58 2c c6 39 9a 2c da 39
       7.036689e-05 0.00033644013 0.00037798542 0.0004161343
0000d0 3f 1a a5 38 7b 22 ae b8 f9 44 d7 39 0e ad b1 b9
       7.872702e-05 -8.303389e-05 0.00041059384 -0.00033889007
0000e0 89 5e b4 39 d7 ad 44 39 c2 4d c1 39 b2 ca 81 b8
       0.0003440271 0.00018756777 0.00036869763 -6.188954e-05
0000f0 12 df 01 3a d4 8b 87 b6 48 4a 88 38 54 e1 bf 39
       0.00049541995 -4.0395917e-06 6.498821e-05 0.0003659824
000100 5b 07 bb b9 70 f5 dc 39 05 60 56 b8 a4 11 ce 39
       -0.000356729 0.00042144535 -5.1111e-05 0.00039304525
000110 98 67 4d b8 9e 1b 83 38 84 cb dd 38 1e a5 6a b8
       -4.8972288e-05 6.251711e-05 0.00010576009 -5.5943725e-05
000120 fa 03 bf b9 d5 ad f9 39 dc 35 1d 39 bd 9f 03 39
       -0.00036433322 0.00047622496 0.00014992751 0.0001255264
000130 14 d4 02 ba 04 ce dc 39 04 11 f4 b8 a8 a9 c6 b8
       -0.00049907085 0.00042115164 -0.00011637996 -9.472977e-05
000140 0d c0 d9 b9 73 e5 fe 39 87 00 ae b9 19 60 9a 39
       -0.00041532554 0.00048617608 -0.0003318826 0.00029444767
000150 03 7e 1b b9 04 a7 bf b9 5a 3c 8c 39 fb 40 09 3a
       -0.00014828895 -0.00036554795 0.00026747846 0.0005235818
000160 22 4d 9c b9 e9 22 30 3a 65 22 a1 39 96 e2 1d ba
       -0.00029812107 0.0006719069 0.0003073394 -0.00060228386
000170 d2 24 d9 b9 0b 7e ac b9 b0 aa c5 b9 f0 df 8b b8
       -0.000414169 -0.00032900306 -0.0003770194 -6.669748e-05
000180 29 f0 10 ba 54 f9 16 b9 6d 41 ca b8 d4 05 19 39
       -0.0005528951 -0.00014397997 -9.644297e-05 0.00014593388
000190 03 a1 80 b8 69 ed 8c b9 49 71 f3 b8 91 b2 5d 39
       -6.1335064e-05 -0.00026879765 -0.00011608244 0.00021142724
0001a0 fc a9 c8 38 19 ec 8f b9 23 0d c4 39 ad a1 76 b9
       9.568405e-05 -0.00027450992 0.0003739382 -0.00023520617
0001b0 c7 19 37 39 a4 06 c3 39 f2 03 18 b9 9a 7f c8 39
       0.00017461843 0.00037198246 -0.0001449732 0.00038242043
0001c0 36 f8 8d 39 ec d2 09 ba d0 42 0a ba c0 0e 15 39
       0.00027078547 -0.0005257565 -0.0005274238 0.00014215242
0001d0 3b 77 b3 b9 43 a6 eb b9 ed 0a 06 ba 64 16 d0 39
       -0.00034230374 -0.00044946568 -0.00051133224 0.00039689534
0001e0 1e 31 0b 3a 9f b1 b2 39 68 af 02 b9 e4 cf 33 39
       0.0005309748 0.00034083144 -0.0001246311 0.00017148216
0001f0 a2 41 6d 38 82 0c 4d b9 e1 1e 53 b9 58 51 6b 38
       5.656633e-05 -0.00019554983 -0.00020134031 5.6104123e-05
000200 8a d0 b9 b8 a7 73 9a 39 3a e3 46 39 bd a1 b7 39
       -8.860331e-05 0.00029459337 0.000189674 0.00035024984
000210 fa a1 ba 39 dd c0 82 b8 52 00 23 ba 00 43 2b 39
       0.00035597367 -6.234807e-05 -0.0006218004 0.0001633279
000220 d0 af bd b9 7b da a0 b6 17 f5 b6 b8 88 cb 81 39
       -0.0003617988 -4.793806e-06 -8.724088e-05 0.0002475644
000230 46 d5 ab b8 b2 36 25 39 dc 8f 30 39 ce 2d 84 b8
       -8.193641e-05 0.00015756002 0.0001683826 -6.302782e-05
000240 58 33 25 b9 70 a3 b2 38 b7 7b 1f ba ce 78 a4 39
       -0.00015754753 8.518144e-05 -0.00060838036 0.00031370524
000250 bc 05 50 39 14 4a 6a 39 14 a2 a3 b9 20 0a 62 b9
       0.00019838562 0.00022343575 -0.0003121054 -0.00021556811
000260 74 38 82 b9 f5 99 08 38 7d c8 9c 39 51 ff fe 38
       -0.00024837593 3.256831e-05 0.00029904014 0.0001215922
000270 29 09 cf b8 2d 06 2d b9 84 b2 29 b9 4d 43 46 38
       -9.8722354e-05 -0.00016500866 -0.00016183598 4.7269557e-05
000280 6c c7 43 39 c9 aa 29 ba 64 72 a4 b9 59 99 5d b9
       0.0001867094 -0.00064722874 -0.00031365745 -0.00021133329
000290 56 9d 72 b8 b0 f3 66 b9 a9 8b be 38 ac 6e ae b9
       -5.7843827e-05 -0.0002202529 9.08592e-05 -0.00033270323
0002a0 77 1d 25 b9 21 41 c2 39 06 50 36 b9 c9 14 c0 37
       -0.00015746603 0.00037051088 -0.00017386684 2.2897862e-05
0002b0 39 b2 06 3a 7f 81 e1 38 97 f9 93 38 1f 51 e2 b9
       0.00051382516 0.000107529566 7.055996e-05 -0.0004316652
0002c0 21 d6 1d 3a 4f eb d0 39 e9 2d 58 b9 03 93 d8 38
       0.00060209824 0.0003984817 -0.00020616468 0.00010327066
0002d0 1c da 06 ba 63 fe 48 b9 ad 53 ab 39 c9 b2 b9 b9
       -0.0005144195 -0.00019168253 0.00032678005 -0.00035419155
0002e0 da 45 77 39 a2 05 84 39 f3 71 68 b9 0e 3d d8 39
       0.00023581777 0.000251812 -0.00022167694 0.0004124422
0002f0 2e 5a b9 39 ac bc ca 39 e1 21 e9 b9 19 07 bf 39
       0.0003535314 0.00038669014 -0.00044466465 0.00036435647
000300 87 2c e8 b7 f8 b7 d0 39 e2 d0 33 b8 6f a3 b2 b9
       -2.767729e-05 0.0003980992 -4.2871463e-05 -0.00034072573
000310 42 01 49 b9 09 3a a1 39 ac ef 08 b9 fd b3 fc b9
       -0.00019169322 0.00030751553 -0.00013059255 -0.00048199287
000320 df 3f 8d b7 6e fb 8b 38 d1 77 8f b8 c6 99 06 39
       -1.6838252e-05 6.674869e-05 -6.841089e-05 0.00012836521
000330 6d af 79 39 2e 39 87 39 2a 01 22 39 24 73 ff b9
       0.00023811842 0.0002579181 0.00015449958 -0.00048723177
000340 13 36 e6 39 38 33 a1 b9 bb 68 d0 b9 6a ef 6a b9
       0.00043909307 -0.00030746474 -0.00039750882 -0.00022405168
000350 36 34 e5 b8 9d 69 aa 38 c3 6e 78 39 50 41 ff 39
       -0.00010929296 8.125904e-05 0.00023692385 0.00048686052
000360 e7 e1 81 b8 fa 42 af 39 55 a4 e6 b7 85 bb a3 39
       -6.193277e-05 0.00033428503 -2.749466e-05 0.00031229496
000370 43 9d 78 b9 d1 45 45 b9 27 49 ba b9 dc c3 69 38
       -0.00023709708 -0.00018813393 -0.00035531187 5.5733937e-05
000380 40 cd 29 39 37 10 b0 b9 d6 b5 36 39 c7 9a 76 39
       0.00016193558 -0.00033581417 0.00017424612 0.00023518047
000390 b4 d0 4c b9 f6 9a 17 3a d9 b5 05 b9 b8 67 11 ba
       -0.00019532704 0.0005783284 -0.00012751612 -0.00055467663
0003a0 78 13 a8 b9 0d 8b 1b 3a 32 77 b7 39 54 f4 47 b9
       -0.00032057962 0.0005933501 0.00034993287 -0.00019069138
0003b0 ed 4e d8 b9 9d 81 ba b9 7f 40 85 39 b3 dd 19 3a
       -0.00041257535 -0.00035573254 0.0002541579 0.00058695226
0003c0 8f 98 18 b8 45 9a 4c 39 7e 7c 1a b9 1f 26 f1 b9
       -3.6381705e-05 0.00019512426 -0.00014732961 -0.00045995504
0003d0 fe 91 0a 39 ee f4 04 38 bf d7 f6 38 36 fb 05 37
       0.00013215092 3.169936e-05 0.0001177038 7.985907e-06
0003e0 0a 50 84 39 64 95 34 b9 27 e8 e3 b9 9a 75 57 b9
       0.00025236636 -0.0001722179 -0.0004346978 -0.00020547808
0003f0 39 20 0d ba 31 39 12 3a 3f ab 0b b9 c6 34 ac 39
       -0.00053835247 0.000557798 -0.00013319867 0.00032845716

sequential_2/conv2d/BiasAdd/ReadVariableOp f4 [32]
000000 88 cc 6f 3c aa 6d 5b ba 28 5e f4 bb 1c 3b 71 3c
       0.014636166 -0.0008370528 -0.0074575134 0.014723565
000010 fd a6 3d bc a7 e1 b4 ba 9e 30 9d bb a1 01 e8 bc
       -0.011575458 -0.001380016 -0.0047970554 -0.02832109
000020 a7 d4 85 3a c8 e4 6e 3b 7a b2 02 bd f7 c2 24 ba
       0.001021047 0.0036452282 -0.03190849 -0.00062851555
000030 03 5c ae bc 6e ad b6 ba 70 a1 81 bb 89 e4 c4 bc
       -0.021284109 -0.0013937184 -0.0039560124 -0.024034755
000040 97 06 39 3b 7d 99 3b bc a6 8d 64 3c ff 7c 83 bc
       0.0028232688 -0.011450169 0.013949787 -0.016050814
000050 f7 3a 26 b9 d4 b7 9e bb 4a b4 b2 ba 5b 25 91 bc
       -0.0001585296 -0.0048436914 -0.0013634053 -0.017718008
000060 d2 e5 87 3b ca 20 d6 3c 95 37 42 bc c4 ed df 3c
       0.0041472698 0.026138682 -0.011854072 0.027335055
000070 28 7b c9 3b f8 86 17 bb ca f3 83 bc 0d 93 cd bb
       0.0061487146 -0.002312122 -0.016107459 -0.0062736333

sequential_2/conv2d_1/BiasAdd/ReadVariableOp f4 [64]
000000 42 cf 0e 3c 9a c6 7a 3b f1 9e 85 3a b7 f2 1d bb
       0.008716406 0.0038265348 0.0010194463 -0.0024100968
000010 78 db e3 39 22 cf 06 3c 8e ca 6a 3b a7 70 d4 bb
       0.0004346033 0.008228095 0.0035826298 -0.006483156
000020 d0 7d e8 3b 36 34 5a 3b a3 2e 21 bc 2f 89 8f 3a
       0.007095076 0.003329528 -0.009837779 0.0010950918
000030 73 60 a3 3b 39 f2 b1 3b 60 d4 64 bb 30 3b 6b 3b
       0.004985863 0.0054304865 -0.0034916624 0.0035893433
000040 f7 15 13 3b 22 d8 c0 bb 08 40 69 bc c6 99 5e bc
       0.0022443512 -0.00588514 -0.014236458 -0.013586467
000050 42 17 89 3b 35 16 a8 ba 21 41 7c bc ec e8 15 bc
       0.0041836808 -0.0012824001 -0.015396387 -0.009149771
000060 4b c3 e5 bb e7 9d 8c 3c 25 92 34 bc bc 2e a4 bc
       -0.007011806 0.017165137 -0.011021172 -0.020041816
000070 f3 2f 0e bc b8 3a a9 3b a8 4c 49 bc 56 f8 9e 3c
       -0.008678424 0.0051644705 -0.012286343 0.019405525
000080 ca 08 a5 bb c3 cf 1f 3c 06 c2 dd bb 33 4c 00 3b
       -0.005036448 0.009754124 -0.006767514 0.0019576668
000090 7b 19 1f bb 0f c3 b9 b8 3c 9c a1 3b d6 22 77 3c
       -0.0024276662 -8.85782e-05 0.0049319547 0.015083989
0000a0 d9 99 42 3b 62 d7 09 bc 8b 2f 16 3c 21 02 9f 3b
       0.002969375 -0.008413168 0.009166609 0.0048525487
0000b0 f6 df 66 bc 25 a0 b0 bb a9 9b a1 3b 4a 0e 92 bb
       -0.014091482 -0.0053901845 0.004931886 -0.00445727
0000c0 0d f1 a4 bc 36 06 3b 3c 73 ab 2d bb 8e 1c 37 bc
       -0.020134473 0.011415055 -0.0026499897 -0.011176242
0000d0 62 7e 86 3b 4e 09 71 bc a8 b9 00 bc 52 a0 fd bb
       0.0041044215 -0.014711691 -0.007856764 -0.007740059
0000e0 10 af c0 ba 7a 53 73 3b d1 94 a3 3b 83 04 15 bc
       -0.001470061 0.0037128613 0.0049921055 -0.009095314
0000f0 8e dc b8 3b f7 bb 06 bc d5 10 ac 3b 6c 6d d5 3b
       0.0056415265 -0.008223525 0.00525103 0.0065132882

sequential_2/conv2d_2/BiasAdd/ReadVariableOp f4 [64]
000000 6b 3b a1 bc 58 a0 c4 bb 60 28 32 3c 3f a5 7c 3a
       -0.019681653 -0.00600056 0.010873884 0.00096376607
000010 7a aa 03 bc 93 9b 1f 3c 0e 11 83 3c 3b 69 ac bb
       -0.00803625 0.009741682 0.015999343 -0.005261568
000020 55 7e 09 3c 17 1e bf ba 0c b0 43 bc 39 81 15 bc
       0.008391936 -0.0014581111 -0.011943828 -0.009125047
000030 0c 61 1d bc b4 b9 72 bc 5f 21 a3 bb ed 04 56 bc
       -0.009605657 -0.014814783 -0.0049783434 -0.013062698
000040 a4 54 9b bb 14 21 f2 3b 84 0c e2 bc 90 58 83 3c
       -0.0047403146 0.007389197 -0.027593859 0.01603344
000050 b5 70 5b 3b 45 4f 01 3c ec 29 44 3c 3c 07 a7 bc
       0.0033483927 0.0078924345 0.011972886 -0.020389192
000060 a1 9b 05 bc b5 c6 31 bc 4b 83 5a 3c a0 4c c0 3b
       -0.008154781 -0.010850598 0.013336967 0.0058685094
000070 2c c3 ce bc d3 66 15 3b bc d6 12 bc ef de 5e 3c
       -0.02523955 0.0022796884 -0.0089623295 0.013602956
000080 29 82 ca 3b a8 05 45 bc 35 08 e3 bb 87 0e b4 bb
       0.006180067 -0.012025274 -0.0069284686 -0.005494896
000090 bd 7c 01 ba 08 0a 8b 3b 75 71 c6 bb ad cb 2a 3c
       -0.0004939547 0.004243139 -0.0060560056 0.010424537
0000a0 25 93 2c bc 20 a2 13 3c 58 cf 02 bc 00 6d e4 3b
       -0.010533129 0.009010822 -0.007984005 0.0069710016
0000b0 ca f6 10 bc 34 8d 01 3c 14 b6 b7 3b a1 df 43 bc
       -0.008847902 0.007907201 0.005606422 -0.011955173
0000c0 53 98 08 3c f4 a8 56 bb 6b e5 7e bc 7d 90 d0 bb
       0.008337098 -0.0032754513 -0.015557627 -0.0063648806
0000d0 8c 07 1a bc e6 86 4d bb e2 32 03 bc 03 65 8e ba
       -0.009401213 -0.0031360923 -0.008007737 -0.0010863844
0000e0 ee ea ae 3b 37 38 0e bc f6 37 22 3c 48 fe ea bb
       0.0053380644 -0.008680395 0.009901037 -0.007171426
0000f0 1d b4 aa 3b a7 17 6c bc 03 bd 3e bc ce 02 ae bb
       0.0052094595 -0.014409936 -0.011641744 -0.005310393

sequential_2/conv2d_3/BiasAdd/ReadVariableOp f4 [64]
000000 c5 ed 1c 3c d8 d4 0c bc ed 03 93 bb 7d df 00 bc
       0.009578173 -0.008595668 -0.004486552 -0.007865784
000010 30 2a 6b 3b 73 b6 0e 3c 91 42 87 3c 96 32 fc bb
       0.00358833 0.0087104915 0.016511234 -0.00769646
000020 d5 ad 07 3c 0a b9 f0 bb e6 6d fb bb 54 8f 2a 3c
       0.008281191 -0.007346277 -0.007673013 0.010410149
000030 eb b5 c4 3b 66 95 e8 3b 7d e0 ed 3b 5c c6 23 3c
       0.0060031316 0.007097888 0.007259427 0.009996023
000040 f5 00 3f bc 5d 27 a0 bb fb f6 00 3b 9e 00 0b bc
       -0.011657943 -0.004887505 0.0019678462 -0.008484034
000050 e4 30 a7 3b 20 1e fa 3b 89 7a 19 bc f1 3c bd 39
       0.0051022638 0.0076329857 -0.009367594 0.00036094294
000060 90 6c 85 3c d8 38 23 bb 99 9f 1b 3c 5c 2c cd ba
       0.016287118 -0.0024905708 0.0094985 -0.0015653479
000070 b2 e4 2a 3a c1 d4 0c bc 6c 95 63 bc 27 bc 4c 3b
       0.00065190636 -0.008595646 -0.013890605 0.0031240077
000080 28 41 3e bc b5 32 ed 3a e0 54 87 3c a8 02 77 bc
       -0.011612214 0.0018096777 0.016519964 -0.015076317
000090 ad 76 17 bb 4f 88 c3 ba 68 e7 1b bc 9d 09 6e 3c
       -0.0023111508 -0.0014917942 -0.009515621 0.014528659
0000a0 20 b0 1f bc a7 ac 7e bc 2b c5 96 bc 12 2a d9 3b
       -0.009746581 -0.015544093 -0.018404564 0.0066273296
0000b0 8e f0 56 bb ef b2 17 bc 18 f2 0a 3c d8 60 2c ba
       -0.003279719 -0.00925897 0.008480571 -0.000657571
0000c0 58 8e 47 3c 68 d0 12 3c 34 fa 86 3b 7f 36 b2 3b
       0.0121799335 0.008960821 0.004119182 0.0054386253
0000d0 a6 f3 95 3a 71 82 00 3c dc 21 d8 3b f0 ca 74 3b
       0.0011440411 0.0078436 0.006595833 0.0037352405
0000e0 c5 1b f4 bb b0 92 d8 ba a4 e3 84 bb 80 08 f2 3b
       -0.0074495994 -0.0016523208 -0.004055457 0.007386267
0000f0 37 fa 48 bb b2 07 ab 3b 11 8b d5 bc f1 16 b5 3a
       -0.0030666718 0.005219423 -0.026067289 0.0013816041

sequential_2/conv2d_4/BiasAdd/ReadVariableOp f4 [64]
000000 c7 b7 d7 bc 8e e6 2b 3c 4f 3b 1f 3b 4a 91 84 bc
       -0.026332749 0.01049198 0.0024296825 -0.01618256
000010 82 47 a4 bc a7 89 10 bc 3f 8b 9c bc b4 bd 19 bc
       -0.020053629 -0.008821881 -0.019109366 -0.009383608
000020 c7 68 60 3c ae 31 e0 bc 2e f1 59 3c 68 05 26 3c
       0.013696856 -0.02736744 0.013302131 0.010133125
000030 1d 2d e0 bc e0 02 b4 3a 76 58 fa b7 1e 4f 27 bc
       -0.027365262 0.0013733767 -2.9843515e-05 -0.010211734
000040 72 40 60 bc 91 d7 5b bc c9 a4 82 3c 94 fd ae 3b
       -0.01368724 -0.013418094 0.015947716 0.0053402875
000050 0d 21 9c 3c 5b f7 0c 3c f1 b4 90 bc 7c 4b 90 bc
       0.019058729 0.008603896 -0.017664405 -0.017614119
000060 63 80 4d bc 6a 41 70 3c 37 6e fc 3b d2 c0 a1 bc
       -0.012542817 0.014664033 0.0077035683 -0.019745264
000070 e4 f5 93 3c 0f 92 b0 bb 54 bb 67 bc 2c 80 61 bc
       0.018061586 -0.0053885053 -0.014143784 -0.013763469
000080 1c d3 c7 3a 5d db a3 bc 18 74 18 bc b7 47 65 bc
       0.0015245411 -0.020002062 -0.009305023 -0.013994149
000090 df 05 b3 3b 09 1c e0 bb c4 c6 ab 3c eb 2c d8 3c
       0.0054633464 -0.0068392796 0.020968802 0.026388606
0000a0 1d d5 bb 3c c6 e5 b5 bc 21 26 ee 39 36 fa e0 bb
       0.022928769 -0.022204291 0.00045423306 -0.006865765
0000b0 0c d7 88 bc ac a0 48 bc a5 6d 7e bc 79 7c 69 3a
       -0.016704105 -0.012245338 -0.015529071 0.00089067925
0000c0 3c bf a2 bb fd 23 8b bc b8 1a 5d ba 42 ff 81 38
       -0.0049666446 -0.016984934 -0.00084344624 6.198745e-05
0000d0 9f 04 f5 3a f9 8d 28 bc aa 9f 4e bc c6 67 5b bc
       0.0018693394 -0.010287755 -0.012611309 -0.013391441
0000e0 56 7e 5e bc d5 35 24 bb 0e 07 35 bc 72 97 6a 3b
       -0.0135799255 -0.00250565 -0.011049045 0.0035795835
0000f0 2b 9a 32 3c 0e 26 65 bc 57 6f ac bc 66 69 bb 3c
       0.010901014 -0.013986124 -0.021049185 0.022877406

sequential_2/conv2d_5/BiasAdd/ReadVariableOp f4 [64]
000000 9d eb 8a 3c 86 53 d4 b9 fe e8 3b bc 82 30 1f 3c
       0.016958052 -0.0004049802 -0.011469124 0.009716155
000010 fd 99 30 bc 20 72 39 bc 0a 58 f6 bb 7c 24 f1 bb
       -0.010778901 -0.011318713 -0.0075178193 -0.0073590856
000020 15 f5 a0 bc 41 bc c4 bb d2 d9 f3 3a b0 38 d7 bb
       -0.019648114 -0.006003887 0.0018604344 -0.006568037
000030 35 2a 52 ba f3 c2 53 3b 19 fe 7c bc 32 ff 23 3b
       -0.00080171536 0.0032312244 -0.015441441 0.0025023934
000040 9e fd 38 bc 53 8b 14 bc 28 ee b0 ba e7 52 0c 3c
       -0.011290936 -0.009066421 -0.001349871 0.008564687
000050 d2 1f 3d 3b a5 25 49 bc cf d4 46 bc e1 b8 b8 bb
       0.0028858078 -0.012277042 -0.012135698 -0.0056372737
000060 78 a0 84 3b 54 e6 c1 bb d5 fc f3 bc fa ac ae bb
       0.0040474497 -0.00591735 -0.029783646 -0.005330679
000070 23 8b 05 bc 93 f7 14 bc 64 e4 29 bc 6d 6e 9a bc
       -0.008150849 -0.009092229 -0.010369394 -0.018851483
000080 f5 d6 93 bc 1a 7d 55 bc 54 5a b0 bc 47 51 82 3c
       -0.018046835 -0.013030315 -0.021527447 0.015907897
000090 1e c1 3f bc 99 5b c5 bb cb 3d 0c bc 46 fd 40 bc
       -0.011703758 -0.006022882 -0.0085596545 -0.011779135
0000a0 d0 a5 ca 3a b1 b1 ab bc 7e d7 c7 bc 42 a2 ef bb
       0.0015460793 -0.020958753 -0.024394747 -0.007313044
0000b0 4d 7c 97 3b b5 4b b9 3c d9 1e 3e 3b ba 26 15 bc
       0.004622972 0.022619108 0.0029010086 -0.009103471
0000c0 aa 45 21 bc 0f a5 47 bc b5 e2 a9 bc 09 32 49 bb
       -0.009843269 -0.012185349 -0.020737985 -0.003069999
0000d0 39 48 d2 3c 58 e4 0e bd ac 8a 6f bb ad e2 3d 3c
       0.025669204 -0.034885734 -0.003655116 0.011589688
0000e0 2d cd 22 bc 1d 0e 5c bc 80 82 d5 bb f1 34 42 3c
       -0.009936613 -0.013431099 -0.006515801 0.0118534425
0000f0 77 21 3b 3b 04 70 b3 bb 88 8f f5 bb 17 79 fe 3a
       0.0028553882 -0.005476 -0.007493917 0.001941475

sequential_2/conv2d_1/Conv2D f4 [64, 3, 3, 32]
000000 1d 11 c9 bc 1f ed 1e bc 34 80 7e bc 31 fe 2a bc
       -0.024544293 -0.009700089 -0.015533496 -0.0104365805
000010 57 bc 1b 3d 24 35 4e 3d f8 53 3a 3d 49 23 91 3d
       0.03802141 0.050343648 0.045490235 0.07086808
000020 ee 93 23 3d ec fe 47 3d 81 ba 88 bd f1 88 5f 3b
       0.039936 0.048827097 -0.06676198 0.0034108723
000030 76 82 8a bc 5d f9 3f bd 87 2f 63 bd a5 73 26 bd
       -0.016907912 -0.04686867 -0.055465247 -0.04063763
000040 94 78 72 3d 85 28 fc bc 89 23 58 3d 1b 9a 01 3d
       0.059197024 -0.03078104 0.052768264 0.031641107
000050 70 9b 80 3c e1 34 a4 bd 36 de d8 bd 60 f4 dc bc
       0.015699118 -0.08017898 -0.105892584 -0.026971996
000060 31 53 86 3d 6b cf 54 3c f1 26 b4 3c f1 c1 9c bd
       0.06558836 0.012988905 0.021991225 -0.07654179
000070 1d 9e 82 3d fe cd 0b 3d 82 b7 be 3d 98 1a ae 3b
       0.06377814 0.034131996 0.09312345 0.005313229
000080 08 61 d0 3b 21 03 69 bd a1 0c 9c 3d 83 bd 04 bb
       0.0063592233 -0.05688775 0.07619596 -0.002025456
000090 e3 2e e4 3b 1b ad 0d bb f9 ee c9 bd 1a 92 88 bd
       0.006963597 -0.0021618071 -0.098600335 -0.06668492
0000a0 ad d5 8c bd df 6c aa 3c df 37 5d 3d 7c e7 a6 bd
       -0.06876693 0.020803867 0.05400836 -0.08149621
0000b0 a0 bd 30 3d 90 84 b3 bc 6b 11 65 3d c3 f9 0d 3d
       0.04314959 -0.021913797 0.055924814 0.03466202
0000c0 cf d1 1b 3d 7b 52 53 39 67 46 22 3c 33 ad f7 3c
       0.038041886 0.00020153254 0.009904481 0.030233955
0000d0 7a d4 3c 3c c9 e3 88 bc 13 cf cb bd 7d f4 e6 bc
       0.011525268 -0.016710179 -0.09951606 -0.028192753
0000e0 6c 2e ec 3c b0 48 8b bd b1 b4 4b bd 0c e6 70 3c
       0.02883073 -0.068009734 -0.049732868 0.014703285
0000f0 bc 92 de 3c 8d 00 b3 bd fb 8a 9b 3c 7b c3 87 3d
       0.027169578 -0.087403394 0.01898717 0.06629082
000100 71 11 5a 3d 47 5a 21 3d d5 02 09 3d b7 f6 be bb
       0.05323929 0.039392736 0.033449966 -0.0058277505
000110 f6 df 5d 3d 6e a9 69 bd fc 9e 5b bc 44 25 9d 3c
       0.054168664 -0.057046346 -0.013404604 0.019182809
000120 c6 0e 88 bd 04 10 3e bd 4e ca 13 bd 87 ec ba bd
       -0.06643443 -0.046401992 -0.036081605 -0.09127145
000130 38 df e7 bc 05 14 9b bd 1f bf 6d 3d 62 f9 28 3d
       -0.028304681 -0.07572178 0.058043595 0.041253455
000140 2a 76 c8 bc 57 f9 ad 3c b7 9e d0 3d 0f e6 31 bd
       -0.024470408 0.021237059 0.101865225 -0.04343229
000150 f4 b7 97 3d b4 a1 e1 bc 50 bf 8c bd 62 2c 05 3a
       0.07408133 -0.027542926 -0.068724275 0.0005080161
000160 39 d3 b4 bd 62 f3 4a 3d 0c a5 ad bd 5a 35 9f bd
       -0.0882935 0.049548514 -0.08478746 -0.07773848
000170 ce 62 bb 3d f7 c5 1f bc 26 25 c6 3d f8 cc 63 bd
       0.09149705 -0.009751788 0.09675054 -0.055615395
000180 be 8a eb bd 2d ab 36 bd 66 7d 86 bc 6f aa 97 bc
       -0.11501072 -0.04459684 -0.016417217 -0.018513886
000190 7c d0 c4 3c a5 e0 ba 3c dc 0f a8 3a 79 bc 4f 3d
       0.024025194 0.022812197 0.0012822109 0.05071685
0001a0 d3 b0 8e bd ed ff 26 bd b7 86 71 3d eb fd b2 bd
       -0.0696732 -0.040771414 0.058966365 -0.08739837
0001b0 c4 8f 5f 3c 37 c1 6c 3d f8 b0 f1 3c 60 59 e1 bb
       0.013645116 0.05780145 0.02950333 -0.0068771094
0001c0 9b 34 23 3d 2f 08 51 3d 50 29 65 3d 67 77 05 3d
       0.03984509 0.051033195 0.0559476 0.032584574
0001d0 9b 97 b3 3c 9d 7d 82 bd 30 3b 2f bd e2 d2 83 3b
       0.021922877 -0.06371615 -0.042781055 0.004022942
0001e0 fe 17 ea 3c 82 b5 a3 bb f2 7e ce bb c5 34 fd bd
       0.028575893 -0.0049960027 -0.006301754 -0.123635806
0001f0 72 c2 d1 3d a4 52 26 bd c2 7d 93 bc 1e 57 f4 bb
       0.102421656 -0.040606156 -0.018004302 -0.0074566742
000200 5d 13 d4 bd d7 1b 6e 3d 8c 9f 20 bd 3c de 9f 3a
       -0.10355256 0.05813202 -0.039214656 0.0012196968
000210 cb d9 57 bd 8d 34 ba 3d 45 27 06 3d 4a 1b b8 bc
       -0.052697938 0.090920545 0.032752294 -0.02247395
000220 1e 36 ef bd 08 78 73 3d 7c f6 72 bd 84 47 35 bb
       -0.11680244 0.059440643 -0.059317097 -0.0027661035
000230 0f 7e 5b bd 48 23 34 3d 7f fc 2d bc 07 17 c7 bc
       -0.053587016 0.04397896 -0.010619282 -0.024302972
000240 5f ff a5 bd 67 68 da 3c 8c 15 8b 3d 99 da 63 bd
       -0.08105349 0.026661111 0.06791219 -0.055628393
000250 4e 04 11 3b 1c 72 d1 bc 3c 92 cf bc 40 69 86 3c
       0.002212781 -0.025567107 -0.025338285 0.016407609
000260 d2 4f b9 bd 70 dc ed 3c cd 43 ad bc bb e0 e8 3c
       -0.09048428 0.029035777 -0.021150494 0.028427472
000270 3f 20 62 3d 69 75 b5 bd d8 f6 4f 3d ce cb 8f 3d
       0.055206534 -0.08860285 0.050772518 0.070212945
000280 59 60 c4 bd b9 b6 8f 3d ee 11 86 bd 6e b4 80 bd
       -0.09588689 0.070172735 -0.065463886 -0.06284414
000290 62 25 56 bc d7 f2 91 bd f5 82 b0 3b 9a ba 9c bd
       -0.013070436 -0.07126396 0.005386705 -0.07652779
0002a0 54 f2 e2 3c 08 c8 31 3d d7 fb 13 3b ea d9 2d bd
       0.027703442 0.043403655 0.0022580528 -0.042444147
0002b0 f9 db 60 bd fe 6f 96 bc 03 d7 06 3d f8 2d c0 3c
       -0.054897282 -0.018363949 0.032919895 0.02345942
0002c0 30 6b 53 bd a6 a2 46 3d f4 d2 61 bc c5 f4 75 bb
       -0.051615894 0.048494957 -0.013783205 -0.0037529927
0002d0 99 ae 94 bc 8b 49 9a bc 56 9e 3e bc e2 61 bd bd
       -0.01814966 -0.018833896 -0.01163443 -0.09247185
0002e0 ed 3b f7 3b 4d e0 f3 bd 58 4e 06 3d 11 8b a0 bd
       0.0075449855 -0.11908016 0.03278956 -0.07839025
0002f0 91 00 d2 3d 7e 01 a7 bb e1 38 22 bd 40 17 13 bd
       0.10254014 -0.0050966134 -0.039605025 -0.035910845
000300 33 e6 b1 bd 1a 97 1d bb 00 84 4e 3d 28 2a ce bd
       -0.08686485 -0.0024046362 0.050418854 -0.100666344
000310 14 b7 bd 3c 19 da 75 bd 26 3b c0 3c 94 09 57 3c
       0.023158588 -0.060022447 0.023465704 0.013124842
000320 37 0e 3e bd 6c a4 6c 3d cb 4d 84 3d 8c 6a af bc
       -0.046400275 0.057773992 0.0646015 -0.02141311
000330 b8 24 c4 bc 92 91 52 3d 9c 67 5c bd f2 bf c5 bc
       -0.02394329 0.051408358 -0.053809747 -0.024139378
000340 f4 2b ca bc 2a 36 50 3d 71 4c c8 bc 26 69 00 3a
       -0.024679162 0.050832905 -0.024450513 0.0004898481
000350 de ce 81 bc d5 ac 2d bd 72 78 9e bd 50 51 a3 bd
       -0.015845712 -0.042401154 -0.07737817 -0.079744935
000360 5b 28 2e bd ad 10 2e 3c 72 58 89 bd 13 e5 aa bd
       -0.042518955 0.010624093 -0.06706323 -0.08344474
000370 d1 f5 99 3d 1e 53 7a bd 45 c8 79 bc 12 fc b6 bd
       0.07517589 -0.061114423 -0.015245502 -0.08934797
000380 21 5f 3a 3d fa d5 0e bd dc af 9f bd 09 c0 bc bc
       0.04550088 -0.034872033 -0.077972144 -0.023040788
000390 30 0d 12 3d f1 18 88 bd ef 85 ee bc e2 fc 2e 3d
       0.035657108 -0.06645382 -0.029116599 0.042721637
0003a0 7b bb 29 bc 42 1c 90 bd f6 48 f6 3b a1 aa 85 bb
       -0.01035964 -0.0703664 0.007516022 -0.0040791784
0003b0 86 b6 84 3c fd fc 82 bc 9b 0e 5e 3d 85 5b 6f bd
       0.016200315 -0.015989775 0.054213148 -0.05843689
0003c0 80 a1 18 bd 89 d5 c9 bd 8a 5d b6 3d 18 e2 7a bd
       -0.037263393 -0.09855182 0.0890456 -0.061250776
0003d0 77 0d b2 3d d7 e1 5d bd 43 f8 bd bc 4f d6 df 3c
       0.086939745 -0.054170456 -0.02318967 0.02732387
0003e0 c0 d5 4f 3c c8 d9 00 bd 2a 25 dd bc da ee 41 bd
       0.012685239 -0.031457692 -0.02699526 -0.047346927
0003f0 38 f6 48 bd 0c d4 d6 3c 62 f0 54 bd 14 51 17 3d
       -0.049062937 0.026224159 -0.05198706 0.036942557

sequential_2/conv2d_2/Conv2D f4 [64, 3, 3, 64]
000000 ef b4 19 bd fe 46 29 bb ad f1 68 bd 7f 49 83 bd
       -0.037526067 -0.0025829668 -0.056871105 -0.06410503
000010 47 b0 2c bd 9e e1 9f bb ee 47 13 bc 0a 75 56 3d
       -0.0421603 -0.0048791906 -0.008989317 0.05235771
000020 9e 6c b9 3c 42 44 4d bd 7b ee 33 3d 59 9b 9f bd
       0.0226348 -0.050113924 0.043928605 -0.07793302
000030 f2 b0 34 bd b1 23 26 3d e9 c7 1e bd 99 7e 58 3d
       -0.04411406 0.04056138 -0.038764868 0.052855108
000040 7b e8 47 bd 71 92 a2 bd 5c 9c 71 3d 77 af 82 3d
       -0.048805695 -0.07938088 0.058987007 0.063811235
000050 1a 20 d0 3b 26 4e 1c 3d 2c 8e c3 bb 0c 89 7a bc
       0.006351483 0.038160466 -0.005967876 -0.015291464
000060 1f 0f 94 bd 06 37 7e bd b9 55 ff 3c a9 cc e1 bb
       -0.072294466 -0.062064193 0.031168805 -0.0068908525
000070 4c db 57 3d d1 f9 23 bd b6 13 4b bc 06 63 08 bb
       0.052699372 -0.040033165 -0.012394836 -0.0020810976
000080 81 76 f7 3c f3 60 81 3d 61 23 86 bd 89 62 41 3d
       0.030207874 0.0631732 -0.06549717 0.04721311
000090 50 bf a9 bb 8a ab 75 bd b6 c4 53 bd 51 37 98 bc
       -0.005180277 -0.059978046 -0.05170127 -0.018581064
0000a0 8e 50 05 3d 11 db ed bc 85 c6 33 3c 1a a3 9b bd
       0.032547526 -0.029035123 0.010972624 -0.075994685
0000b0 26 89 92 bd 4d fa 64 bd 1f 47 a7 3a 22 28 1d 3d
       -0.07155065 -0.055902768 0.0012762285 0.03836835
0000c0 3a 89 78 3d 83 d9 1b bb 73 79 9d bc e6 d1 c5 ba
       0.060677744 -0.002378077 -0.01922295 -0.0015092462
0000d0 f8 35 35 3b 42 f7 13 3d bd 6d 53 3d 07 5f a0 bd
       0.0027650576 0.036124475 0.051618326 -0.07830625
0000e0 39 5f 78 3d 27 d7 30 bd 7c c7 08 bd 0f b2 e9 bc
       0.060637686 -0.043173935 -0.033393368 -0.028527288
0000f0 18 62 00 bb 82 84 08 3d a1 b3 a6 bd 2a ce 7e bd
       -0.0019589718 0.033329494 -0.0813973 -0.062208332
000100 01 16 a1 3a 19 a7 e9 bc 1f 89 99 bd 9c a4 bd bc
       0.0012289883 -0.028522061 -0.07496857 -0.02314978
000110 6c 42 05 3b 2b 1a 41 bd 19 ed 9f bd 82 5a 63 bd
       0.002033378 -0.047144096 -0.07808895 -0.055506237
000120 17 f3 3b 3d eb 5c 81 3d ca c0 94 3c 96 24 8e bc
       0.045886125 0.06316551 0.018158335 -0.01735143
000130 57 f4 81 3d 04 87 32 bd d3 4f 49 bc 3c 56 eb 3c
       0.06345432 -0.043585792 -0.012287098 0.028727643
000140 98 6b 8c bd 87 7d 2f bd 54 f0 39 bd d4 6b bb 3c
       -0.068564594 -0.04284432 -0.04539521 0.022878565
000150 71 0c 58 3d c2 ea b9 3b 2f 7a e5 3c af 1f a9 bd
       0.05274624 0.0056737373 0.028012363 -0.08257996
000160 34 ac 8d bd 22 4a a6 bd a1 d6 f3 3c 36 c4 9b bd
       -0.06917611 -0.081196085 0.029765429 -0.07605784
000170 f2 f1 83 bc 73 fd 34 bd f9 03 3b 3d 1b 7f 93 bd
       -0.01610658 -0.04418702 0.045658085 -0.07201978
000180 c5 22 4d bd 2b 72 34 3c a3 d2 39 3d f0 95 2f 3b
       -0.050081987 0.011013548 0.045366894 0.002679225
000190 06 8a e7 b9 8b f1 89 bd ca 98 36 bd bf 20 bb 3b
       -0.0004416259 -0.06735524 -0.044579305 0.0057106907
0001a0 a3 c8 fb bc ee b8 0a 3d e5 6f df 3b 1f 7b 97 bd
       -0.03073532 0.03386777 0.006818759 -0.0739653
0001b0 1f f2 79 3c 6a 00 9e bc 44 26 64 bc 5f 08 6b bc
       0.01525548 -0.019287307 -0.013925139 -0.014345258
0001c0 ff b8 04 bd 54 5c 00 3b 7a 85 1e bd e9 03 14 bd
       -0.03240299 0.0019586282 -0.038701512 -0.03613654
0001d0 69 f4 f6 bc 39 1d 04 bd 0e 07 cb ba 86 df 79 bd
       -0.03014584 -0.03225443 -0.0015489773 -0.061004184
0001e0 56 58 15 bd 6f 6b 45 3d f5 49 f7 bc bb ba 40 3d
       -0.036461197 0.04819816 -0.030186633 0.04705308
0001f0 2d af 2f bc b2 7f 9b bb 73 23 b9 bd 91 3a 54 3d
       -0.0107229175 -0.004745447 -0.090399645 0.051813666
000200 d1 98 c8 3a c5 69 97 bd d5 7c 16 bd 2f db 0a bd
       0.0015304332 -0.07393221 -0.036740143 -0.033900436
000210 db 28 76 3d 43 7d 00 bc 5f 93 97 3c ab e1 b8 39
       0.060097557 -0.007842365 0.01850289 0.0003526335
000220 02 ae 8a 3c 46 62 00 bd 7f 93 6a 3d b6 bc c3 3b
       0.016928677 -0.03134372 0.05726957 0.005973424
000230 c8 9a f6 3c 45 a0 4c 3c ef 96 ba 3c cc 91 5b bc
       0.030103102 0.012489383 0.022777049 -0.01340146
000240 47 89 8d 3d 96 88 62 3d 16 12 a4 bc 28 b1 f9 bc
       0.06910949 0.05530604 -0.020028155 -0.030479982
000250 3c 65 ac 3c 7d 41 31 bd db 37 90 3c 2b 7f 09 3d
       0.021044366 -0.043275345 0.017604759 0.033568542
000260 c8 99 f4 bc f1 8a 8a bc 6a 2a 54 bd 4f 3b 59 3c
       -0.029858485 -0.016911956 -0.05179826 0.013258769
000270 39 66 6b bc 15 50 73 bc ba 51 c3 bc 1d c7 84 3c
       -0.0143676335 -0.014850636 -0.023842681 0.016208226
000280 ed ef d2 3c 26 a7 e1 bc f5 45 75 bd c8 4e 40 3d
       0.025749171 -0.027545523 -0.05988117 0.04695013
000290 f0 8c 2e bd 36 7d 26 3c 7e 13 93 bc a6 1d 05 3b
       -0.042614877 0.010161689 -0.01795363 0.0020311861
0002a0 19 b3 7d bd 41 c9 85 bd 0e 01 88 bd c4 6f 34 bc
       -0.06193838 -0.06532527 -0.06640826 -0.011012975
0002b0 92 3f 80 3d 1e 8a 57 3d 39 c2 f3 bc 73 83 4a bc
       0.06262125 0.052621953 -0.029755699 -0.0123604415
0002c0 c1 7e 94 3d be aa c1 38 1a 73 52 bd 19 6e d4 3c
       0.07250739 9.2347604e-05 -0.0513793 0.025931405
0002d0 7a 1f 6f 3d 36 cb 96 3b 78 ee 8b 3d 90 16 87 bd
       0.058379628 0.0046018614 0.06832594 -0.065961
0002e0 26 2d 61 bd ea 29 92 3d 02 9c 44 3c 31 62 96 3d
       -0.054974698 0.07136901 0.012000086 0.07342947
0002f0 ac 64 eb bb 7a 64 35 3d 66 ec 16 bd c1 39 9b 3c
       -0.007183632 0.044285275 -0.03684654 0.018948438
000300 39 54 44 3d 61 70 23 3d 64 70 16 3d 35 66 6a bd
       0.047931883 0.039902095 0.036728278 -0.05722638
000310 26 ab 8d bc 97 68 aa bc 9d 1d b6 3b 20 c5 6b 3c
       -0.017293524 -0.020801825 0.0055577294 0.01439026
000320 d7 99 59 bd 3c 34 33 bb 23 1c ea 3b 87 43 89 38
       -0.05312523 -0.0027344367 0.0071444674 6.545247e-05
000330 93 85 8e bd 34 4e 51 bd 27 1b 24 3d c7 d4 d1 bc
       -0.06959071 -0.05109997 0.040064957 -0.025614155
000340 50 f8 3c bc 94 8a 3a bd 6e 4b e4 3c 64 ee 86 3d
       -0.011533812 -0.045542315 0.027867999 0.06588438
000350 09 43 9f bd af a4 82 3d 60 0e 1a 3c 47 d0 1e bd
       -0.07776458 0.06379067 0.009402841 -0.038772848
000360 d1 0c 23 3d 2a 5c f2 3c 15 e1 21 3d 28 39 41 bd
       0.039807145 0.029584963 0.039521296 -0.04717365
000370 e3 f4 a7 3c 05 e3 34 bd 7b dc c7 3b 91 9b 52 bc
       0.020502513 -0.044161815 0.0060992814 -0.012854473
000380 c2 15 27 bd c9 ee 02 3d af be 44 bd 8e bc 96 bc
       -0.040792234 0.031966005 -0.048033413 -0.018400457
000390 f1 2c 51 bd b2 d0 aa bd ff 77 85 bd e1 f6 32 3d
       -0.05106825 -0.08340587 -0.06517028 0.043692473
0003a0 8a 1a 15 bc 3b ad 2d 3c 5f 6f 58 3d 31 4a 17 3d
       -0.009100566 0.010600383 0.052840587 0.03693599
0003b0 1a 0c 42 3d 58 a1 4d bd 7b d7 5e bd 90 45 aa 3c
       0.047374822 -0.050202698 -0.054404717 0.020785123
0003c0 d7 d4 2a bd 6e e9 4c 3d 37 05 87 3d 03 a3 dd bb
       -0.041706886 0.050027303 0.065927915 -0.0067638173
0003d0 60 97 4e bd 5a c6 e5 3c f4 a2 31 3b 6b bc be 3c
       -0.05043733 0.028048683 0.0027105184 0.023283204
0003e0 68 b7 06 3d e9 78 2b 3c 70 e3 9c bd e8 28 70 3d
       0.032889754 0.010465839 -0.07660568 0.05863276
0003f0 d4 24 81 bd 07 0e c4 3b bb 68 0f 3d 48 53 ca bb
       -0.063058525 0.0059831175 0.035011988 -0.0061744787

sequential_2/conv2d_3/Conv2D f4 [64, 3, 3, 64]
000000 8f 52 69 3d b7 ea c8 bb 21 71 f8 39 c6 fb 84 bb
       0.0569635 -0.006131496 0.00047386534 -0.004058334
000010 37 88 0b 3d 7c bf bd bd de 2d 06 3c d6 cc 7f 3d
       0.03406545 -0.09265038 0.0081896465 0.062451206
000020 68 85 4e bd 16 e6 37 bd eb 65 f9 3c ed fa 96 3d
       -0.050420195 -0.04489716 0.030444106 0.07372079
000030 e3 ed af bc b1 54 61 bd c1 17 2b 3d 97 f4 08 3c
       -0.021475738 -0.05501241 0.0417707 0.008359096
000040 e3 9b 65 3d 56 e0 22 bd 17 cd 62 bd f9 d0 44 bc
       0.05605687 -0.039764725 -0.05537137 -0.012012714
000050 0f c4 27 3d 09 71 51 bd 61 4a a8 bc 32 86 78 bd
       0.04095846 -0.05113319 -0.02054328 -0.060674854
000060 d3 87 4a bd 60 6a 7b 3d 12 b3 b4 bb c2 d4 c2 3b
       -0.04944594 0.061380744 -0.005514511 0.005945773
000070 66 55 6c bd 99 db 5b bd 41 0f 96 bd 02 ae 67 3d
       -0.05769863 -0.05367622 -0.07327128 0.05656243
000080 fa d6 29 3d e1 a1 42 3d 0a 49 5e 3d 99 39 3a bd
       0.041464783 0.04751766 0.054268874 -0.045465086
000090 65 9c b7 3c e7 ea b4 3c d8 3b 6b bd 13 e3 38 3d
       0.022413442 0.022084666 -0.05743012 0.04513843
0000a0 6d b3 4e bd 62 1a 69 bd 75 4a a0 bd 21 c9 9a 3a
       -0.050464083 -0.056909926 -0.078267016 0.0011809209
0000b0 54 88 84 bd df 05 08 3d ad 2c b7 bd cf 6d eb 3c
       -0.06471315 0.033208724 -0.08944068 0.028738884
0000c0 8e 68 07 3d a0 02 6d bd 57 bf 3c 3d e8 02 ea bc
       0.033058695 -0.05786383 0.046080913 -0.028565839
0000d0 fa df 60 bd 1b 38 64 3d 4d 3e 80 bd eb 69 82 3b
       -0.0549011 0.05571757 -0.06261883 0.0039799116
0000e0 dc 4b cc bd 95 1e 20 bc 50 83 93 bd 8d 90 60 bd
       -0.099754065 -0.009772916 -0.0720278 -0.054825354
0000f0 c3 40 b5 3c 45 7d 0d 3c c3 5a ed 3a 34 98 cc bc
       0.022125607 0.008635824 0.0018108714 -0.02497492
000100 e0 8f a0 bc 2c 0e 7c bd 8c b6 ac 3c 51 41 eb 3c
       -0.019599855 -0.061536953 0.021083139 0.028717669
000110 fe 74 83 bb 91 cb 54 bc 7f 57 8d 3c ba 5a 83 3d
       -0.0040117493 -0.012987987 0.017253635 0.06413789
000120 35 0d be bc 9f 2c 33 3d 17 30 aa 3c b0 31 12 bd
       -0.023199657 0.043743726 0.020774884 -0.035691917
000130 51 3d 15 3d 03 3d e4 3c e4 52 70 3d 0c fa d1 3c
       0.03643543 0.027861124 0.0586728 0.025631927
000140 a1 c7 51 3c 5e a4 96 3c 2c 3d 2b bb 02 4e 1d bc
       0.012803943 0.018388923 -0.002612899 -0.009601118
000150 b8 48 88 3d c8 9c 8c 3c f8 9f ee 3b 06 21 42 bd
       0.06654495 0.017164603 0.0072822534 -0.047394775
000160 9e e8 68 bd 00 c6 4a 3d 05 bb 8b 3d 5b 2f 6e bd
       -0.056862466 0.049505234 0.068227805 -0.05815063
000170 4a c1 ac 3b 5c b8 37 3c 08 e0 a3 bd 68 98 8f 3d
       0.0052720653 0.011213388 -0.08001715 0.07011491
000180 d9 6c 34 bd 57 97 c5 3c ca 8e 1e bd 6e 16 d8 3c
       -0.044049118 0.024120016 -0.038710393 0.026377883
000190 ea 67 93 3d 7b 5f 7c 3d 25 7f 28 bd 1e aa 26 3c
       0.071975544 0.061614495 -0.04113688 0.010172395
0001a0 8e 86 c4 bc 7c 4a 33 3a e0 cf a7 bc fe 8e a9 bd
       -0.023989942 0.0006839407 -0.020484865 -0.08279227
0001b0 af be 65 bc e6 1a 0d 3b e4 77 4d bd 55 ac ec bc
       -0.014022513 0.0021530925 -0.050163165 -0.028890768
0001c0 53 2e 53 bd 0a 56 20 bd d8 92 d8 3a 52 4c 1d bc
       -0.05155785 -0.039144553 0.0016523255 -0.009600716
0001d0 94 01 5a bd 74 0f 7f 3c 69 ed 49 bd 65 4f 34 bd
       -0.05322416 0.015567649 -0.049298678 -0.04402103
0001e0 6e 1e ba bd 65 cd 18 bd 5d c7 ea 3b 4a f9 67 3d
       -0.09087835 -0.037305254 0.0071648792 0.056634225
0001f0 60 ef 46 3b 59 66 af 3b de bd 91 3c 96 77 8c 3d
       0.003035508 0.005352777 0.017790731 0.06858747
000200 ed e1 1f 3d 4e 25 a3 bc b5 5d f0 bc e7 1e fd bb
       0.03903382 -0.01991525 -0.029341558 -0.007724631
000210 b8 48 bf 3a a7 28 90 bc d4 b9 07 bd 98 c9 44 bd
       0.0014593815 -0.01759751 -0.033136204 -0.048043817
000220 4b 33 3b 3d c7 91 06 3d 59 fb 26 3d b1 bb 44 3d
       0.045703214 0.032853868 0.040767048 0.04803056
000230 6a ca 8b bd 43 ba 69 3d 93 cc 10 bb 9d 08 83 bc
       -0.06825717 0.0570624 -0.0022094592 -0.015995318
000240 97 10 17 bd 48 2f 5b 3d 3b 32 86 3c 35 95 70 bd
       -0.036881056 0.053511888 0.016381374 -0.058736045
000250 4b 09 cf bc 3c 15 26 3b cc f3 7f bd 5b 02 2b 3d
       -0.025272986 0.0025342247 -0.062488362 0.041750293
000260 a3 a9 ee 3c 5c d4 c6 3b 56 a5 45 bc 66 5a 01 3d
       0.029133623 0.0060677957 -0.012063345 0.03158035
000270 58 83 25 3d 72 7f 68 3d c1 39 f2 3a 16 65 0f 3d
       0.040408462 0.056762166 0.0018480347 0.035008512
000280 ad 30 3f bd 28 fe 66 bb 93 17 22 3d c6 57 0c 3d
       -0.04667728 -0.0035246704 0.039573263 0.034263395
000290 29 5c ed bc 66 3c 38 bd 89 78 0a 3d 5a c0 99 bd
       -0.02897461 -0.044979475 0.033806358 -0.07507391
0002a0 dd c2 95 3c f2 56 95 3d f8 a5 39 bd cd 16 4c 3d
       0.018281395 0.07291974 -0.045324296 0.049826432
0002b0 35 88 05 3d c2 73 62 bd dc 7d fa bc 7e c4 84 3d
       0.0326006 -0.055286177 -0.030577593 0.064827904
0002c0 93 1e f4 3b 98 2b f3 bc 08 f9 8a 3c 62 08 19 bd
       0.007449934 -0.029683873 0.01696445 -0.03736151
0002d0 d8 62 2f bc 8a 26 68 bd 6c e6 4e 3d 36 7b a3 3c
       -0.0107047185 -0.05667738 0.050512716 0.019956212
0002e0 0e 19 1c 3d 51 73 89 bd 74 86 50 3d 36 e1 74 3d
       0.03810983 -0.06711448 0.050909474 0.05978509
0002f0 b7 23 2a 3d 49 5a 60 bd 04 7a 68 bd 3c c2 b5 3c
       0.041537967 -0.054773603 -0.05675699 0.022187345
000300 36 8f 62 3d 08 fa f4 bc 05 67 65 3c 4c b6 67 3d
       0.055312358 -0.02990438 0.014001613 0.056570336
000310 cf f1 77 3d ae 81 0f 3d 59 f0 73 3d 25 65 90 bc
       0.06053334 0.03503578 0.059555385 -0.017626354
000320 39 0b bb bb b9 98 64 b9 2c d6 4a bd 49 a4 6a bc
       -0.005708125 -0.00021800668 -0.049520656 -0.014321395
000330 46 37 94 3c 42 78 3b bc 88 45 61 bd 60 3d 8e bd
       0.018092763 -0.011442246 -0.05499795 -0.069453
000340 b1 25 f4 3b 50 36 81 bd bc ad 38 bc b2 b3 96 bc
       0.007450782 -0.063091874 -0.01127189 -0.018396232
000350 a7 4a 95 3d 70 e9 6b 3c bc 4d 95 3a 69 b6 8d bb
       0.072896294 0.014398918 0.0011390965 -0.0043247235
000360 24 d7 45 3d ec de ec bb f7 51 8f 3c 6a 2b e9 3c
       0.048300877 -0.007228723 0.017495139 0.028463084
000370 f9 11 11 3d c2 ba b7 bc 4e 67 4a bd 1c 0e 90 3d
       0.03541753 -0.02242792 -0.049414925 0.07033941
000380 e8 b0 92 3d 24 b6 f7 bc b4 1c 4c bd f6 22 43 3d
       0.071626484 -0.030238219 -0.04983206 0.047640763
000390 e6 5b c6 bc d5 7e 8a 3d e5 c2 8b 3c 1a 07 7f bd
       -0.024213742 0.067624725 0.017060706 -0.062262632
0003a0 49 e1 26 bd 38 a8 79 bd e6 f0 cd bb ad 52 26 bd
       -0.040742192 -0.06095144 -0.006284821 -0.04060619
0003b0 02 87 0a bb 8a 9e 89 3b fd 49 36 bd e4 bc a0 3c
       -0.00211376 0.0041998075 -0.044504154 0.01962132
0003c0 91 83 85 bd cc e6 66 3c 26 73 83 bb 4f f9 70 3d
       -0.06519235 0.014093112 -0.0040115295 0.05883151
0003d0 55 58 66 3d e3 e2 16 bd f2 93 00 3d f2 f3 45 3d
       0.056236584 -0.03683747 0.03139109 0.048328348
0003e0 2e 38 03 3c 40 b6 6c 3d b8 be 68 3c 30 3a 4b bd
       0.008009 0.057790995 0.014205627 -0.04961604
0003f0 f8 e3 b3 3c 91 8d b3 bc 50 b3 a9 bc 04 d2 78 bd
       0.02195929 -0.02191809 -0.020715386 -0.06074716

sequential_2/conv2d_4/Conv2D f4 [64, 3, 3, 64]
000000 f1 69 51 3d 58 3b 72 bc 87 33 71 bd 25 50 5d 3d
       0.051126424 -0.014784656 -0.05888703 0.05403151
000010 09 db 29 3d 5d 63 b3 ba e6 3a 42 3d 19 3e 62 bd
       0.041468654 -0.0013686229 0.04741945 -0.055235002
000020 96 12 86 bd a5 86 1d bd 5a e9 74 bd 94 09 db 3c
       -0.06546514 -0.038458485 -0.059792854 0.026737966
000030 ae 5c 95 3c 9a 4d 00 bd 39 83 c7 3b 3e ca 98 3c
       0.01823267 -0.031324007 0.006088641 0.018651124
000040 cb a3 76 3d 60 4a 9a 3c 08 e8 13 3d 1a f0 48 bd
       0.0602148 0.018834293 0.036109954 -0.049057104
000050 f9 b2 a3 3c e9 5c b2 bc 21 98 93 bb a0 13 7c bd
       0.019982802 -0.021772819 -0.004504219 -0.061542153
000060 3e 75 81 bd 45 d5 81 bd a0 92 27 3c 57 f2 74 bc
       -0.0632119 -0.06339506 0.010227829 -0.014950356
000070 f7 9e eb 3c af 76 90 bc e2 4c 67 3d 95 a8 c6 3c
       0.028762324 -0.017634718 0.056469806 0.024250308
000080 1e 7e 94 bd c4 f2 6b bc 40 7c 64 3d 33 e2 bd 3c
       -0.072506174 -0.014401142 0.055782557 0.02317915
000090 53 0b 0d 3c ea f5 85 bc 9f 20 f6 bc 57 e8 38 bc
       0.008608657 -0.016352613 -0.030044852 -0.011285863
0000a0 45 a9 08 3d fb ba 5d bd e6 6a a2 bd 5f 17 7f bd
       0.033364553 -0.054133397 -0.079305455 -0.062278148
0000b0 51 00 b6 3d 0a 92 21 bc f7 da 31 3d 24 65 6e bb
       0.08886779 -0.009861479 0.04342171 -0.0036376202
0000c0 3f 53 05 3d eb 90 48 3d f6 25 53 3a 67 79 60 bd
       0.032550093 0.04896633 0.0008054668 -0.05480328
0000d0 a1 9d 6e 3d 3f 4a 87 3d 01 d6 90 bd c1 da 5f 3d
       0.058255795 0.06605958 -0.07072068 0.05465198
0000e0 4f d4 75 bd c5 c0 a8 bc fb fd 84 bc 51 8e c1 3b
       -0.060016926 -0.020599732 -0.016234389 0.005906858
0000f0 aa 74 96 bd 64 dd 23 3d cf 9f ad bc 24 13 91 bd
       -0.07346471 0.040006056 -0.021194367 -0.07083729
000100 ba 5d 65 3d eb 0b f1 bb 46 40 05 3d 4a 32 40 bd
       0.055997588 -0.007356157 0.032532 -0.04692296
000110 cc 49 56 bd 7a a3 8e 3a f8 70 18 3c ba 39 b3 bc
       -0.052316472 0.001088246 0.009304278 -0.021878112
000120 10 df 8a 3d 3a 93 88 3c 3d 16 c8 3c 73 5c 3d 3d
       0.06780827 0.016671766 0.024424667 0.046230745
000130 8f 69 0e bd 6e 46 bc bc 5e 97 8c b9 25 ab ee bc
       -0.034768637 -0.022982802 -0.00026815658 -0.029134342
000140 df 43 1d bd 8e 91 b0 bc 9c c3 a4 bc 55 2b eb 3c
       -0.038394805 -0.02155378 -0.020112805 0.028707186
000150 4b f1 ab bd 41 ec 9c 3c c9 fe 15 bd 0c 00 a9 bd
       -0.08395632 0.019155623 -0.036619935 -0.08251962
000160 e6 22 10 bb 6e 8f ae bc 02 1f 61 3c 26 f5 08 3c
       -0.0021993457 -0.021308627 0.013740303 0.008359229
000170 c7 f4 c4 bd b2 f7 8f bc 3b e6 55 bd a8 c3 be 3c
       -0.09617 -0.017574165 -0.052221518 0.023286656
000180 58 ac 44 bd a8 47 5d 3d 36 c4 7b 39 12 6e a7 3c
       -0.048015922 0.054023415 0.0002401032 0.020438228
000190 bc a6 7c 3d d8 5d 98 bb 3c 63 df 3c 9a 82 e2 3b
       0.061682448 -0.004649859 0.027268998 0.0069125416
0001a0 31 58 96 3c 1e ce d7 bc e8 c6 2a 3d 17 96 8d 3c
       0.0183526 -0.026343402 0.041693598 0.017283482
0001b0 f2 34 bd 3d 55 d4 07 3d 54 0e f2 bc 31 cc 40 bd
       0.09238614 0.03316148 -0.029547848 -0.047069732
0001c0 d2 ed dd 3c 5e 35 43 bd 5d 7c a2 3b 06 f4 82 3b
       0.02709094 -0.047658317 0.004958673 0.003996375
0001d0 a6 9e db bc 5d 17 88 3d f8 ac 0d 3d 71 74 ad 3c
       -0.026809048 0.06645081 0.034588784 0.021173688
0001e0 84 dd d3 bc 82 a7 1f 3d cc 09 48 3c 0f 3d 23 3d
       -0.025862463 0.038978107 0.012209367 0.039853152
0001f0 db 8c 4e bd ef 6b 14 bd dc 41 7c bd 91 79 66 3d
       -0.0504273 -0.036235746 -0.061586246 0.05626828
000200 49 5a 15 bd 6d 11 8b bd 0e 28 88 bd b6 00 66 bd
       -0.036463056 -0.06790433 -0.06648265 -0.05615302
000210 a7 5f c2 bd 9d 04 c5 bd 49 55 42 3c b4 1b 75 3d
       -0.094909005 -0.096200205 0.011861154 0.059840873
000220 a8 2c 37 bc ec 7f 3e 3d f0 a8 ea bc fd 5f 65 bd
       -0.0111800805 0.046508715 -0.028645009 -0.055999745
000230 16 0a 86 bd 2e ca 93 bc 2d 57 64 bd a9 20 b6 bc
       -0.065448925 -0.018040743 -0.0557472 -0.02223237
000240 bb 7a 5b bd 09 50 d3 bd 34 86 77 bd 01 fb 22 3c
       -0.05358384 -0.10318 -0.06043072 0.009947539
000250 04 62 e8 bd 21 4b 07 3d f8 20 92 bd fc 6b f8 3c
       -0.1134682 0.033030633 -0.071351945 0.030324928
000260 19 d5 12 3d ed 97 a7 bb 16 02 12 3c cd 4c db 3c
       0.035847757 -0.0051145465 0.00891163 0.02677002
000270 7e cd ff bc ef bc 0c bc f2 a8 3c bd fb 04 bb bd
       -0.031225916 -0.008589967 -0.046059556 -0.09131809
000280 5e 58 34 bd 9c ad 51 39 91 2f 26 3d 89 73 f5 bc
       -0.044029586 0.00019996468 0.040572707 -0.029962318
000290 9f 8a 4a 3d 8f 71 70 bd 2c 4a cf bc c3 74 89 bd
       0.049448606 -0.058702048 -0.025303923 -0.06711724
0002a0 3a 91 d3 bc fe 7a 04 bd 8a c0 ee 3c 86 84 46 3c
       -0.025826085 -0.032343857 0.029144544 0.012116557
0002b0 fb e9 21 3d 70 01 05 3c 7b a0 4f 3d ee ce c5 bd
       0.03952978 0.0081180185 0.050690155 -0.09658609
0002c0 25 ba 75 bd 5a 54 c1 bc c0 29 1f bb ea eb 4f 3d
       -0.059991974 -0.023599792 -0.002428636 0.050762095
0002d0 77 c1 cf bc 4b bb 69 bd b9 95 23 3c 67 ff 01 bc
       -0.025360806 -0.057063382 0.009984427 -0.007934428
0002e0 ee e8 d0 b9 30 ab 93 bd 9b ee 9e bd 0d 25 ee 3c
       -0.00039846398 -0.07210386 -0.07760354 0.029070402
0002f0 42 fe 28 bd db 28 d2 3c 41 c9 5e bd d8 56 b0 3c
       -0.041258104 0.025654247 -0.05439115 0.021525785
000300 16 f4 11 bc 57 41 94 3d 72 ce 4a bd 7d eb 60 3c
       -0.008908292 0.07239025 -0.049513288 0.01372802
000310 04 a8 c6 bb 1c 4e 40 bd 56 9a 58 3c cf 01 51 3d
       -0.0060625095 -0.04694949 0.01322039 0.051027115
000320 5e 69 df 3c a3 3c 53 3c 5e 09 87 bd b0 47 3e 3d
       0.027271923 0.012892875 -0.065935835 0.046455085
000330 4b 23 6e 3c 87 36 f1 3b d5 68 4f 3d f1 47 0b bd
       0.014534782 0.0073612365 0.050637085 -0.034004156
000340 74 77 78 bc 7b c7 b1 bb 18 96 4b 3d 38 0a 67 3d
       -0.015165199 -0.0054253913 0.049703687 0.05640623
000350 bd c0 a6 3c 8a 80 d0 bb 0e e5 75 3d 8a a9 58 3d
       0.020355577 -0.0063629793 0.060032897 0.05289606
000360 56 7c 19 bd 03 f8 51 bc 05 bf 40 bc f7 ca 0d bd
       -0.03747209 -0.012815478 -0.011764293 -0.03461739
000370 03 93 43 3d 7f 3b 6e bd 37 0b be bc 60 72 4b 3d
       0.047747623 -0.05816221 -0.023198707 0.049669623
000380 8f da 7d 3c 71 6f 93 bd 52 72 12 bd 2c 4a 18 bd
       0.015494003 -0.0719899 -0.035753556 -0.03718011
000390 0a 51 6c 3d 0f 53 fc 3b 5e 3b 7e 3a 46 79 f9 bc
       0.057694472 0.007700331 0.00096981775 -0.030453335
0003a0 fd 72 a9 bc 17 14 6e 3d 1c e0 c6 bc 93 03 f5 bc
       -0.020684713 0.058124628 -0.024276786 -0.02990893
0003b0 ed e3 65 bc bc 9b 6a bd 42 d2 22 3d ad 50 87 3d
       -0.0140313925 -0.057277426 0.0397513 0.066071846
0003c0 2e 5e c8 3c b1 a9 1d 3d 1f 18 6f 3d 2a 8b 37 3c
       0.02445897 0.03849191 0.058372613 0.011202613
0003d0 8c 67 ac bc 26 4d b2 bd b9 2e 11 bd 7b 2a a7 3c
       -0.021045469 -0.08706121 -0.03544495 0.020405998
0003e0 35 c4 42 3d 1f e9 b3 3c e2 98 01 3d 32 8b ab bb
       0.0475504 0.021961747 0.03163994 -0.0052350992
0003f0 a9 64 f6 3c 82 a9 8c 3d 00 76 9e bc 49 ac 94 bc
       0.030077295 0.068682685 -0.019343376 -0.018148558
