app/src/main/ml/RiceDisease.tflite (tflite, 742084 bytes, 16 tensors)

sequential_2/conv2d/Relu;sequential_2/conv2d/BiasAdd;sequential_2/conv2d/Conv2D;sequential_2/conv2d/BiasAdd/ReadVariableOp f4 [32, 3, 3, 3]
000000 ce 05 32 39 ae b7 00 ba 25 88 d0 38 e7 f8 bd 38
       0.00016977565 -0.0004910183 9.943572e-05 9.058584e-05
000010 3b 7c 9b b9 b1 ed 89 37 a4 92 cc b8 e8 eb 81 39
       -0.00029656463 1.6442356e-05 -9.754792e-05 0.0002478056
000020 22 e9 89 39 3e 98 cb b9 03 de db b7 3b bd c3 39
       0.00026304374 -0.00038832607 -2.6210217e-05 0.00037334286
000030 8f 85 cb 39 da 14 00 39 28 61 af 39 19 9e 1b b9
       0.00038818686 0.00012214799 0.00033450988 -0.00014840848
000040 0d 26 09 ba 01 21 ce b9 42 41 e3 b8 48 3e 8a 39
       -0.0005231805 -0.00039315972 -0.00010836359 0.00026367814
000050 ed e9 0c b9 b8 73 24 b7 a7 1a 1d b9 81 01 03 ba
       -0.00013438585 -9.802105e-06 -0.00014982616 -0.00049974775
000060 2d d6 6f b9 c0 9a 9f 39 b0 b5 c2 b9 b4 0e 68 39
       -0.00022872603 0.0003044214 -0.0003713793 0.00022130721
000070 14 00 04 b9 37 f9 c9 39 3b 7f 3f 38 87 45 d6 39
       -0.0001258853 0.00038523387 4.565644e-05 0.00040869063
000080 3a f9 67 39 54 cb 11 38 83 73 54 38 e2 5c 83 b9
       0.00022122721 3.4760058e-05 5.0652317e-05 -0.0002505547
000090 cf aa a1 39 18 c5 c2 b9 f2 8a 07 39 51 17 04 ba
       0.00030835575 -0.0003714941 0.00012926364 -0.0005038875
0000a0 83 07 b8 39 b6 30 9b 39 06 3b d3 b9 12 f5 fa 39
       0.00035100812 0.00029600196 -0.00040289032 0.00047866307
0000b0 dc 76 1f 3a 77 29 ed b8 53 9d 05 ba 03 35 a5 39
       0.000608308 -0.00011308764 -0.00050969905 0.0003151075
0000c0 8e 3e 08 b8 69 dc 99 b8 c8 c4 a3 38 64 38 01 ba
       -3.2483185e-05 -7.336663e-05 7.809099e-05 -0.00049293623
0000d0 c6 5d 70 b9 67 4e c4 b9 a4 17 dc b9 60 fa 87 b9
       -0.00022923117 -0.00037442448 -0.00041979284 -0.0002593575
0000e0 10 5b f6 b9 27 86 fc 37 54 9b 68 b9 86 c3 b9 39
       -0.00046988623 3.010321e-05 -0.00022183108 0.00035431626
0000f0 e2 2c f3 b9 d3 de 03 ba 2e 2c 81 b9 9f e1 ab b9
       -0.00046382012 -0.0005030457 -0.00024637714 -0.00032783762
000100 6d 4c ba 38 09 48 9b b7 18 8a 0a ba 3a 63 be 39
       8.8834066e-05 -1.8510984e-05 -0.000528486 0.00036313554
000110 72 ed 99 39 01 2c 82 b9 93 0a 9d b8 5e 9d b5 38
       0.00029359345 -0.00024828318 -7.488313e-05 8.6600645e-05
000120 c8 c0 e2 39 2e 0f ee b9 a7 19 7a 39 82 02 06 ba
       0.00043249712 -0.00045406207 0.00023851414 -0.0005112068
000130 5c 6b b2 39 b0 5f 9b 38 2c 72 0b ba d4 73 14 39
       0.00034030795 7.408799e-05 -0.0005319442 0.00014157529
000140 32 97 a7 b9 b2 43 b7 b9 84 73 11 39 81 70 8b 38
       -0.0003196537 -0.00034954917 0.0001387131 6.648992e-05
000150 0c cf 51 39 c5 91 c7 39 e5 c4 12 b8 91 7a a7 b9
       0.00020008924 0.00038064845 -3.4992485e-05 -0.0003194404
000160 50 21 4d b9 a8 b7 19 b8 ca 07 ed b9 9a 60 a8 b9
       -0.00019562733 -3.6649086e-05 -0.00045209966 -0.0003211543
000170 9c b1 cd 39 b7 e6 b2 38 4f ba db b9 f0 fe 26 39
       0.00039232976 8.5306754e-05 -0.00041909746 0.00015925965
000180 3d 1f fc b9 ad 94 42 b9 06 3a 09 ba e5 6d e7 39
       -0.0004808846 -0.00018556668 -0.00052347814 0.0004414163
000190 51 10 ff b9 9c 3b a6 b7 90 a1 e4 b9 b6 9c 71 39
       -0.00048649547 -1.98165e-05 -0.00043607922 0.0002304193
0001a0 87 be a2 38 de 74 f6 b8 26 65 1e b8 9b 22 e0 39
       7.7602504e-05 -0.00011751962 -3.7764337e-05 0.00042750392
0001b0 8a 63 e8 b9 4c d7 e9 39 3c b1 32 37 b6 bd 97 b8
       -0.0004432465 0.00044601632 1.0650892e-05 -7.2355775e-05
0001c0 97 bf 89 38 2a 35 17 ba b0 3f 1a 39 bf c6 fc 39
       6.5683555e-05 -0.0005768115 0.0001471031 0.00048213263
0001d0 f7 cd 39 b9 a2 09 02 ba 28 f6 b4 38 fc 63 31 ba
       -0.00017719703 -0.0004960542 8.628919e-05 -0.0006766913
0001e0 af de 08 ba 0e 63 56 39 d9 52 27 ba 45 ee ab 37
       -0.0005221171 0.00020445531 -0.00063828897 2.0495741e-05
0001f0 b6 75 01 ba c6 9b 1b ba 63 ce c3 39 64 c1 12 39
       -0.00049385 -0.0005935993 0.00037347068 0.00013995689
000200 1d d3 d9 b9 21 7a dc 38 97 5d cb b9 b9 ee d1 39
       -0.00041546757 0.00010513166 -0.00038788907 0.0004004145
000210 0f dd 96 b7 ef 1e d9 39 ab b7 9d 39 1c c4 37 37
       -1.7984332e-05 0.00041412513 0.00030082217 1.095331e-05
000220 3b 41 00 3a 63 20 0a b8 b6 af c6 b8 65 e1 0a ba
       0.00048925326 -3.2931926e-05 -9.4741044e-05 -0.00052978686
000230 e0 41 05 b9 cf b3 85 b6 ac b8 1f ba fd 2e 73 b9
       -0.00012708409 -3.9846414e-06 -0.0006092887 -0.0002319179
000240 4a b8 01 ba b0 fa f8 39 b7 93 d8 b9 c6 0e 5c b8
       -0.00049484207 0.00047489023 -0.00041308787 -5.2465846e-05
000250 b4 f2 14 ba f0 9b ca b9 bf bf 0c 38 f5 a6 21 ba
       -0.00056819175 -0.00038644625 3.355718e-05 -0.0006166541
000260 20 11 9f b9 26 e5 4c 39 0a c1 82 b9 7e f1 da 39
       -0.00030339602 0.0001954032 -0.00024939358 0.00041760126
000270 b6 7a e2 b7 dc 8b 05 ba a9 e0 c1 b9 c3 75 fb 39
       -2.6998441e-05 -0.0005094388 -0.00036979213 0.0004796219
000280 84 15 51 b8 07 57 dc 39 9e 92 94 b9 ba 81 e9 b9
       -4.984952e-05 0.0004202651 -0.00028337998 -0.00044537877
000290 80 46 04 ba 3e 2e ec b8 0b dd c7 b9 e8 48 6d b9
       -0.0005045906 -0.0001126197 -0.00038120928 -0.00022629241
0002a0 bd 01 03 3a 5f 46 9e b9 cf d7 00 ba 48 5e fd 39
       0.00049975124 -0.0003018854 -0.00049149705 0.00048326165
0002b0 44 12 88 b8 10 71 15 b9 b8 c0 9e b9 4b 4b 09 ba
       -6.4883876e-05 -0.00014251866 -0.00030279695 -0.0005237355
0002c0 1d cb c2 b9 9d b3 89 b9 4a e1 36 38 cf c0 a5 b9
       -0.00037153895 -0.000262645 4.3602e-05 -0.00031614906
0002d0 85 03 34 39 01 2c ad b8 d0 b8 d0 39 9f 3c e5 38
       0.00017167449 -8.257479e-05 0.00039810548 0.000109308625
0002e0 56 79 06 ba 92 5d b2 38 af 07 a4 b9 c2 c8 f3 b9
       -0.0005129775 8.50513e-05 -0.00031286242 -0.00046498148
0002f0 32 04 ac b9 e1 6f be 39 7a 0f 0a 3a 91 1d 22 ba
       -0.00032809522 0.0003632298 0.00052665884 -0.00061842153
000300 a6 55 08 ba 4f 72 5c b9 ac c8 a2 38 08 cc fb 39
       -0.0005200751 -0.00021023418 7.76214e-05 0.00048026466
000310 c0 34 0d 39 68 79 0a 37 a7 5f ac b9 29 de b6 b9
       0.00013466459 8.253708e-06 -0.00032877663 -0.00034879267
000320 4d 78 32 ba 90 c9 94 b9 72 7a 6f 39 e6 bc eb 38
       -0.00068080873 -0.00028378936 0.0002283843 0.00011240858
000330 c2 d8 5d 39 c4 25 0f 3a 7b f2 88 39 41 87 b7 b8
       0.00021156951 0.00054606446 0.00026120603 -8.751313e-05
000340 bf df d9 34 39 3a 27 ba cb c0 d5 b9 c6 2c d0 b9
       4.0582196e-07 -0.000637922 -0.00040770168 -0.0003970621
000350 cb 6a 8b 39 ae 06 99 b9 8d fd 2a b9 33 8f 0f 3a
       0.00026591713 -0.0002918741 -0.00016306918 0.00054763554
000360 c9 a5 0d ba 83 c6 0e b9 bb c0 55 b9 b8 92 78 39
       -0.0005403427 -0.00013616127 -0.0002038506 0.0002370578
000370 29 63 ab 39 84 47 59 b8 bf f0 87 39 28 33 78 38
       0.00032689542 -5.1803436e-05 0.00025928576 5.917545e-05
000380 81 e2 a4 b9 e8 2e 48 39 6c 8f fe b9 8c f2 e5 39
       -0.00031449276 0.0001909096 -0.00048553513 0.00043858995
000390 98 30 86 39 7c 16 29 39 62 c0 d8 38 57 f3 69 38
       0.00025594677 0.00016125472 0.00010335517 5.5778157e-05
0003a0 bc c9 1f b9 0e 00 ef 39 a8 92 bd b9 79 81 ad b8
       -0.00015238574 0.00045585673 -0.00036158157 -8.273399e-05
0003b0 da a4 16 b9 98 ca 9a b7 1f b9 aa b8 2b b8 71 b8
       -0.00014366527 -1.845257e-05 -8.140713e-05 -5.7630397e-05
0003c0 81 82 5e b8 78 b5 4d b9 f0 ac 8e b9 71 2a 53 b8
       -5.3050466e-05 -0.00019617926 -0.000272132 -5.0345847e-05
0003d0 76 ea dd 38 5a ca 07 ba 1b 69 ab 39 4b 0a b0 39
       0.00010581773 -0.0005179994 0.0003269397 0.00033577005
0003e0 c1 45 26 39 5d 25 50 b8 53 bb f9 b9 f7 32 ec b9
       0.00015856979 -4.962586e-05 -0.00047632548 -0.000450514
0003f0 5d c1 ce 37 c5 36 0f 39 b0 84 92 b9 ce 04 21 39
       2.4647155e-05 0.00013657946 -0.0002794615 0.00015355946

sequential_2/conv2d/BiasAdd/ReadVariableOp f4 [32]
000000 84 40 66 bc c0 c5 44 3d 00 00 00 00 00 00 00 00
       -0.014053468 0.04804015 0.0 0.0
000010 06 b2 f0 3c 3b 72 84 3d ce 6a ef bb e1 8b 33 3d
       0.029381763 0.064671 -0.0073064333 0.04383457
000020 0e e4 02 bd f6 08 86 bc a7 e7 07 bd 8d 10 51 bd
       -0.03195577 -0.016361695 -0.033179905 -0.051041175
000030 47 cf 7c bc 84 8d 8a bb 27 52 fe 3b fd d6 39 3c
       -0.015430278 -0.0042282958 0.007761258 0.011342761
000040 23 c2 ca bb f3 c5 04 bc 09 9a 67 bd dd 27 ef bc
       -0.0061876937 -0.008103835 -0.056543384 -0.029193813
000050 21 08 15 bd 59 81 9e bc 41 fe 4c 3c ba 75 e7 bb
       -0.036384705 -0.019348787 0.012511791 -0.0070635946
000060 8a 54 bb bc 2e 3b 3a bd 5d 42 94 bc 7f d1 05 bc
       -0.02286746 -0.045466594 -0.01809805 -0.008167624
000070 ea 1f da bb 8f 39 f2 3c c4 74 17 3d 78 f0 02 3d
       -0.0066566365 0.029568462 0.03697659 0.03196761

sequential_2/conv2d_1/BiasAdd/ReadVariableOp f4 [64]
000000 9b c7 eb 3b 8e 62 e6 bc e7 2a d8 bc 68 36 cf bb
       0.0071954257 -0.028123166 -0.026387645 -0.0063236244
000010 5e 4c 07 bc 00 fa 23 bb 53 42 c4 b9 9c c2 ae bc
       -0.008257953 -0.0025020838 -0.0003743345 -0.021333031
000020 c4 22 fa bc 15 fa ed bb f3 ae 5e 3c e4 54 7f 3c
       -0.030534156 -0.007262478 0.013591516 0.015584204
000030 e6 cd d0 bc cc 09 91 bb 6b cb b9 bc cc dc 78 bb
       -0.025488805 -0.0044262167 -0.022680005 -0.0037973402
000040 45 12 90 bc f9 00 55 3c de 74 8f bc 8b 08 74 bc
       -0.017586837 0.01300072 -0.017511781 -0.014894615
000050 d7 ab 07 bc 94 46 31 bc 6d 5c 53 bc ff bc 68 bc
       -0.008280716 -0.01082005 -0.012900454 -0.014205216
000060 88 b9 b0 3b 94 7a 56 bc 6b f1 c5 bc ad 5c a5 bc
       0.005393211 -0.013090748 -0.024162969 -0.020185793
000070 e2 d0 04 bc 28 a9 1f bb 09 4d d0 bb 5f 38 94 bc
       -0.008106442 -0.00243623 -0.0063568396 -0.018093286
000080 92 2b 9c bc 1f 8d b0 3b 9d 7a 01 bd 69 69 ff bc
       -0.019063745 0.0053879167 -0.031611074 -0.031178193
000090 9b 85 0d bc 06 13 81 bc c3 cf b7 bc 91 c9 89 bc
       -0.008637811 -0.015756141 -0.022437936 -0.016819747
0000a0 8b 98 d9 3a 40 ff a8 bc 09 ae 12 bd 28 ca da bb
       0.0016601247 -0.020629525 -0.035810504 -0.006676931
0000b0 72 6e f1 bc e4 3a db bb 7e 57 6e bc 05 df 88 bc
       -0.02947161 -0.00669037 -0.014547227 -0.016707906
0000c0 21 6c 03 bd 6c 92 17 bd e7 41 11 bc d4 32 ee bc
       -0.03208554 -0.037004873 -0.00886581 -0.029076971
0000d0 c3 cc 1b bc 4a 82 40 3b 6e 40 6a bb e8 ae 3d bc
       -0.009509268 0.0029374533 -0.003574397 -0.011577345
0000e0 2c 56 95 bc 77 2b 58 bc 70 56 96 bc f7 7b c9 bc
       -0.018229567 -0.013193957 -0.018351763 -0.024595244
0000f0 dc 52 41 bc ed 76 a4 bc 3d d7 56 3b 78 74 ec 3b
       -0.01179954 -0.02007624 0.00327821 0.0072160326

sequential_2/conv2d_2/BiasAdd/ReadVariableOp f4 [64]
000000 b4 fb 53 bb 72 bd 06 3d b9 d4 5e bc b0 75 1a bc
       -0.0032346072 0.032895513 -0.013600522 -0.009427473
000010 74 91 cf 3b a7 94 f5 bc 95 fc 03 bd af 59 90 bc
       0.006334478 -0.02997811 -0.032223303 -0.01762089
000020 24 1f 2a 3b 3e 4a 62 bc 1c 3f 47 bc 99 84 7d bc
       0.0025958503 -0.013811646 -0.012161043 -0.015473508
000030 ed 68 db bb c5 40 d9 bc 1b 17 66 bc a6 0e b9 bc
       -0.0066958577 -0.026520142 -0.014043595 -0.022589993
000040 98 2f cc bc 3c ae 85 bc 9e 22 b2 bc 3b b8 c9 bc
       -0.024925038 -0.016318433 -0.021745022 -0.02462398
000050 5f 5b be bb 69 13 1c bc c6 a4 c7 bb fc 54 a8 bb
       -0.005809232 -0.009526112 -0.0060926406 -0.005137084
000060 ff 42 88 bb 08 65 da bb f1 38 ef bc 32 02 cb bc
       -0.004158377 -0.006664876 -0.029201956 -0.02478132
000070 3c 7e c0 bc 7e ec b3 bc 64 e0 4b bc 57 db 83 bb
       -0.023497693 -0.021963354 -0.012443636 -0.00402395
000080 3a c7 01 bd 62 81 50 bc a9 bd 12 bd a2 76 a6 bc
       -0.031684138 -0.01272616 -0.035825405 -0.02032024
000090 7a 04 d3 bc 43 a7 c4 bc d9 c2 cd bb b9 4a 59 bc
       -0.02575897 -0.024005538 -0.006279331 -0.013262444
0000a0 a8 51 e7 bc ea 41 5d bc a3 e1 0a bc 7c 1b c3 3c
       -0.028237179 -0.013504485 -0.008476648 0.023816817
0000b0 78 0b da bc eb 57 cc bb e9 70 58 3c 53 e9 79 3c
       -0.026616797 -0.0062360666 0.013210514 0.015253383
0000c0 36 12 cc bb 38 af 8f bc f3 d7 08 bc 15 2b 62 bc
       -0.006227757 -0.017539605 -0.008352268 -0.013804217
0000d0 28 0e b8 bc 68 35 25 bd 30 95 04 bc 79 46 ad bc
       -0.022467688 -0.040334135 -0.00809221 -0.021151768
0000e0 63 bc bf 3b dd cb ea bb b7 f5 23 bd b7 17 a3 bb
       0.005851315 -0.0071654157 -0.040029254 -0.0049771923
0000f0 71 df 36 bd 26 72 52 bc d6 83 b0 bc ea ef e6 ba
       -0.044646684 -0.012844598 -0.02154724 -0.0017619107

sequential_2/conv2d_3/BiasAdd/ReadVariableOp f4 [64]
000000 e4 fb 97 bc 38 7f 9f 3c 51 7f fd bb 23 18 06 bc
       -0.018552728 0.019469842 -0.0077361246 -0.008184466
000010 7a 9a 68 bc 7f 41 be bb 57 7d 75 bb 9a 8e 71 bc
       -0.014196986 -0.0058061476 -0.0037458742 -0.0147434715
000020 38 19 43 3d 5b 4c 9d bc f3 f7 2a bc 21 82 73 bc
       0.047631472 -0.019201448 -0.010435092 -0.014862568
000030 b3 33 7d bc 65 c9 ff bb e0 d5 9f 3a e8 d8 5c 3d
       -0.015454221 -0.0078059905 0.0012194477 0.053917795
000040 32 4a 3c bc 88 53 b2 bc 8f 05 25 bc 34 d6 0a bd
       -0.011492299 -0.021768346 -0.010072126 -0.033895686
000050 f3 1b 03 bd 90 19 13 3d b1 86 5e bc 59 9e 65 bc
       -0.032009076 0.03591305 -0.013581918 -0.014014804
000060 49 0d e8 bc ba 37 5e 3c 0a 59 3c bc 76 62 93 bb
       -0.028326647 0.013563091 -0.011495838 -0.0044978214
000070 df 8c f9 bb c6 b0 08 bc ca a3 90 bb cf 01 5a bc
       -0.00761567 -0.008342927 -0.0044140564 -0.013306095
000080 69 51 19 bd 97 a4 d7 bb 26 a0 d7 bb 0f 9c c5 bc
       -0.037431154 -0.0065809 -0.0065803705 -0.024122266
000090 92 f7 88 bc 42 79 2a 3c 29 fd 93 bc 66 cb f4 3c
       -0.016719613 0.010404887 -0.018065052 0.029882144
0000a0 e4 c4 72 bc 61 6a fb 3c c7 2e 16 3d de 46 bc 3c
       -0.01481745 0.030690374 0.036665704 0.02298301
0000b0 bc 83 e1 bc 65 6a c4 39 6e 56 d5 bc e4 47 a2 bc
       -0.027528636 0.00037463303 -0.02604219 -0.01980967
0000c0 00 d5 96 3b f5 74 0f bb f5 98 ac 3c 5d a3 24 3c
       0.0046030283 -0.002188978 0.02106903 0.0100487145
0000d0 64 12 d1 bb 36 06 29 bd 17 8e d8 ba fe ae cd bb
       -0.006380366 -0.04126569 -0.0016521838 -0.006276964
0000e0 66 c9 d5 bc 51 c0 dc bc c9 04 f9 bb df 7d 87 3b
       -0.02609701 -0.026947172 -0.0075994474 0.004134878
0000f0 1a 36 aa bc 27 9b bb bc cb 8b de bc 5f 8f ba 3b
       -0.02077775 -0.02290113 -0.027166268 0.0056933607

sequential_2/conv2d_4/BiasAdd/ReadVariableOp f4 [64]
000000 7e dd ad 3c c3 95 42 3c 72 07 a0 bc 8e 3a d0 bc
       0.02122378 0.011876526 -0.0195348 -0.025418546
000010 77 2f 7c 3c de f1 89 3c ca e9 bd 3c 4b 29 20 3d
       0.015392176 0.016838964 0.023182768 0.03910188
000020 69 ae 0d 3d 38 f0 3a 3d 54 a2 f3 bc c0 51 b8 bc
       0.03459016 0.045639247 -0.02974049 -0.022499919
000030 a5 11 ea bc 8f d7 d5 3c e3 48 df bc 2d fa 40 3c
       -0.028572867 0.026103763 -0.027256435 0.011778397
000040 cd 81 1e bd 7e b5 1a 3d a0 f2 fb 3b b4 f4 0f bc
       -0.038698006 0.03777074 0.0076888353 -0.008786369
000050 0e 0f c8 bb 38 68 14 3d 1c b1 6d 3c 6f 75 15 bc
       -0.0061053103 0.036232203 0.014507558 -0.009122237
000060 4b 5c 19 3c 34 9c 39 3c b7 07 aa 3a 93 bf 93 3c
       0.009360383 0.011328746 0.001297227 0.018035686
000070 f9 2f 20 bc db 1e 78 3c 13 f9 71 bc 6f 04 32 bc
       -0.009777063 0.015144075 -0.014768857 -0.010865315
000080 a8 99 8c 3d 8c 66 83 bc b4 34 3a bc 3a db 1d bc
       0.06865245 -0.01604011 -0.0113651045 -0.009634787
000090 5f 13 63 bc 6b 22 93 bc a4 ec 58 bc b5 a7 34 bc
       -0.013859599 -0.017960748 -0.013240013 -0.011026313
0000a0 83 16 b8 bc 4b 4f de bb bc 32 2b bc 09 93 b2 bc
       -0.022471672 -0.006784355 -0.010449108 -0.021798627
0000b0 37 b8 51 3d 51 2e 3d bc 14 62 87 bc 40 e3 3d 3c
       0.05120107 -0.011546687 -0.01652626 0.011589825
0000c0 d7 32 c3 bc 4c 72 2e 3d d5 50 bc 3c 7f 92 02 bc
       -0.023827953 0.04258947 0.022987762 -0.007969498
0000d0 4a 14 2e bc 01 42 00 bc 45 5b 34 bd ce 10 a3 bc
       -0.0106249545 -0.007828237 -0.044032354 -0.019905474
0000e0 33 17 79 bc 7a ec 6c 3d 62 d5 b8 3d 57 2a 62 bc
       -0.015203285 0.05784271 0.090250745 -0.01380404
0000f0 99 60 66 3c 7e 2b a6 bc d2 4b 05 bd 83 96 8d bc
       0.014061117 -0.02028441 -0.03254301 -0.017283684

sequential_2/conv2d_5/BiasAdd/ReadVariableOp f4 [64]
000000 f9 09 44 bc 92 22 35 3d ec 8b b8 bc 4a 3a 79 3d
       -0.011965268 0.044222422 -0.022527657 0.060846604
000010 0b 52 a5 3d 11 a0 08 bb ab 61 9f bc eb d2 55 bc
       0.08072289 -0.002084736 -0.019455751 -0.013050775
000020 87 a7 3a 3b 65 7d 11 3d eb a6 e0 bb 4a 6c 67 3d
       0.0028481202 0.035519976 -0.0068558357 0.056499757
000030 d1 82 61 bc 48 ab 9c bc c6 14 bf 3b d8 4f ea 3c
       -0.013764099 -0.019124642 0.005831334 0.028602526
000040 75 3e 75 3d e9 fe 12 3d 12 1f a5 bb b5 95 9c bc
       0.059874017 0.035887633 -0.0050391043 -0.019114355
000050 fa 46 2e bc 54 bf ee bc d8 6c 44 bb 90 39 97 bc
       -0.010637039 -0.029143967 -0.0029972102 -0.018460065
000060 3f 1b 34 3d 7e 8e 02 bc f8 f2 ab 3d 58 eb b0 bc
       0.043971296 -0.007968543 0.08395952 -0.021596596
000070 6c 6d 59 bc 8e bf ca bc 92 94 0b bc 3f 84 64 bc
       -0.013270717 -0.024749544 -0.008519309 -0.013947546
000080 1b 51 49 3d f3 b4 39 3d 64 43 ef 3c 23 c1 95 bc
       0.049149614 0.045338582 0.029206939 -0.018280571
000090 c5 34 c7 bb 6d c5 f2 3c 25 25 e4 bb cb bf 8b 3c
       -0.0060792887 0.029635156 -0.006962436 0.017059227
0000a0 2e 06 b4 bc 55 ac 47 bc 00 c7 26 3d ec a6 6e 3d
       -0.021975603 -0.012187083 0.040717125 0.058264658
0000b0 76 4e 9b bc 4f 24 ae 3d 82 29 68 3d 44 65 80 bb
       -0.018958312 0.08503019 0.05668021 -0.003918322
0000c0 e1 7d 3b bc 98 f2 11 bc 53 e3 27 3d 89 78 a7 bc
       -0.011443586 -0.0089079365 0.040988278 -0.020443218
0000d0 ce ec 99 3d 0c 69 af bc ee 6a 1d 3d b2 c7 92 3d
       0.0751587 -0.021412395 0.038432054 0.07166995
0000e0 31 2a e3 bc 21 37 f1 bc 05 29 30 3d c0 84 95 bc
       -0.02773008 -0.029445233 0.04300787 -0.018251777
0000f0 72 87 ee 3c d4 b8 9b 3d 71 97 65 3d 44 04 39 bc
       0.02911732 0.076036125 0.05605263 -0.011292521

sequential_2/conv2d_1/Conv2D f4 [64, 3, 3, 32]
000000 aa 91 6a bb e8 f1 32 bc c0 c2 07 bd 96 34 ed bc
       -0.003579239 -0.010921933 -0.033144712 -0.028955739
000010 45 52 ab 3d b7 99 97 bd 7c cd 3f bc 19 11 b0 3d
       0.08365301 -0.07402366 -0.011706706 0.08597011
000020 f1 63 97 bd 52 92 f1 bc f0 0e 86 bd 59 04 90 bc
       -0.07392109 -0.029488716 -0.06545818 -0.017580198
000030 c3 8f 9c 3b b9 93 51 bd e0 e6 38 bd 85 63 ab bc
       0.00477788 -0.05116627 -0.045142055 -0.020921478
000040 05 21 47 bc 5d b6 52 bd 4b d4 18 bd 7a a8 9a bc
       -0.012153869 -0.051443446 -0.037311833 -0.018879164
000050 e3 7d 88 bd cf c9 d7 3c cb dc 22 3c d0 7b 28 bd
       -0.06664636 0.026341347 0.009940336 -0.0411337
000060 a9 39 a3 bd 08 e9 62 bd fd d4 8a 3d ae 1e 59 bc
       -0.07969982 -0.055398017 0.067789055 -0.0132519435
000070 54 2d 8b 3c c5 b4 91 3d 06 bb d4 3d 95 8e 4a 3d
       0.016989388 0.07114557 0.103872344 0.049452383
000080 1d 07 4b bd 8c af 85 3d 31 84 a1 3d eb 01 10 bd
       -0.04956733 0.065276235 0.07886542 -0.03515808
000090 27 71 a5 3d 8c 02 b8 bd 6a 7d 81 bd e9 af 9b bc
       0.08078223 -0.08984861 -0.06322749 -0.019004779
0000a0 0a 63 27 3d f4 b1 74 bd fb 9a 20 3d 69 45 39 3d
       0.040865935 -0.05974002 0.0392103 0.04523221
0000b0 89 75 c0 3c 38 ef 6c bd 35 c0 06 3d e6 4b 8e 3d
       0.023493545 -0.057845324 0.032898147 0.0694807
0000c0 3e 1a 1c bd 13 07 78 3d d5 fc 8c 3d 71 d6 94 bd
       -0.038110964 0.06055362 0.068841614 -0.07267464
0000d0 65 79 1c bd 46 15 d1 bc 1a c0 8d 3d 99 d7 29 3b
       -0.03820171 -0.02552284 0.06921406 0.002591586
0000e0 14 18 96 3d 0f 13 25 bd 2b bf 13 bc cd 5f 73 bd
       0.07328811 -0.04030138 -0.009017746 -0.059417535
0000f0 d0 52 36 bd 28 97 46 bd 72 d9 7d 3d ef 47 82 bd
       -0.04451257 -0.048483998 0.06197495 -0.063613765
000100 7b fb 06 bd 95 25 40 bd 58 e8 28 bc 86 21 2a bd
       -0.032954674 -0.04691084 -0.010309301 -0.041535877
000110 76 de 40 bd a0 cf 26 3d 40 00 0d bc bb e2 7f bc
       -0.047087155 0.04072535 -0.008606017 -0.015618022
000120 c8 ec 92 3d 47 71 50 bd a1 fe 9a bd 7c 95 95 bc
       0.07174069 -0.05088928 -0.07568098 -0.018259756
000130 55 4a 97 bb f0 b1 19 bd 4d a7 da bd 64 6e 4b 3d
       -0.0046170154 -0.03752321 -0.10676441 0.049665824
000140 a9 28 b5 3c fa a0 3b bc 38 a8 93 3c cf 2f f0 3c
       0.022114115 -0.011451954 0.018024549 0.029319672
000150 f2 48 9d 3d 48 7c ab 3d f0 e4 b3 3d 31 cb 0a 3c
       0.07679929 0.08373314 0.08783901 0.008471296
000160 fe 4b 97 bd f8 c1 1b 3d 5f f5 e0 bb f0 f6 3e bd
       -0.07387541 0.03802678 -0.006865188 -0.046622217
000170 ca 30 9f 3d 25 f0 14 bd 76 3f b2 3d 30 7d 23 3c
       0.07772978 -0.036361832 0.087035105 0.0099785775
000180 a6 c4 87 bd 50 fd 96 3d 20 7e fc bc 11 18 80 3d
       -0.066293046 0.07372534 -0.03082186 0.0625459
000190 e9 9e 06 3d 45 bc 76 bd 4c 5b a4 bd 0d 85 59 3d
       0.032866392 -0.06023814 -0.08025226 0.053105403
0001a0 a8 e0 59 3d ec 90 08 3d 59 3d c4 bd fe 44 c3 bc
       0.053192765 0.033341333 -0.09582014 -0.023836609
0001b0 55 fb 81 3d 5b 81 85 bd 88 72 af bd ca 37 98 bc
       0.06346766 -0.06518813 -0.08566767 -0.01858129
0001c0 04 02 d9 3a dc 01 f1 3c 29 27 7d bd 5c d3 60 bd
       0.0016556387 0.029419832 -0.061804924 -0.054889068
0001d0 a8 48 09 3d 57 5f b2 bd b3 2d 8f bd 96 ae 6d 3d
       0.033516556 -0.08709591 -0.06991138 0.058027826
0001e0 4f 73 15 bc b9 7f ac bd da 30 30 3b 1a 20 85 3d
       -0.00912173 -0.08422799 0.0026884587 0.065002635
0001f0 02 7f 81 3d 36 2e 2d 3d d4 c0 14 3e ca e8 d3 b9
       0.06323053 0.0422804 0.14526683 -0.00040418498
000200 b2 ac 42 3d fc 40 64 3d 80 c8 b1 bb e6 33 00 3d
       0.047527976 0.055726036 -0.005425513 0.031299494
000210 18 f0 73 bc 85 9f 13 bd a0 be 39 3d b1 f2 c8 3d
       -0.014888786 -0.0360408 0.04534781 0.09811915
000220 f1 0b 18 bd 8f 46 23 3d 2b 90 8a bd 79 84 a2 bd
       -0.037120763 0.03986221 -0.06765779 -0.079354234
000230 d9 c2 68 bd b0 4d a0 3d 5c 9b 3c bd 9f 0e d7 3b
       -0.056826446 0.07827318 -0.0460466 0.0065630223
000240 ac f4 b7 3b 87 53 bf bc 3f bf 73 3d 82 b0 cd 3c
       0.005613884 -0.023355259 0.05950856 0.02510858
000250 a3 e9 a2 3d f3 85 19 bd 1b 44 0a bd 67 8e 75 3c
       0.07954719 -0.03748126 -0.033756357 0.014987565
000260 fc 84 97 3c 42 ca 05 3c 99 3c 9a bc 89 31 91 3d
       0.01849603 0.008165898 -0.018827723 0.07089526
000270 e8 13 58 3d 7b 4d f2 3d 3e a6 1a 3d 06 88 ae 3c
       0.05275336 0.118311845 0.037756197 0.021305095
000280 69 5a ba bd 4b 7f 54 bd fb 1e a2 3d b5 7d a8 3d
       -0.090992756 -0.05187921 0.07916065 0.08227102
000290 2c 9c ed 3c b7 07 08 3d f8 19 44 3d 34 12 8b 3d
       0.029005133 0.033210482 0.04787633 0.06790581
0002a0 fb f7 ac 3b 1f 13 5e 3d 1e 11 2e 3d c7 ef 9c bb
       0.005278585 0.054217454 0.042496793 -0.004789326
0002b0 ea bb 8f 3d 9c 87 e7 bc 84 b7 05 bd 5a ec 1b 3c
       0.07018264 -0.028262906 -0.032645717 0.0095168
0002c0 35 90 bc 3c f1 9c 91 bd 81 a0 85 bd dd d2 34 bd
       0.023017982 -0.07110012 -0.06524754 -0.044146407
0002d0 d2 48 e0 3c 9c 2d c2 3d 70 18 39 bd 37 c1 13 bd
       0.027378473 0.094813555 -0.04518932 -0.036072936
0002e0 52 6d 27 3d d7 1e c3 bb 77 78 a2 3d d7 97 88 bd
       0.04087574 -0.005954604 0.07933133 -0.06669586
0002f0 ac 43 99 bd 90 1f a0 3b 85 f2 a9 3b f2 bf a2 3d
       -0.074836105 0.004886575 0.0051863813 0.07946767
000300 5d 9a 0e bd 14 fe bb bd f5 2d 84 3d 00 cc 2b bc
       -0.03481518 -0.09179321 0.06454078 -0.010485649
000310 10 23 56 3d 4d 3f 7d 3c d3 e3 b8 3c 1d ca bc 3c
       0.052279532 0.015456987 0.022569573 0.023045594
000320 74 bf 27 3d 80 5d 47 bd 6a fb 63 3d 74 4c 81 3d
       0.04095407 -0.048673153 0.05565969 0.063134104
000330 13 22 f7 bc 61 66 09 3d b1 f0 70 b9 3a 07 0d 3d
       -0.030167615 0.0335449 -0.00022977848 0.03443072
000340 d2 07 3f 3d 2d 66 ca 3c 91 63 c7 3c b1 da b3 bd
       0.046638317 0.024706924 0.02433947 -0.087819465
000350 13 d5 95 bc 26 18 8f 3b 1f 5f 45 bd dc 56 11 bd
       -0.018290078 0.0043668924 -0.048186418 -0.035483226
000360 43 51 38 3d 0e f8 49 3d 6c 71 3a ba eb 32 44 bd
       0.044999372 0.04930883 -0.0007112238 -0.04790012
000370 ac 42 09 bc cb 09 90 3d fa 67 98 3d bc 7f 4d 3d
       -0.008377712 0.07033118 0.07441707 0.050170645
000380 70 1a 5f 3d 66 ce 1d be 60 d4 1a bd e8 52 70 bc
       0.054468572 -0.15410766 -0.037800193 -0.014668204
000390 ec b4 1e 3d 55 47 0c be f6 ed 99 bd 8f 6e 4d 3d
       0.03874676 -0.13699086 -0.075160906 0.050154265
0003a0 56 a2 0f bd 68 ec 09 3d 45 87 f2 3c bd 72 36 3d
       -0.035066925 0.03367272 0.029605517 0.044543017
0003b0 ee 73 7d 3d f4 a9 4a bc 62 81 67 bd d7 95 e7 bc
       0.061878137 -0.012369622 -0.056519873 -0.028269691
0003c0 3b 0b 94 3b 00 e3 65 bd 4d 1f 1b bd 75 f5 d5 bb
       0.0045179403 -0.056124687 -0.037871648 -0.006529505
0003d0 df 8a ab bd 1d 53 8a 3d 93 84 9f bd 6b 63 ef 3c
       -0.08376097 0.06754134 -0.077889584 0.02922221
0003e0 0d 70 1d 3d 32 9c 45 3d c3 fe 66 bd 67 d0 eb ba
       0.038436938 0.048244663 -0.056395303 -0.0017991186
0003f0 ed 8a da 3c 68 7e c6 3d db ca 85 3d eb e7 04 bd
       0.026677573 0.09692079 0.06532832 -0.032447737

sequential_2/conv2d_2/Conv2D f4 [64, 3, 3, 64]
000000 e4 f1 3e ba ed 21 6b bd e3 0a 11 3d 00 28 9d 3c
       -0.00072839693 -0.0574054 0.035410773 0.019184113
000010 46 08 77 3d 7d 94 a3 3c b5 96 f1 3b 06 fe 8c bd
       0.060310625 0.019968266 0.007372702 -0.068843886
000020 23 03 1a 3d fa b3 8f bd 35 96 ca bc 1e 10 33 ba
       0.037600648 -0.0701675 -0.024729827 -0.000683071
000030 b0 47 bb bb a8 d9 57 bc e5 b1 ad bc 01 24 ae bd
       -0.005715333 -0.013174452 -0.02120299 -0.08502961
000040 db c1 49 3d 72 32 aa 3c a1 5e 95 bd 80 56 81 3c
       0.04925714 0.020776007 -0.0729344 0.015788317
000050 06 ad 81 3b 43 89 03 bd ae 70 73 bc 27 69 27 3d
       0.0039573936 -0.032113325 -0.014858408 0.040871765
000060 6b 5c 7a bd 44 02 28 bc 0a 48 f4 3b 02 a2 09 bd
       -0.061123293 -0.010254446 0.007454877 -0.03360177
000070 d4 a8 b3 bd 68 1c 18 3c 1a d9 9b bd 8a ed 2c 3d
       -0.08772436 0.009284116 -0.07609768 0.042218722
000080 66 41 6d bd 38 70 81 bd 6d 42 a2 3c c8 3c 40 3b
       -0.057923697 -0.06320232 0.019807065 0.0029333103
000090 08 06 80 bd a8 57 07 bd 3d 82 36 3c a8 e0 41 bd
       -0.0625115 -0.03304258 0.01113945 -0.04733339
0000a0 b9 a1 0e bc c0 5f 55 3d a8 ed 03 3d 8c 09 4b 3d
       -0.00870555 0.052093267 0.03220907 0.04956965
0000b0 d3 91 e2 3b 83 c5 04 3d d4 2b dd bc ea 61 25 3d
       0.0069143563 0.032414924 -0.026998438 0.04037658
0000c0 00 05 69 3a 1a bb 52 bd 01 9d bb bd cc c0 a8 3c
       0.00088889897 -0.051447965 -0.091608055 0.020599745
0000d0 e1 a1 38 3d f6 9b 0f bc 80 a7 c2 bc 29 46 15 bd
       0.045076255 -0.008765211 -0.02376151 -0.036443863
0000e0 23 01 a0 bc 1b f0 f6 3c 8b 76 77 3c b0 83 4a bd
       -0.019531792 0.030143788 0.015103946 -0.049441993
0000f0 02 b7 6e bd e4 40 13 bd 01 12 05 3d b4 d7 4b bd
       -0.05828 -0.035950556 0.032487873 -0.049766257
000100 c7 11 a8 bd c7 bd 06 3c f9 6d 24 3c d1 6c fe 3c
       -0.08206516 0.008223957 0.010035985 0.031057747
000110 dd 45 76 bd ac 0f 96 bd 30 90 6b bc e7 b5 b6 3b
       -0.06012522 -0.07327208 -0.014377639 0.0055758837
000120 fd 92 68 3d 2f eb 04 bd f2 5d 2a bc b8 0f da bd
       0.056780804 -0.03245085 -0.010398375 -0.10647529
000130 8c 50 4c bd 81 1b b8 bd 6c 44 fb 3c 51 5b 34 3d
       -0.049881503 -0.08989621 0.030672275 0.0440324
000140 28 ba 8f bd 3a 4e 38 bb a8 d3 68 bd 27 36 73 bc
       -0.07017928 -0.0028122799 -0.056842476 -0.014844454
000150 00 39 04 bb 32 87 65 bd b4 c7 52 bd ed 0c b8 bc
       -0.0020175576 -0.056037135 -0.051459983 -0.022467101
000160 06 19 c1 bd c5 a9 9a bd fe f0 f0 3c 36 5d 38 3d
       -0.09428601 -0.07551912 0.029411789 0.045010768
000170 11 0f 64 3d b4 aa a1 bc 76 d1 26 bc 31 e8 39 bd
       0.05567843 -0.019734718 -0.010181775 -0.04538745
000180 b3 07 8f 3c df 78 9e bc f2 9d fa bc e1 28 20 bd
       0.017459726 -0.019344745 -0.030592892 -0.039101485
000190 77 b5 e8 3c bc 93 85 bc f2 88 7c bc 1e fc 7f 3d
       0.028406842 -0.016305797 -0.01541351 0.062496297
0001a0 f8 2f 5c bd 16 52 1b 3c 92 fa a3 3d d3 11 6f 3c
       -0.053756684 0.00948002 0.08006777 0.014591652
0001b0 20 8f 0c 3d 81 a5 35 3d c9 7d cc bc 22 e0 cd bd
       0.034316182 0.04434729 -0.024962323 -0.100525156
0001c0 26 17 ec 3b 94 4c 86 3c cd 15 7b 3c 86 1f 84 3d
       0.007204908 0.016393937 0.015325022 0.06451325
0001d0 27 92 1e bd 85 c6 a2 3c 88 5c 82 bd 32 ba 93 bd
       -0.0387136 0.019870052 -0.06365305 -0.07213248
0001e0 2d 31 98 bc cd 0b b2 3d 99 85 f4 bc d5 2e 3d 3d
       -0.018578136 0.08693657 -0.02984886 0.04618724
0001f0 06 da 84 3d b1 55 7d bd ae 7b 85 bd 60 2a 39 3d
       0.06486897 -0.0618493 -0.06517731 0.045206428
000200 b2 3d b9 bd db e9 d9 3c 22 5b cf 3c 51 62 55 3c
       -0.090449706 0.026600769 0.02531201 0.013023929
000210 46 0f 3a bd 44 58 35 bd 97 c6 78 bc 10 e7 05 3d
       -0.045424722 -0.04427363 -0.015184066 0.03269106
000220 46 66 3e bc 1f 28 36 3c 5f 1e 68 bc 22 fe d6 bd
       -0.011621064 0.011117964 -0.014167397 -0.10497691
000230 f3 4e 03 3c d6 65 c0 bc 43 d5 aa 3d 8b 3b 52 bd
       0.008014428 -0.02348606 0.08341458 -0.051326316
000240 e0 21 d5 3c e2 79 15 bd 7b db 31 3d 35 27 e3 bc
       0.02601713 -0.03649319 0.043422204 -0.027728656
000250 4d 90 a0 3b 88 23 12 bd 29 e9 ef bc 00 e9 1d bd
       0.0049000145 -0.035678416 -0.029285984 -0.038552284
000260 34 fa 54 3c ab 2c a6 bd 7d cc 3f 3d 8f cb 3a bd
       0.012999106 -0.081139885 0.046825875 -0.045604285
000270 35 27 11 3d 6d 20 04 3d ef 63 68 bd 50 a2 82 3d
       0.03543778 0.032257486 -0.05673593 0.06378615
000280 21 57 4b 3c dc e5 e3 bd 49 17 20 3d a3 68 80 bd
       0.01241091 -0.111278266 0.039084706 -0.06269958
000290 06 4c 87 3c dc 69 cb 3c 94 43 18 bd 0b bb 81 3d
       0.016515743 0.024830751 -0.037173823 0.06334504
0002a0 d9 37 01 bc 32 6a 03 bd a1 37 95 3d 01 c6 99 3c
       -0.00788685 -0.032083698 0.07286001 0.018771173
0002b0 98 b6 3d 3d e9 4a aa bb f1 c3 23 bd 5e 18 c5 bd
       0.046316713 -0.0051969183 -0.039981786 -0.09623788
0002c0 d5 c0 71 3c 04 04 14 bd 76 1d c5 bd a7 33 dc 3c
       0.014755447 -0.036136642 -0.0962476 0.026880099
0002d0 f5 e8 57 bd e2 05 e3 3c c7 f8 54 3d 7a 74 0b 3d
       -0.0527124 0.027712766 0.051995065 0.034046628
0002e0 ee c7 86 bd d9 ee 8c 3d d6 8d 02 3d 3f 3a 10 bd
       -0.06581102 0.06881494 0.031873547 -0.035211798
0002f0 84 10 d8 bc 24 81 c0 bd 85 f2 98 bd ae 62 24 bd
       -0.026375063 -0.093996316 -0.07468132 -0.04013317
000300 32 df 16 3d bf e8 2c 3d 4d 89 e5 3b 8c ed 5f bc
       0.03683395 0.04221415 0.007004893 -0.013667475
000310 40 21 b2 3c 5b cc 1b bc 78 8c 64 b8 3a 35 aa 3c
       0.02174437 -0.009509171 -5.4490258e-05 0.020777334
000320 48 ba 30 3d 99 b2 10 3d dc d3 2c 3c a5 f4 b7 bc
       0.0431464 0.035326574 0.010548558 -0.022455523
000330 f6 f8 18 bd d9 7e c8 bc a4 bb 96 bd a8 36 17 3b
       -0.037346803 -0.024474548 -0.07360008 0.002307335
000340 d3 91 e7 3c cf 8f 3e bd 10 4a 0b bd 88 ea e2 3b
       0.028267777 -0.046523865 -0.03400618 0.006924931
000350 c5 b3 d9 bc f1 d6 1e bd 5a ff 6a bd 06 b0 33 3d
       -0.026574979 -0.038779203 -0.05737243 0.04386904
000360 59 24 6e 3d ef 8f e6 3b ab 07 82 bd 7c 01 a2 3c
       0.058140133 0.007036201 -0.06349119 0.019776098
000370 31 1a cd 3d 47 8c e7 3c f3 20 35 3d 78 4a 6d 3d
       0.10014761 0.028265132 0.044220876 0.057932347
000380 1b 02 71 bd 40 33 aa b8 8a 67 77 bb 64 34 24 3d
       -0.0588399 -8.115778e-05 -0.0037750923 0.040089026
000390 a9 7a 9f 3d 82 3b bb bc 99 29 59 3d bb 4d 3d 3d
       0.077870674 -0.022855524 0.053018186 0.046216708
0003a0 de 8e 6f bd 55 97 4b 3d b1 8c 91 3d 97 30 07 bd
       -0.05848586 0.04970487 0.07106913 -0.033005323
0003b0 5d 99 fa 3c b8 9f bb 3c 59 06 da bc 39 ea d6 bb
       0.030590707 0.022903308 -0.026614355 -0.0065586832
0003c0 fc da e6 3c f9 bf 1f bd e9 f8 1c bc bf 4d 8d 3c
       0.028180592 -0.03900144 -0.009580829 0.017248986
0003d0 12 1e 48 bc e6 b5 9a 3c 63 6d 01 3d 19 9b 65 3c
       -0.012214201 0.018885564 0.03159846 0.014014029
0003e0 84 2c b7 3c 5a d5 6c 3d 07 17 21 3d 59 81 89 bc
       0.022360094 0.057820655 0.0393286 -0.01678531
0003f0 ce d4 04 bd 4c 4d 8d bd 8f ea 31 bd 29 e1 8d bd
       -0.03242951 -0.06899509 -0.043436583 -0.069277115

sequential_2/conv2d_3/Conv2D f4 [64, 3, 3, 64]
000000 d7 87 63 bd 07 56 70 bd 2a fd 9f bc 16 26 f1 3b
       -0.05554947 -0.058675792 -0.019529898 0.0073592765
000010 ff c9 e0 3c fa 5f 68 bd 96 bc 23 bd f4 21 33 3d
       0.02744007 -0.056732155 -0.03997477 0.043733552
000020 1e 5f 00 3d 8e 3a 74 3d 47 c3 15 bd 7b 23 8e bd
       0.03134071 0.059626155 -0.036563184 -0.06940361
000030 ae 53 58 bc 00 97 19 bb 44 ae 2b bd 00 fc e4 bc
       -0.013203545 -0.002343595 -0.04191424 -0.027952194
000040 58 f9 72 3d 07 45 13 3d 98 2c 72 3c 30 92 70 bd
       0.059319824 0.0359545 0.01478114 -0.058733165
000050 cc 6e 92 3d bb e2 55 3d bc 6c 0f 3d ed 72 3f bd
       0.07150039 0.05221818 0.035015807 -0.04674046
000060 ca 22 14 3b 83 67 7b bc 00 aa e5 3b 9f 78 19 bd
       0.0022603744 -0.015344503 0.007008791 -0.03746855
000070 c8 64 1d 3c de db a6 bc 6c 7f 47 bd c6 74 62 bd
       0.009606548 -0.020368513 -0.048705503 -0.055287145
000080 3c c2 24 bd fa db 60 3d 4c 2f 05 3d df d2 b3 bb
       -0.0402243 0.054897286 0.03251581 -0.0054877843
000090 2c c0 8f bd f0 67 8e bb 31 be 2b 3d 54 b7 4a bd
       -0.07019076 -0.0043458864 0.041929428 -0.04949124
0000a0 4f 08 65 bd 24 98 64 3c e1 81 64 3d 41 7e cf bc
       -0.055916127 0.013952289 0.055787925 -0.025328757
0000b0 8f d7 2c 3d 92 25 a3 bd a2 78 a9 3a 04 31 28 bc
       0.04219776 -0.0796615 0.0012929628 -0.0102655925
0000c0 4c 13 ea 3b 81 54 5b bd eb ef 3d bc c8 20 f9 bc
       0.0071434136 -0.053547386 -0.011592845 -0.03041114
0000d0 99 b7 e2 3a 96 3f 1e 3d 8f 53 b8 3c ae f5 ee 3c
       0.0017297148 0.03863486 0.022500781 0.029169884
0000e0 05 71 d5 3b 4a 5d f7 bc 4f 05 05 bd 1d b1 a8 bd
       0.006513717 -0.03019585 -0.032475766 -0.08236907
0000f0 23 78 98 3d 80 ae 4e 3d ea dc 3a 3d 7d 16 01 3d
       0.07444789 0.050459385 0.045620836 0.031515587
000100 59 35 e5 b9 e2 e0 28 3d dc 81 23 bd 85 2f 8a bd
       -0.0004371803 0.04123009 -0.039918765 -0.06747345
000110 88 e6 80 bd 31 d7 11 3d 70 19 4b 3c 59 e3 ad bc
       -0.0629397 0.035605613 0.0123962015 -0.021226572
000120 d9 ae 85 bd 3d 10 fd bc 9e 14 fa bb 28 23 e0 3c
       -0.0652749 -0.030891532 -0.0076318523 0.027360514
000130 62 a7 91 bb 40 7f 8f 3c ab 97 02 3d 4b cb 88 3d
       -0.0044450024 0.017516732 0.031882923 0.066794
000140 d3 6e 71 bd d2 b1 69 bd c5 c3 8d bd fb 96 37 bd
       -0.05894358 -0.05705435 -0.06922106 -0.04482172
000150 2e cf 9d bc 23 3b 53 bc a0 ea cb 3c 3c 83 ea 3c
       -0.01926383 -0.012892517 0.024892151 0.02862703
000160 12 73 0e bd b3 6e 6c 3d 26 ba 3c 3d 75 4e f3 bb
       -0.03477771 0.05772276 0.046075962 -0.0074251243
000170 19 21 08 bd 61 8b 90 bd bc 3d 9c bc 2a 12 b3 bc
       -0.03323469 -0.070578344 -0.019072406 -0.021859247
000180 80 15 6d ba f3 2a a3 bd 18 7f 84 3d 46 55 6a bd
       -0.0009044036 -0.07967176 0.06469554 -0.05721023
000190 0c 8c 6d 3d 70 e6 0a bc 81 09 cc bc ee bb 4a 3d
       0.057994887 -0.008477792 -0.024906876 0.04949563
0001a0 83 81 0a 39 14 bb 79 3d a1 9d f6 3c af 6d 79 3d
       0.00013208952 0.060969427 0.03010446 0.060895618
0001b0 58 c8 18 3d 4e 3f 29 3d c6 2a 37 3b 32 ba f9 3b
       0.037300438 0.041320138 0.002794908 0.007621073
0001c0 d6 3d 03 3c e0 37 09 bd e4 00 74 bb cc 5c 6d bd
       0.008010348 -0.033500552 -0.0037231976 -0.057949826
0001d0 aa 46 a1 bc 34 db 8c 3c 81 44 7d bd f6 27 a1 bc
       -0.019687016 0.017194368 -0.06183291 -0.019672375
0001e0 77 08 08 3c 5f fa 08 3c a4 b3 cb 3c 6c cc 62 bd
       0.008302799 0.008360474 0.024865933 -0.055370733
0001f0 c0 a2 48 bb 15 46 7c bd ba 27 9b bc 59 60 81 bd
       -0.0030614585 -0.061590273 -0.018939842 -0.06317205
000200 bc 5b 4b 3d be 42 a7 bc 98 0f 48 bc 25 77 30 bc
       0.04964803 -0.020417567 -0.012210749 -0.010770594
000210 28 7e 96 bd 61 38 5a 3c 3c 25 81 3d 34 ed 18 3d
       -0.07348281 0.013319106 0.0630593 0.03733559
000220 fe 37 3c bc 1d 09 21 bc 7d 4c f9 bc 40 14 f9 ba
       -0.011487959 -0.009828833 -0.03043198 -0.0019003227
000230 c3 64 f2 3c 14 02 d1 bc 5f d0 18 3d 6c 11 46 3d
       0.029589063 -0.025513686 0.037308093 0.04835646
000240 40 7c 90 bd 24 6d 5f 3c e4 4f 69 bd d8 8a 1f bc
       -0.07054949 0.013636861 -0.056960955 -0.009737693
000250 48 0b 74 bc 78 be b0 bc 08 2f 18 bc 7c cc 84 bd
       -0.014895268 -0.021575198 -0.009288557 -0.06484315
000260 a9 66 a7 bc d7 6b 36 bd e0 ce a6 bb 9a d8 7e 3c
       -0.020434694 -0.044536438 -0.0050905794 0.0155545715
000270 84 bd 4e 3d 58 2c 15 3d bb 76 9a bb 22 44 db 3c
       0.050473705 0.036419243 -0.004713861 0.026765887
000280 ba f2 b8 bc e3 25 ec bc 96 63 44 3d 75 26 4c 3d
       -0.022576679 -0.02882666 0.047946535 0.049841363
000290 24 4f 52 bd 1e e2 10 3d 52 c3 94 bd af 91 9a 3b
       -0.051345006 0.035371892 -0.07263817 0.004717074
0002a0 a1 de bc bb c9 d0 0c 3d 8e 00 32 bb e8 14 a1 bd
       -0.005763844 0.0343788 -0.0027160975 -0.07865316
0002b0 5d 81 b3 3c 6f 72 aa b9 4b b5 e7 3c 3f 73 92 bd
       0.021912271 -0.00032510186 0.02828469 -0.07150888
0002c0 a7 7a 7e 3c ff a8 95 bd c1 49 9b bd 54 88 b7 bc
       0.015532172 -0.07307624 -0.07582427 -0.022403874
0002d0 b1 e1 06 3d b0 8a b8 3c 46 90 96 bc f9 b6 19 3d
       0.03293008 0.022527069 -0.018379342 0.037528012
0002e0 e0 69 9f bb f5 af 64 bb 00 04 c0 bc 5c 47 2c bd
       -0.004864916 -0.0034894918 -0.023439407 -0.04206024
0002f0 a8 59 e8 bc 6b 6a 81 3c 00 e5 14 bd ca 2f 4c 3d
       -0.028363064 0.015797814 -0.036351204 0.049850263
000300 2e 48 92 bd 8e d0 73 3d 86 76 89 3d 48 15 62 bd
       -0.071426734 0.059525065 0.0671206 -0.055196077
000310 bd 63 5d bd f2 0b 57 bd 52 80 20 bd 15 86 7b 3b
       -0.054050196 -0.052501626 -0.039184876 0.003837948
000320 f5 d5 cd 3c c9 63 5c bd 98 a3 11 bc cc 1b cb 3c
       0.025126437 -0.0538061 -0.008889101 0.024793528
000330 90 9b 63 3c 8c a2 33 3d 16 7c ce bc 92 17 fe bc
       0.013892069 0.04385619 -0.025205653 -0.031017099
000340 e4 e2 0b 3d 67 58 30 bd 2a c1 95 bc e4 42 8e bc
       0.034151927 -0.043053057 -0.018280584 -0.01736588
000350 b1 d2 13 3d 93 a6 4c bd f4 54 7a 3d 9d 22 d1 bc
       0.036089603 -0.049963545 0.061116174 -0.0255292
000360 89 bb 45 3d 27 00 5d bc 96 0d b2 bc 66 6a 85 3d
       0.04827455 -0.013488806 -0.021734994 0.065144345
000370 1c 80 e0 3c 2c c6 89 3d 59 e8 ab 3b 4d b0 d9 3b
       0.027404837 0.067272514 0.005246204 0.006643331
000380 5f dc 82 bd 15 76 50 3d 58 e5 a1 bc 0c e2 70 bd
       -0.06389689 0.05089386 -0.01976268 -0.058809325
000390 b1 ed 4e bd a6 5a 03 3d 90 3c 72 bd 90 7b 89 bc
       -0.05051965 0.03206887 -0.05913979 -0.016782552
0003a0 60 94 7c 3d 3b b8 7a 3d d3 62 2a 3d b0 9a 4a 3d
       0.06166494 0.061210852 0.041598152 0.049463928
0003b0 22 bc 9d bc 41 7c 5a 3c 85 77 79 3c f5 91 6a 3d
       -0.019254748 0.0133352885 0.01522625 0.0572681
0003c0 b2 fa 73 bd 5e 91 c4 bc f0 9b 9c bb 56 ae 83 bd
       -0.059565254 -0.023995098 -0.0047793314 -0.06429736
0003d0 12 70 3e 3c 4c f8 fe 3c f8 48 5c bd af a0 12 bd
       0.011623399 0.031124257 -0.053780526 -0.03579777
0003e0 8a b1 8c bd 5c 59 59 bc b6 3a 84 3d 22 66 1a 3d
       -0.068698004 -0.013265934 0.06456511 0.037695058
0003f0 48 c4 68 bd 1f 38 ec b9 fb 35 b4 ba 50 a0 2e bd
       -0.056827813 -0.0004505524 -0.0013748998 -0.042633355

sequential_2/conv2d_4/Conv2D f4 [64, 3, 3, 64]
000000 4d 8d 96 bd cd 12 9f bd 49 3e 39 bd 00 45 6c 3d
       -0.0735117 -0.07767258 -0.045225415 0.05768299
000010 c5 fe 1b bc 6b ec 37 3c f7 2e 44 bd 69 7c 81 bd
       -0.009521191 0.0112258 -0.04789635 -0.063225575
000020 fa 9b f7 3c 3d 72 99 bd 46 19 f4 bc 5f c1 aa bc
       0.030225743 -0.07492492 -0.029797208 -0.02084416
000030 1f e1 a4 bd 5d 86 13 bd cd c2 ab bd da 2a 88 bd
       -0.08050751 -0.03601681 -0.08386765 -0.06648798
000040 3c 12 15 bd d0 e2 fb bb 99 21 76 3c 3f 67 f1 3b
       -0.036394343 -0.0076869503 0.015022659 0.007367044
000050 4d 8c 90 bd d5 2f 51 3c e4 b8 02 bd f8 ca 97 bd
       -0.0705801 0.012767752 -0.031914607 -0.0741176
000060 4f 2d bf bd 73 03 6b bd b2 21 8b bd fb 67 f1 bd
       -0.09334814 -0.057376336 -0.06793536 -0.11787411
000070 52 cf 47 3b 60 a8 b2 bc fd 71 95 bd 71 ae 21 bd
       0.0030488563 -0.021808803 -0.07297132 -0.039473
000080 f4 5e 8c bd 27 5e 4b bb 1a c7 99 3c bf 9d e9 bd
       -0.06854048 -0.003103146 0.018771697 -0.11407041
000090 30 b0 0a bd 1f af 9e bd ec 78 7e 3d c1 57 1b bd
       -0.03385943 -0.077482454 0.06212704 -0.037925486
0000a0 a3 a8 6b 3d cc da 19 3d fd 74 e7 3c 6b 06 23 3c
       0.05753387 0.037562177 0.028254027 0.009950261
0000b0 6c 2b e4 bc a5 f1 6d 3d 21 e2 82 3c fa 61 05 3d
       -0.027852736 0.05809178 0.015976967 0.03256414
0000c0 f8 85 ae bd 0a d4 1e be 00 a4 43 bd e7 41 f9 3c
       -0.08521646 -0.15510574 -0.047763824 0.030426932
0000d0 77 ae 4c 3d 0d 1b 20 bc e8 fb f7 bc 6d f3 8d 3d
       0.04997107 -0.009772074 -0.030271485 0.069311954
0000e0 b8 52 85 3d c3 95 88 bd 12 eb 99 3c d1 c0 15 3d
       0.06509918 -0.0666919 0.018788848 0.036560837
0000f0 dc 71 84 bd 3e be 45 3d f6 4a 84 bd 9d f8 16 bd
       -0.064670295 0.048277132 -0.0645961 -0.03685819
000100 dd 6a 1c bd f3 4c a1 bd 41 e7 fc bb af bd 39 bc
       -0.03818785 -0.07876005 -0.0077179973 -0.011336728
000110 df d4 a0 bd ba c0 0d be f8 41 4b bd 9b f4 53 bd
       -0.07853102 -0.1384305 -0.04962346 -0.051746946
000120 a3 2b 06 3d ea 68 bd bb 85 76 42 3d 09 99 ae bd
       0.03275646 -0.005780329 0.04747631 -0.08525283
000130 c8 96 9c 3b 91 64 85 3d 1d a3 9e bd 67 c3 87 bd
       0.0047787167 0.06513322 -0.07745955 -0.06629067
000140 14 52 90 3c 40 2f b5 ba 86 b7 e3 3c f6 e9 63 3c
       0.017617263 -0.0013823286 0.027797472 0.013910761
000150 8c 6f 92 3d 9c d5 92 bd 97 a6 b7 bc 27 a4 4a bd
       0.07150182 -0.07169649 -0.022418303 -0.049472954
000160 30 40 2c bd a3 55 ae bc 88 69 9f 3c c6 95 06 bd
       -0.0420534 -0.02128107 0.0194595 -0.03285768
000170 8c 2b d9 bd d3 9b 38 3c 92 86 ba bb 49 ae 56 3d
       -0.10604009 0.01126762 -0.0056923116 0.052412305
000180 a2 8f 5d 3b fc 39 b8 bd 07 64 c2 bc 61 f0 b3 bd
       0.0033807536 -0.08995435 -0.023729337 -0.08786083
000190 e9 1e 72 bd 92 43 e8 3c f0 30 c1 3b 9c a5 9d bd
       -0.05911151 0.028352533 0.0058957264 -0.07697603
0001a0 0c 66 dc bc a2 ef ab bd 95 70 db bc fd 5c b2 39
       -0.026904128 -0.08395316 -0.026787082 0.00034020087
0001b0 d1 1b 17 bd 8a b8 1a 3d b1 f3 43 3d 88 56 5c 3c
       -0.036891762 0.037773646 0.047839824 0.013448365
0001c0 16 34 f2 bc 81 f7 cd bd 35 6a 2c 3d 22 ec f6 bd
       -0.029565852 -0.10056973 0.042093474 -0.120567575
0001d0 c4 e5 9b bd b8 6e 85 bb b1 b4 89 bd 1b 8c 90 bd
       -0.07612184 -0.0040720366 -0.06723917 -0.07057973
0001e0 fc b0 7a 3d 6a bb e2 bc 54 10 58 3d de 15 88 bd
       0.06120394 -0.027677257 0.052749947 -0.06644796
0001f0 60 0b 98 bb 84 1d 28 bd 91 03 d2 bc db 5e a4 bd
       -0.004640028 -0.041043773 -0.025636466 -0.08025905
000200 e4 ce 28 bc 05 8d 8b bd 2a 9a 7c bd b2 51 8e bd
       -0.010303233 -0.06814007 -0.06167046 -0.06949176
000210 d2 ad 51 bd 3c e0 82 bd c0 6e 8d 3d 95 44 2a bd
       -0.05119116 -0.063904256 0.069058895 -0.04156931
000220 da bb 2a 3d 76 cb 18 3d 24 15 9d 3c 77 df 01 bd
       0.041683055 0.03730341 0.01917512 -0.031707253
000230 d9 79 91 bd b4 a6 86 3d 4c f6 c1 bc 1d e5 88 bd
       -0.07103319 0.06574765 -0.023677014 -0.06684325
000240 0f b8 21 bd 26 cb 84 3d 37 4a c0 bc 99 a2 b8 bb
       -0.039482173 0.0648406 -0.023472888 -0.0056346175
000250 a8 1e 5a 3c 0a b6 7c bd 22 0a 64 bd 37 61 66 bd
       0.013312973 -0.061697043 -0.055673726 -0.056245055
000260 af 24 a5 bb 55 41 82 bb 24 68 65 3d 70 08 f5 bb
       -0.0050397734 -0.0039750733 0.05600752 -0.0074778125
000270 81 5e ba bd 81 a8 58 3c c0 3f a6 3c 81 a4 b0 bc
       -0.091000564 0.013223768 0.02029407 -0.021562817
000280 c3 4b 09 bd f2 42 12 be 8b af f4 bd 91 64 8e bc
       -0.033519518 -0.1428335 -0.11947545 -0.017381938
000290 b3 24 16 bd 54 0b 0b 3d 1b f7 15 3d 39 f8 41 3d
       -0.036656093 0.03394635 0.03661261 0.047355864
0002a0 7c b2 ba 3c ac a3 07 3d 12 45 21 bd 5e e2 38 3c
       0.022790186 0.033115074 -0.03937251 0.011284439
0002b0 bc cb aa bc dc c8 76 3d cb 2e 6a bd c0 07 c0 3a
       -0.020849101 0.06025015 -0.05717353 0.0014650747
0002c0 30 4f d2 3c 43 e7 b8 bd 11 38 8f 3c 6f 6c 8d bd
       0.025672525 -0.09028485 0.01748279 -0.06905448
0002d0 b2 ee 49 bd b1 f8 59 3c 87 9f f5 bc 46 6a 65 3c
       -0.049299903 0.013303922 -0.029983295 0.014002388
0002e0 b6 a7 81 bd 66 1b 55 bd 9e 7b 1f bd 3b 69 c1 3b
       -0.063308164 -0.052028082 -0.03893625 0.005902437
0002f0 ac 1c 84 bd 78 07 c4 3b 75 87 a3 bd d0 e7 0f bd
       -0.06450781 0.0059823357 -0.07984821 -0.035133183
000300 d0 1c 9c 3c fa 1b 90 bd 73 15 a9 bd d0 90 63 bc
       0.019056708 -0.07036586 -0.08256044 -0.013889506
000310 6d b6 82 bd 31 11 68 bc ec f6 b2 b9 0e 90 3a bd
       -0.06382451 -0.014164255 -0.00034134777 -0.045547538
000320 7c c1 54 bd d1 9d 88 3c e4 c9 50 bb 6c a6 40 bd
       -0.051942334 0.016676815 -0.0031858617 -0.047033712
000330 d4 ac 31 bd b7 72 48 bd 13 17 1e 3d 33 be fe bd
       -0.043377712 -0.048937526 0.038596224 -0.12438621
000340 e6 14 8a bb b0 81 f9 bb ef 92 78 3d 6d 9f 86 bc
       -0.004213917 -0.007614337 0.060687 -0.016433442
000350 5c c5 80 3c fe 10 f1 3c a7 12 88 bd 77 3f 6b 3c
       0.015719108 0.029427048 -0.06644183 0.014358393
000360 c8 cc 21 3d 09 64 af bc 46 34 4d 3d 21 ea 7b bd
       0.039501935 -0.021410005 0.05009868 -0.06150258
000370 05 94 c7 bd 4b 0d 55 bd 10 a5 c4 bd 18 dd 44 bd
       -0.09745029 -0.05201463 -0.09601796 -0.048062414
000380 59 79 3d 3d ee df 81 3d 5b 6e 9d bb b4 73 fa 3b
       0.046258304 0.06341539 -0.004804415 0.0076431874
000390 04 ad 30 bd 58 00 30 bd fc 1a a7 bd 62 bd 84 3c
       -0.04313375 -0.042969078 -0.08159444 0.016203586
0003a0 19 87 34 bc b6 24 5d 3d 3e e1 9f 3c 6d 95 35 bd
       -0.011018538 0.05399009 0.019516584 -0.044331957
0003b0 0e 71 0c bd e4 11 44 bc f9 ee 29 3d 04 64 69 3d
       -0.034287505 -0.011967156 0.041487668 0.056980148
0003c0 63 62 82 3d 48 70 9d 3c 2d 6e 83 3c 3f 81 b3 3b
       0.06366422 0.019218579 0.016043747 0.005478054
0003d0 ca 00 d3 bd 6d 77 4f 3d d2 46 3a bd 20 78 03 bd
       -0.10302885 0.050651003 -0.045477696 -0.032096982
0003e0 9a 42 20 3d 33 d8 2e 3d a8 87 46 3d 5c 2a 5e 3d
       0.039126016 0.042686652 0.048469216 0.054239616
0003f0 24 bb 5e 3d ed 57 9b bd 5f bb 39 3d ae d5 06 3d
       0.05437769 -0.0758513 0.045344707 0.032918625
