app/src/main/ml/SugarcaneDisease.tflite (tflite, 742088 bytes, 16 tensors)

sequential_2/conv2d/Relu;sequential_2/conv2d/BiasAdd;sequential_2/conv2d/Conv2D;sequential_2/conv2d/BiasAdd/ReadVariableOp f4 [32, 3, 3, 3]
0	0x39808e94	0.00024520291
1	0xb9753b7c	-0.0002338718
2	0xb95cff89	-0.00021076029
3	0x390a2015	0.00013172657
4	0x3a028a97	0.0004979758
5	0x391532cf	0.00014228675
6	0xb98adb27	-0.00026484692
7	0xb9eeaf1b	-0.0004552536
8	0xb87fbdce	-6.0973507e-05
9	0xb93ebb94	-0.0001818969
10	0x39806c2d	0.0002449466
11	0x39377c9b	0.00017498659
12	0x3a0714a2	0.0005152916
13	0xb951d307	-0.00020010407
14	0x3a00c20c	0.0004911728
15	0x39ee6196	0.00045467605
16	0xb9f8aaef	-0.00047429602
17	0xb9dd9aff	-0.00042267886
18	0xb92ce928	-0.00016490056
19	0xb9685632	-0.00022157354
20	0xb990f055	-0.00027644882
21	0x39afb280	0.00033511594
22	0xb8024219	-3.1055974e-05
23	0x38978613	7.225214e-05
24	0x39edff05	0.00045394167
25	0xb9414fe6	-0.00018435679
26	0xb86df927	-5.6737244e-05
27	0x39efe3af	0.0004575527
28	0xb91108a6	-0.000138315
29	0xb99153c7	-0.00027718974
30	0xb8cc9540	-9.755278e-05
31	0xb9640938	-0.00021747209
32	0xb9dc5d4e	-0.00042031187
33	0xb95ea9d1	-0.00021234831
34	0x39cabb2e	0.00038667902
35	0x399ac4dc	0.0002951984
36	0xb9f7b753	-0.00047248098
37	0xb9b93c1d	-0.00035330738
38	0xb91dc7e8	-0.00015047158
39	0xb9481d55	-0.00019084413
40	0xb9f9f5ec	-0.00047676207
41	0x39c0518b	0.00036681848
42	0x39dcdbdd	0.0004212548
43	0x3925bf36	0.00015806858
44	0xb8c11937	-9.207654e-05
45	0x3a0c1016	0.0005342973
46	0x39b5abcd	0.00034651012
47	0x3a067027	0.00051284063
48	0xb8aaf2a6	-8.1514285e-05
49	0xb93eb211	-0.00018186147
50	0x39b7df37	0.00035070788
51	0xb9e2e086	-0.00043273362
52	0x37984759	1.8153036e-05
53	0xb6d432f4	-6.324024e-06
54	0x3823cb82	3.905176e-05
55	0x3a072e77	0.0005156765
56	0xba16819c	-0.0005741359
57	0xb990d9e2	-0.00027628156
58	0x36b80af2	5.4849015e-06
59	0x39c5a741	0.00037699382
60	0xba022453	-0.0004964519
61	0x387eb349	6.072529e-05
62	0x38129bc1	3.495417e-05
63	0xb867fd20	-5.5310433e-05
64	0xb8ae6ff8	-8.317822e-05
65	0x397ad814	0.00023922353
66	0x3913a94a	0.00014082078
67	0xba12ac2b	-0.0005595113
68	0xb9ae0182	-0.0003318899
69	0x39cbe6f9	0.00038891265
70	0x39b708e3	0.000349111
71	0x39ee3785	0.00045436263
72	0xb878a50b	-5.9281516e-05
73	0x3957516f	0.00020534334
74	0x39a4762a	0.00031368557
75	0x39aa951d	0.00032536025
76	0xb806c90c	-3.213533e-05
77	0xb911793b	-0.0001387344
78	0xb9bcbe7c	-0.00036000076
79	0x390ab1c8	0.00013226934
80	0xba08c3e7	-0.000521718
81	0x396006f1	0.0002136489
82	0xba1dacde	-0.0006014834
83	0xba1b124d	-0.0005915508
84	0x392bb16a	0.00016373923
85	0x39993ae6	0.00029226317
86	0xb5b1209b	-1.3197017e-06
87	0xba08b44c	-0.00052148546
88	0x39e93a8d	0.00044484847
89	0x39ee6eb4	0.00045477378
90	0x38e7181e	0.000110194305
91	0x39f5e1e0	0.00046898331
92	0xb8883149	-6.4941654e-05
93	0x396c210f	0.00022519029
94	0xba060abc	-0.0005113294
95	0xb870302b	-5.726532e-05
96	0x39f72301	0.0004713759
97	0x384e4fcb	4.918854e-05
98	0x38e34cf6	0.000108385386
99	0x38cdccbe	9.813298e-05
100	0x3962f0a2	0.00021642682
101	0xb9885d2d	-0.00026009363
102	0x391f7627	0.00015207437
103	0x3940a84a	0.0001837324
104	0x37733420	1.4496065e-05
105	0xb9b52f01	-0.0003455803
106	0xb8da1bc7	-0.00010400224
107	0x3942f76e	0.00018593456
108	0xb87aa27c	-5.975597e-05
109	0x397e3841	0.00024244284
110	0xb9afac49	-0.00033506964
111	0x39b0c5bf	0.00033716668
112	0x3954d174	0.00020295923
113	0xb9f07933	-0.00045866668
114	0xba20ee7f	-0.00061390543
115	0xba0be59b	-0.0005336643
116	0x39624530	0.00021578814
117	0xb9500efa	-0.00019842005
118	0x3a05819e	0.0005092862
119	0xb8b77834	-8.7485096e-05
120	0x3833c52c	4.2860556e-05
121	0x382d2376	4.127944e-05
122	0x395b3a32	0.00020907147
123	0x38b46d9f	8.6034874e-05
124	0xb846b3b5	-4.7374244e-05
125	0x39cecd9f	0.00039444581
126	0x398a65f4	0.00026397372
127	0x398423d2	0.0002520369
128	0x378f434c	1.7078266e-05
129	0x39684f2c	0.00022154738
130	0xb76403a8	-1.359071e-05
131	0xb96fdc74	-0.00022874941
132	0x397d96a2	0.00024184075
133	0x39ed660f	0.00045280202
134	0xb9be8f6c	-0.00036346482
135	0x39be8443	0.00036338167
136	0x38a02f60	7.638219e-05
137	0xb801a13d	-3.090616e-05
138	0xb7062fd5	-7.998159e-06
139	0xba057137	-0.00050904177
140	0x39fd1574	0.00048271904
141	0x390bf719	0.00013348124
142	0x3926a4ba	0.00015892359
143	0x3844afd2	4.6893787e-05
144	0xb9060ea4	-0.0001278469
145	0xba0a3467	-0.0005272091
146	0x3974ba1f	0.00023338989
147	0x39c7dd3c	0.0003812107
148	0x3a050551	0.00050743396
149	0xb9b51fb9	-0.00034546645
150	0x37e90853	2.777964e-05
151	0xb8b475ef	-8.605036e-05
152	0x386123b0	5.3677417e-05
153	0xba07c448	-0.00051790895
154	0xb99eb794	-0.00030272885
155	0x398142e6	0.0002465464
156	0xb960de48	-0.00021445111
157	0xb9be408f	-0.00036287724
158	0x36278783	2.4963817e-06
159	0x39a57da2	0.00031564856
160	0x3a0274ef	0.0004976531
161	0xb7a87b09	-2.0084453e-05
162	0x38f312a1	0.00011590613
163	0xb9e00f90	-0.00042736204
164	0x39ba2938	0.00035507395
165	0x393a30e9	0.00017756563
166	0xb8b0280c	-8.399793e-05
167	0xb9b6b6ad	-0.0003484985
168	0xb9eb7ef9	-0.00044917295
169	0x374253fb	1.1582854e-05
170	0xb9dbc2f9	-0.000419162
171	0xba1a0f3a	-0.0005876903
172	0xba185403	-0.00058108586
173	0xba097313	-0.00052432826
174	0x39fe2a74	0.00048478285
175	0xb8cfa07c	-9.900422e-05
176	0xb9957362	-0.00028505462
177	0x39dbd1ab	0.0004192715
178	0x38793452	5.9414953e-05
179	0xb9ac2b8b	-0.00032838839
180	0xb94a5719	-0.00019296668
181	0xb9a9dc89	-0.00032398503
182	0xb8cf701c	-9.891411e-05
183	0xb982798f	-0.000248861
184	0x39e241c1	0.0004315507
185	0xb9c4d0e4	-0.0003753967
186	0x390337f5	0.00012513979
187	0x39f5a3d9	0.00046852118
188	0xb9a34b59	-0.0003114592
189	0xb95080da	-0.00019884427
190	0x39bf4802	0.0003648401
191	0x39b0749e	0.00033656223
192	0xba079d29	-0.000517326
193	0xb945d988	-0.00018868421
194	0x39d639e1	0.00040860384
195	0xb90924d1	-0.00013079053
196	0x39c73636	0.00037996628
197	0x3906aa95	0.00012842783
198	0x398608a7	0.00025564918
199	0x39c39fc9	0.00037312348
200	0xb921e36c	-0.00015438878
201	0xb910bc2c	-0.0001380301
202	0xb6f0f6f6	-7.1813074e-06
203	0xb873e9fb	-5.8153626e-05
204	0x3985c7e0	0.00025516655
205	0x39ba5180	0.00035537407
206	0x3a07e093	0.00051833055
207	0xb9896f6d	-0.00026213695
208	0x36f2a91a	7.231848e-06
209	0x39cd8257	0.00039197758
210	0xb9cb7e25	-0.00038813162
211	0xb9cfbdaa	-0.00039623427
212	0x37eca42c	2.820984e-05
213	0xb9ca90dc	-0.0003863637
214	0x39a01e00	0.0003053993
215	0xb94732f2	-0.00018997098
216	0xb9c502e5	-0.00037576925
217	0x37ab293d	2.0403992e-05
218	0xb9c677da	-0.000378548
219	0x39d60cde	0.00040826848
220	0x39e2b417	0.00043240256
221	0xb9f4a786	-0.0004666412
222	0xb9aadfcc	-0.00032591668
223	0xb7e8f048	-2.7768445e-05
224	0xb9f1e2f5	-0.00046136198
225	0xb907bdad	-0.00012945263
226	0xb9e5bec2	-0.0004382041
227	0x39049e50	0.00012647477
228	0x3a057a96	0.0005091814
229	0xb986b75a	-0.0002569508
230	0x39eff8f8	0.00045771128
231	0xb90f077d	-0.00013640332
232	0xb912a726	-0.00013985913
233	0xb9004314	-0.0001223202
234	0xb9cac1e2	-0.00038672896
235	0xb99fe3f4	-0.00030496682
236	0xb8b753a6	-8.741701e-05
237	0x384f4fae	4.9426853e-05
238	0x398a9550	0.00026432658
239	0x39c80347	0.00038149414
240	0x39a5cdfb	0.0003162472
241	0x3a15e35f	0.000571778
242	0x3a02890c	0.0004979528
243	0xb9353059	-0.00017279516
244	0xb970c520	-0.00022961618
245	0x39f52def	0.00046764265
246	0xb9a5a992	-0.00031597592
247	0xb852893d	-5.0195715e-05
248	0x385b4fcf	5.2287996e-05
249	0xb9fdcd34	-0.0004840881
250	0xb9502f42	-0.0001985403
251	0x3a064f30	0.0005123494
252	0xb885fd07	-6.389064e-05
253	0x39f346f7	0.00046401445
254	0x39f86ca9	0.00047383204
255	0xb7d8b1f1	-2.5832067e-05

sequential_2/conv2d/BiasAdd/ReadVariableOp f4 [32]
0	0xbc2faf82	-0.010722997
1	0xbc05b34c	-0.0081604235
2	0xbc858d92	-0.016302858
3	0xbd0c3ec8	-0.03423956
4	0xbc3524e6	-0.011056161
5	0xbcec1bcf	-0.028821854
6	0xbc6e3819	-0.014539742
7	0xbc6abb96	-0.014326951
8	0xbc077f40	-0.008270085
9	0xbcb72708	-0.022357479
10	0xbcef2454	-0.029192127
11	0x3ce20ffc	0.027595513
12	0xbc100927	-0.008791245
13	0xb9d1b718	-0.00040000002
14	0xbc6d0962	-0.014467569
15	0xbd317a11	-0.043329302
16	0xbca4d20e	-0.020119693
17	0xbc0a1dca	-0.008429954
18	0xbce6d648	-0.02817835
19	0xbb9d588e	-0.0048018163
20	0xbb17ac3a	-0.0023143427
21	0x3be6a117	0.0070382464
22	0xbcc7c2b9	-0.024384843
23	0xbc27cecd	-0.010242176
24	0xbb0d06a4	-0.002151885
25	0xbd198cf6	-0.037487946
26	0x3d12e9ec	0.035867617
27	0xbb58680f	-0.0033021008
28	0x3bc49cdf	0.006000146
29	0xbc849a9d	-0.016187007
30	0x00000000	0.0
31	0xbbef6fbd	-0.0073070214

sequential_2/conv2d_1/BiasAdd/ReadVariableOp f4 [64]
0	0xbbf9d462	-0.007624195
1	0x3c140da5	0.009036456
2	0xbc1046b7	-0.008805922
3	0xbc4f41e9	-0.012649992
4	0xbb9d4270	-0.0047991797
5	0xbba1ed1d	-0.004941596
6	0x3a8c656c	0.0010711378
7	0xbc5df378	-0.013546817
8	0xbc423223	-0.011852774
9	0xbc9f80da	-0.01947062
10	0xbc842e49	-0.016135352
11	0xbc06b9fc	-0.008223053
12	0xbbbae564	-0.005703615
13	0xbb4bf62e	-0.0031122076
14	0xbc81defa	-0.015853394
15	0xbcaf8506	-0.021425735
16	0xbcd79d9b	-0.02632027
17	0xbbcf4c87	-0.0063262614
18	0xbcc50dc8	-0.024054423
19	0xbc09d875	-0.008413424
20	0xbc943a77	-0.018094284
21	0xbc29d10e	-0.010364784
22	0xbc8cb158	-0.017174408
23	0x3c99372f	0.018703071
24	0xbbcb8f2b	-0.0062121353
25	0x3b72ed53	0.0037067726
26	0x3c2f1d94	0.010688204
27	0xbc97a74c	-0.01851239
28	0xbbf643b5	-0.0075153955
29	0xbc51cf07	-0.012805707
30	0xbcf928f2	-0.030415032
31	0xbc1ca304	-0.00956035
32	0xbc12c75d	-0.008958665
33	0xbcce4f5d	-0.025184328
34	0x3ba8b0b2	0.005148017
35	0xbc814ca0	-0.015783608
36	0x38fe4bbc	0.000121257704
37	0xbc23bcdd	-0.009993759
38	0xbc3d60a9	-0.01155869
39	0x3a583e3e	0.0008249021
40	0xbbdeaa47	-0.006795201
41	0x3baa2aab	0.0051930747
42	0x3b92a777	0.00447553
43	0xbcd315d8	-0.025767252
44	0x3bea625b	0.007152838
45	0xbc7e8a4f	-0.015535905
46	0xbb94057d	-0.004517256
47	0xbc9559ef	-0.01823136
48	0x3b1c4ec9	0.002385067
49	0xbba47c78	-0.0050197206
50	0xbc924f47	-0.017860068
51	0xbcfee523	-0.03111512
52	0xbbbf77af	-0.005843125
53	0x3c10d910	0.008840814
54	0xbb8ff8b6	-0.0043936623
55	0x3cdfb3c6	0.027307402
56	0xbc80f506	-0.015741836
57	0x3cd825e8	0.026385263
58	0xbc693cd6	-0.014235696
59	0xbc213887	-0.009840137
60	0x3d0482d0	0.032351315
61	0x3d20171c	0.03908454
62	0xbcf54cde	-0.02994388
63	0xbab81af7	-0.0014046122

sequential_2/conv2d_2/BiasAdd/ReadVariableOp f4 [64]
0	0xbbce5a4d	-0.006297386
1	0xbcec9165	-0.028877923
2	0xbc6b3417	-0.014355681
3	0x3a4d662a	0.0007835353
4	0xbbe3e8f7	-0.006955262
5	0xbcc713af	-0.024301378
6	0xbc7cfec5	-0.015441601
7	0xbcd513c9	-0.02601041
8	0xbc93d5a4	-0.018046208
9	0xbc1277d6	-0.008939704
10	0xbc1d73da	-0.009610141
11	0xbbcd2145	-0.0062600696
12	0xbc031bd3	-0.008002239
13	0x3bbb84f6	0.0057226373
14	0xbc8201d4	-0.015870012
15	0xbca7b9de	-0.02047437
16	0xbd04e71d	-0.03244697
17	0xbbd629b6	-0.006535734
18	0xbbec2cd9	-0.0072074947
19	0xbbe14d73	-0.0068756877
20	0x3c9ad592	0.018900666
21	0xbcb66310	-0.022264034
22	0x3cd2b9ae	0.025723305
23	0xbc0eb432	-0.008709954
24	0xbd00999e	-0.0313965
25	0x3a71210a	0.00091983436
26	0xbcb3ad46	-0.02193321
27	0xbc94d914	-0.018169917
28	0xbcd16b20	-0.025563776
29	0xbc210dcd	-0.0098299505
30	0x3addee6b	0.0016932016
31	0xbceed171	-0.029152604
32	0xbc4ea2f4	-0.012612093
33	0xbc20dc70	-0.009818181
34	0xbaaf62c6	-0.0013380877
35	0xbc3ec331	-0.011643217
36	0x3b81e701	0.0039643054
37	0xbbd7468c	-0.006569689
38	0xbd07603f	-0.03305077
39	0xbc0a68a7	-0.008447803
40	0xbb6cd374	-0.0036136778
41	0xbcaa3cc9	-0.020780938
42	0xbbe88788	-0.0070962347
43	0xbbbed711	-0.0058239778
44	0xbd069bb6	-0.03286334
45	0xbc844950	-0.01614824
46	0xb9d430fb	-0.00040472284
47	0x3b386bd8	0.0028140452
48	0xbb5e45ba	-0.0033916072
49	0xba90066a	-0.001098824
50	0xbcc6fae7	-0.024289561
51	0xbc15cd67	-0.00914321
52	0xbd00ece5	-0.03147592
53	0xbcd8a25c	-0.026444606
54	0xbc2f5612	-0.010701673
55	0xbc0a356d	-0.008435589
56	0xbcd9112b	-0.026497444
57	0x3b0eb426	0.0021774857
58	0xbbf575aa	-0.0074908333
59	0xbcadb6c0	-0.021205306
60	0xbc4f660e	-0.012658609
61	0xbbc157a3	-0.0059003397
62	0xbbffecb7	-0.007810201
63	0x3cd58d86	0.02606846

sequential_2/conv2d_3/BiasAdd/ReadVariableOp f4 [64]
0	0xbc3d5cfe	-0.011557816
1	0x3c1113a7	0.008854783
2	0xbbbad111	-0.005701192
3	0xbbf35d20	-0.007426873
4	0xbbacd7c2	-0.005274744
5	0x3b21c851	0.0024686048
6	0xbb052f77	-0.002032248
7	0x3c11b73b	0.008893783
8	0xbc570af0	-0.013125166
9	0xbbf5bf97	-0.007499646
10	0xbaa446d4	-0.0012533315
11	0xbba02dbe	-0.0048882654
12	0xbc5bf279	-0.013424509
13	0xbcbb9907	-0.022900118
14	0xbcc3ecc2	-0.023916606
15	0x3c25468e	0.010087622
16	0xbba313b4	-0.004976714
17	0xbc07d9de	-0.00829169
18	0xba78ff4e	-0.00094984926
19	0xbc951073	-0.01819632
20	0xbc0d6f01	-0.008632422
21	0xbbb8e5ad	-0.005642614
22	0x3cf33462	0.029688064
23	0xbc6f9a24	-0.014624152
24	0xbd007bc3	-0.03136803
25	0xbc18b2cf	-0.009319975
26	0xbad5d993	-0.0016315453
27	0x3ca317b6	0.019908767
28	0xbb9831d5	-0.0046446123
29	0x3c0bd6fb	0.008535142
30	0xbcc604ba	-0.024172176
31	0xbb823da6	-0.003974634
32	0xbcf92d26	-0.030417036
33	0xbd0d6f5b	-0.034530025
34	0x3ccdb1ca	0.02510919
35	0x3ba457e8	0.005015362
36	0xbbf0f50e	-0.0073534315
37	0xbc7910cf	-0.015201761
38	0xbbdce2db	-0.0067409105
39	0xbc93686b	-0.017994126
40	0xbd027fad	-0.031860042
41	0xbc02afc7	-0.007976479
42	0x3c1e574c	0.009664368
43	0xbc48c571	-0.012254105
44	0x3c2c3567	0.010510779
45	0xbb45abc4	-0.0030162195
46	0xbc2637cf	-0.010145142
47	0xbc5f573f	-0.013631641
48	0xbd073e5f	-0.033018466
49	0xbc3ab442	-0.011395516
50	0x3d2de03b	0.04245017
51	0x3b8d198c	0.004306024
52	0xbb809676	-0.0039241863
53	0x3c833748	0.016017571
54	0xbcad0c9d	-0.021124179
55	0xbc88e0f6	-0.016708832
56	0xbcfa7be6	-0.030576658
57	0xbbb3e325	-0.005489724
58	0x3c97b1e5	0.018517444
59	0xbc101241	-0.008793415
60	0xbc16ecf1	-0.009211765
61	0xbba6f63d	-0.005095272
62	0xbc429b4e	-0.011877848
63	0xb974a7f8	-0.00023332227

sequential_2/conv2d_4/BiasAdd/ReadVariableOp f4 [64]
0	0x3c641497	0.013920925
1	0xbbef15b2	-0.0072962875
2	0x3c753f14	0.014968652
3	0xbb621c20	-0.0034501627
4	0x3c7b26d5	0.0153290825
5	0xbc0970f0	-0.008388743
6	0xbbc51bfb	-0.0060152984
7	0x3c35afe0	0.011089295
8	0xbbb370ff	-0.0054761167
9	0xbbc397af	-0.00596901
10	0xbbb241d9	-0.0054399786
11	0xbb86a273	-0.004108721
12	0xbbc4af73	-0.0060023605
13	0x00000000	0.0
14	0xbaf4fa9c	-0.001869041
15	0xbb04c43a	-0.0020258562
16	0xbc3d27e3	-0.011545154
17	0x3a7eb381	0.0009716079
18	0x3c270c79	0.010195845
19	0xbc29d61b	-0.010365988
20	0xbbf45ff0	-0.0074577257
21	0x3b82301f	0.0039730216
22	0xbc2bb37b	-0.010479803
23	0x3be78a6a	0.007066061
24	0xbc381a62	-0.011236759
25	0x3b98b957	0.004660766
26	0x3c881846	0.016613137
27	0xbb8abe7d	-0.0042341338
28	0x3b864c8a	0.0040984796
29	0xbb0ee6dd	-0.0021805086
30	0x3b204ecb	0.0024461027
31	0xbbc899fd	-0.0061218725
32	0xbcd85cee	-0.0264115
33	0xbbc651ab	-0.006052216
34	0xbc3489de	-0.011019198
35	0xbc1eace6	-0.009684777
36	0xbc69782a	-0.014249841
37	0xbbc4800d	-0.00599671
38	0xbbcd546e	-0.0062661683
39	0x3abfb169	0.0014625016
40	0xbbcca42a	-0.006245156
41	0xbbfccd97	-0.007714938
42	0xbc33fef8	-0.010986082
43	0x3c800cfe	0.015631195
44	0xb8725068	-5.777218e-05
45	0xbca93f27	-0.020659996
46	0x3c890c60	0.016729534
47	0xbc394483	-0.011307838
48	0xbbc30ad5	-0.005952219
49	0x3ca6a158	0.020340607
50	0xbcc10214	-0.023560561
51	0xba57a918	-0.0008226796
52	0xbbbb2889	-0.0057116193
53	0xbc5e140a	-0.013554582
54	0xbc4f1995	-0.012640377
55	0xbb90575c	-0.0044049453
56	0xbbd79b81	-0.006579817
57	0x3c8a90e0	0.016914785
58	0xbc360b9c	-0.011111166
59	0xbc0e149f	-0.008671909
60	0x3be3ac09	0.0069479984
61	0xbbc55e5b	-0.006023211
62	0x3c8cb92c	0.01717814
63	0xbbd53e09	-0.0065076393

sequential_2/conv2d_5/BiasAdd/ReadVariableOp f4 [64]
0	0xbc0a5663	-0.008443448
1	0x3c3ce8c6	0.011530107
2	0xbc39503d	-0.011310634
3	0x3c37169e	0.011174826
4	0xbbc4b526	-0.00600304
5	0x3c435189	0.011921295
6	0x3c0e2cfb	0.008677716
7	0xbb4b369c	-0.0031007892
8	0x3bbf63eb	0.0058407686
9	0xbb2f23f9	-0.0026724322
10	0xba4de75c	-0.00078546046
11	0x3c001acb	0.007818888
12	0x3c74f631	0.014951275
13	0xbb27ce2e	-0.002560507
14	0x3b4305a9	0.0029758012
15	0xb9087eb8	-0.00013017177
16	0xbb3310f2	-0.0027323333
17	0x3c81f87e	0.01586556
18	0x3c41731a	0.0118072275
19	0xbc42eca9	-0.0118972445
20	0xbb99ddf7	-0.0046956497
21	0xbb8ca28b	-0.0042918376
22	0xbc02e3a2	-0.007988842
23	0x399e650b	0.0003021139
24	0x3c8a44ac	0.016878448
25	0x3ca30988	0.019902006
26	0xbc0d3fda	-0.00862118
27	0x3b8d0e3f	0.004304677
28	0xbc403a71	-0.0117326835
29	0xbc127bef	-0.008940681
30	0xbae18669	-0.0017206195
31	0x3bc91920	0.0061370283
32	0xbc00c1a8	-0.007858671
33	0x3b5ade74	0.0033396753
34	0xbaae5050	-0.0013299081
35	0xbbf21743	-0.007388027
36	0xbbe101ac	-0.0068666544
37	0xbbc49ca4	-0.0060001183
38	0xbc1c7aa0	-0.00955072
39	0xbb372dc7	-0.002795087
40	0x3c01b59d	0.007916835
41	0x3c05602d	0.008140606
42	0xbbff36c2	-0.00778851
43	0xbbdd0245	-0.0067446553
44	0x3b5db086	0.003382714
45	0xbbf8d57b	-0.007593808
46	0xbc4b6c8d	-0.012416017
47	0xbbf5b932	-0.0074988836
48	0x3ca1cbd4	0.019750513
49	0xbc41106f	-0.011783703
50	0x3c9ab0dc	0.018883161
51	0xbc3aadf2	-0.011394011
52	0x3c322c85	0.010874872
53	0xbbc43c76	-0.005988653
54	0x3b8bfdf1	0.0042722155
55	0x3caf944a	0.021433014
56	0xbc68777b	-0.014188643
57	0xbba27d59	-0.0049587903
58	0xbbd47b59	-0.0064844307
59	0xbbd7da85	-0.006587329
60	0xbbd2e4a1	-0.006435946
61	0xbbc86d76	-0.0061165644
62	0xbb634116	-0.0034676245
63	0xbbdc02fb	-0.0067142225

sequential_2/conv2d_1/Conv2D f4 [64, 3, 3, 32]
0	0xbd5815b6	-0.05275508
1	0xbd8530b1	-0.06503428
2	0xbcca8fd3	-0.024726784
3	0xbd257018	-0.040390104
4	0xbd3eae25	-0.046552796
5	0xbd5f1517	-0.054463472
6	0x3daa6e90	0.083218694
7	0x3d15d835	0.036583144
8	0xbda0495b	-0.078264914
9	0xbbb2736c	-0.0054458883
10	0x3bfbdc49	0.007686172
11	0x3b8ff2b8	0.004392948
12	0x3cc81cf6	0.024427872
13	0x3d0c6bdb	0.034282546
14	0xbc92bd0b	-0.017912408
15	0xbbb44d4e	-0.0055023795
16	0xbac96746	-0.0015365861
17	0x3d863481	0.06552983
18	0xbd76b0f9	-0.060227368
19	0x3caf7690	0.02141884
20	0xbd419022	-0.047256596
21	0x3db0e4fe	0.08637427
22	0xbd0af2c7	-0.033922937
23	0x3d4a30e7	0.049363043
24	0x3cf83472	0.030298445
25	0xbd255d65	-0.04037227
26	0xbbe2768a	-0.0069111036
27	0x3d17f83b	0.037101965
28	0xbdc9cf14	-0.0985395
29	0x3ce66045	0.028122077
30	0xbc6de980	-0.014521003
31	0x3bbceed2	0.0057657743
32	0x3d267b91	0.040645186
33	0x3d48771d	0.04894172
34	0xbd2bbc39	-0.04192755
35	0x3d10c360	0.035342574
36	0xbc881244	-0.016610272
37	0x3d727391	0.059192244
38	0xbd80f2ab	-0.06296285
39	0x3d8c5df2	0.06853856
40	0xbd8279cc	-0.06370887
41	0x3d5900a4	0.052979127
42	0xbd4a8e91	-0.04945237
43	0xbd1369c4	-0.035989538
44	0xbc925e99	-0.017867373
45	0xbd2bf1cb	-0.04197864
46	0x3d851293	0.064976834
47	0x3d5c92e5	0.053851027
48	0xbc83e54e	-0.016100552
49	0xbc533dd5	-0.01289316
50	0xbd7d00e2	-0.06176842
51	0x3d5eb25a	0.054369308
52	0x3d07894e	0.03308993
53	0x3ca04a76	0.019566756
54	0xbd1c7668	-0.03819886
55	0xbd6378af	-0.055535015
56	0x3d408b24	0.047007695
57	0xbb2f6fc9	-0.002676951
58	0xbd7c7ff8	-0.061645478
59	0xbd5cec84	-0.053936496
60	0xbc7f3c49	-0.015578338
61	0x3b03d9e7	0.0020118894
62	0x3d8b03c3	0.06787827
63	0x3c9d65f3	0.019213652
64	0x3d418d9a	0.047254182
65	0xbc987382	-0.018609766
66	0x3da4786a	0.0803078
67	0xbd808901	-0.062761314
68	0xbc0167a7	-0.007898248
69	0x3c073552	0.008252459
70	0xbd0f49aa	-0.03498236
71	0xb9fa3873	-0.00047725774
72	0xbd6d0006	-0.05786135
73	0x3d5e199b	0.054223638
74	0xbca34656	-0.019931
75	0xbd14dd8e	-0.036344104
76	0xbd06a46f	-0.03287166
77	0xbc652653	-0.013986188
78	0x3d8966ff	0.06709098
79	0xbd3c92f5	-0.046038587
80	0x3d274cd1	0.040844742
81	0x3cded368	0.027200416
82	0x3d47c1e9	0.04876891
83	0x3d91a637	0.07111781
84	0x3d8825c7	0.066478305
85	0x3d587c30	0.05285281
86	0xbda60882	-0.081070915
87	0x3d90d0b2	0.070710555
88	0xbd01dcb6	-0.031704627
89	0x3d429bd0	0.047511876
90	0x3d41f80d	0.0473557
91	0x3ccdab3d	0.025106067
92	0xbbb7eb11	-0.005612739
93	0x3d9c7049	0.07638604
94	0xbcc1f60c	-0.023676895
95	0xbd679742	-0.056540735
96	0xbda54944	-0.08070615
97	0x3d8833ec	0.06650528
98	0x3d81c7ca	0.06336935
99	0xbd9a12d4	-0.075231224
100	0x3d084176	0.033265553
101	0xbcf0b97e	-0.029385325
102	0xbc017226	-0.00790075
103	0xbd3f4d90	-0.04670483
104	0xbd00013f	-0.03125119
105	0xbc301993	-0.010748285
106	0xbd4360f8	-0.0476999
107	0x3d134ae2	0.035960086
108	0x3d8723be	0.06598614
109	0x3a38e4d1	0.0007053139
110	0xbd503a60	-0.05083692
111	0xbdb65b6b	-0.08904155
112	0xbd88b20e	-0.06674586
113	0x3caf6204	0.021409042
114	0x3a245fe4	0.00062703923
115	0x3d03fbb7	0.032222476
116	0x3d14072e	0.03613966
117	0x3cebaaa1	0.028767886
118	0x3d44dc42	0.048061617
119	0x3d5a35ac	0.05327384
120	0xbd1203a7	-0.035648014
121	0xbd325c8b	-0.043545287
122	0x3ca6198e	0.020275857
123	0x3d9f5b45	0.0778108
124	0x3d8d8995	0.06911007
125	0xbc821fc5	-0.01588429
126	0x3d7eafaa	0.062179245
127	0x3d8eb672	0.069683924
128	0xbc1f083d	-0.009706554
129	0xbc096a85	-0.008387213
130	0x3bebf12a	0.00720038
131	0xbc8b5dda	-0.017012525
132	0x3d8c46c9	0.06849439
133	0x3d87cd88	0.06630999
134	0x3da17cde	0.07885145
135	0x3ca677b5	0.020320753
136	0x3b408453	0.0029375746
137	0xbd62b6fe	-0.055350296
138	0xbc25fb2f	-0.010130688
139	0xbcdb7e63	-0.026793664
140	0x3d88e2bc	0.06683871
141	0xbd711aa7	-0.05886331
142	0x3d5158fe	0.05111026
143	0x3b652b67	0.0034968497
144	0x3d4dc032	0.05023212
145	0xbcedad07	-0.02901317
146	0x3d7a8639	0.06116316
147	0xbda65b72	-0.081229106
148	0xbcf30209	-0.029664056
149	0xbb72205b	-0.0036945555
150	0xbdb2b477	-0.08725827
151	0x3da30dd6	0.07961623
152	0xbda1a6eb	-0.07893165
153	0x3c97e723	0.018542832
154	0x3d998efc	0.07497975
155	0x3d253f76	0.040343724
156	0x3d484923	0.048897874
157	0x3c832d30	0.016012758
158	0xbd6a8d66	-0.057263754
159	0x3d46b850	0.048515618
160	0x3a2b04d4	0.0006523852
161	0x3d794c91	0.060864035
162	0xbcd2678c	-0.02568414
163	0x3cb377ae	0.021907654
164	0x3a87ea42	0.0010369497
165	0xbd845623	-0.06461742
166	0x3d3de233	0.0463583
167	0x3c9f314b	0.019432684
168	0x3d0b9ab5	0.034083087
169	0xbd5dde79	-0.054167245
170	0x3cea7bcd	0.028623486
171	0xbc0b954f	-0.008519485
172	0x3d99cdf6	0.07509987
173	0x3d6d33d9	0.057910774
174	0x3d412325	0.047152657
175	0x3d998d8a	0.074976996
176	0x3d843c70	0.0645684
177	0xbb61fd4a	-0.0034483247
178	0xbd8fa4fa	-0.07013889
179	0x3d94a2df	0.07257628
180	0xbca6060b	-0.020266553
181	0xbd9539ec	-0.07286438
182	0x3d5e4258	0.05426249
183	0xbd1beeab	-0.03806941
184	0xbd9fac98	-0.077965915
185	0xbda3b4a9	-0.079934426
186	0x3d380ad5	0.044932205
187	0x3d1b7a28	0.037958294
188	0xbd8b5f85	-0.06805328
189	0x3daea7e8	0.08528119
190	0x3d7ce01a	0.061737157
191	0xbccda15a	-0.025101352
192	0xbcda1cfc	-0.026625149
193	0xbd3ecb8b	-0.046580832
194	0xbd15f824	-0.0366136
195	0x3d1e8dee	0.038709573
196	0xbd15b145	-0.03654601
197	0x3b9425b0	0.0045210943
198	0xbce2170c	-0.02759888
199	0xbdae1f6f	-0.08502089
200	0xbda6c250	-0.08142531
201	0xbd01d774	-0.031699613
202	0xbc9645ac	-0.018343769
203	0x3c112132	0.008858012
204	0xbda4483b	-0.08021589
205	0xbc52b8d9	-0.012861454
206	0xbd4e2cfd	-0.050335873
207	0x3d1a2ad9	0.03763852
208	0x3cc104cc	0.023561858
209	0xbd5a7991	-0.05333859
210	0x3cdab505	0.026697645
211	0xbabd526e	-0.0014444122
212	0xbd8fd1fe	-0.07022475
213	0xbda9ab5d	-0.08284638
214	0xbd4d87de	-0.0501784
215	0x3d25184d	0.04030638
216	0xbc252928	-0.010080613
217	0x3d5927f7	0.05301663
218	0x3d916761	0.07099796
219	0x3d76206c	0.060089514
220	0xbd9e2f19	-0.07723827
221	0xbd19e66b	-0.03757326
222	0xbbaa57d0	-0.0051984563
223	0x3d77663c	0.060400233
224	0x3c70cdbd	0.014697489
225	0xbd27ec18	-0.04099664
226	0xbd24978e	-0.040183596
227	0xbdb01af9	-0.085988946
228	0xbd0e8ad3	-0.03480036
229	0xbc193a87	-0.009352333
230	0x3c8228fc	0.015888683
231	0xbd64c943	-0.055856
232	0x3cbf050f	0.023317842
233	0x3c527a82	0.012846591
234	0x3c93b660	0.0180313
235	0x3d8d818d	0.069094755
236	0xbd188102	-0.037232406
237	0x3db3fbb5	0.08788244
238	0xbc6dd9c5	-0.014517252
239	0x3cb80746	0.022464406
240	0x3ba451e3	0.0050146445
241	0xbd1981d8	-0.037477344
242	0x3d326de3	0.043561827
243	0x3c9cbff6	0.019134503
244	0xbd008c1e	-0.031383626
245	0x3d5e5814	0.054283217
246	0xbda39eed	-0.07989297
247	0xbd08554a	-0.033284463
248	0xbda68eb6	-0.08132689
249	0x3d86d31a	0.06583233
250	0x3d088145	0.033326406
251	0x3d2ae62c	0.041723415
252	0xbcc86ec1	-0.024466874
253	0xbd49d97c	-0.049279675
254	0xbd190840	-0.037361383
255	0x3c1c2e0b	0.009532462

sequential_2/conv2d_2/Conv2D f4 [64, 3, 3, 64]
0	0x3b4c151b	0.003114051
1	0x3d6f5432	0.058429904
2	0xbce0fef3	-0.02746532
3	0x3d14ff43	0.03637625
4	0xbd60517d	-0.054765213
5	0x3d90eb9e	0.070761904
6	0x3db0729f	0.08615612
7	0xbd37d14f	-0.044877347
8	0xbce82977	-0.028340084
9	0x3d219999	0.039453123
10	0x3c87b1e8	0.016564324
11	0x3d35fe10	0.044431746
12	0x3a599489	0.00083000265
13	0x3c902525	0.017595837
14	0x39baeb04	0.00035651785
15	0xbcaa65b6	-0.020800453
16	0xbd294979	-0.041329835
17	0xbbc2b0ee	-0.005941502
18	0x3d918648	0.0710569
19	0xb9c1f50c	-0.00036994403
20	0x3cf0565c	0.029338054
21	0xbc27e43d	-0.010247287
22	0xbc245f2d	-0.010032457
23	0xbd6d1add	-0.057886947
24	0x3cc8a8ea	0.024494607
25	0xbcf4915f	-0.029854475
26	0x3d67c2bf	0.05658221
27	0xbd4f7d46	-0.05065658
28	0x3b7e5bcf	0.0038812046
29	0x3b6f50d4	0.0036516683
30	0x3cfe9c90	0.031080514
31	0xbc305944	-0.01076347
32	0xbaa36310	-0.0012465436
33	0xbb5f0b92	-0.0034033996
34	0x3d32b6e0	0.043631434
35	0x3d44f9c2	0.04808975
36	0xbd190c44	-0.037365213
37	0x3d37479b	0.044746023
38	0x3d4dd4c3	0.050251734
39	0xbd26b6c0	-0.040701628
40	0x3c664701	0.014055015
41	0xbd0c1b0d	-0.034205485
42	0xbcc34f47	-0.023841513
43	0x3bb1e0ac	0.0054283943
44	0x3d9c716f	0.07638823
45	0x3cf2683c	0.029590718
46	0x3d5c1cf4	0.05373855
47	0x3d79ac6f	0.06095546
48	0xbba74946	-0.0051051704
49	0x3d70597b	0.058679085
50	0xbcdec2cd	-0.027192498
51	0x3d36f700	0.04466915
52	0xbd25682c	-0.04038255
53	0x3d503d56	0.050839745
54	0x3cfe7469	0.031061368
55	0xbc9b5e87	-0.018965973
56	0x3ae9862e	0.0017816478
57	0xbd933cae	-0.07189308
58	0x3d90c899	0.07069511
59	0xbd375de7	-0.044767287
60	0x3d043ec2	0.032286413
61	0xbd652976	-0.055947743
62	0xba4e9250	-0.00078800786
63	0x3d94e704	0.07270625
64	0x3d7df04e	0.06199675
65	0xbcf20a4c	-0.029545926
66	0xbd2d2338	-0.042269915
67	0xbd7cbb69	-0.061702166
68	0x3cfa67be	0.030567046
69	0x3c5ab7d8	0.013349496
70	0x3d33dada	0.043909885
71	0xbd8e2c23	-0.06942012
72	0xbd0ab355	-0.03386243
73	0xbcc72879	-0.024311291
74	0x3d9b0fae	0.0757135
75	0xbd3ec42a	-0.046573795
76	0xbcc4ff9a	-0.024047662
77	0xbc6b61de	-0.014366595
78	0xbd1e9f56	-0.038726173
79	0xbd471a37	-0.048608985
80	0x3d4519c7	0.048120286
81	0x3d1711c0	0.036882162
82	0x3d8afeb5	0.06786863
83	0x3d0e847a	0.03479431
84	0x3d69b010	0.057052672
85	0x3c580571	0.013184891
86	0xbc933293	-0.017968452
87	0xbdadd835	-0.08488504
88	0x3d017d58	0.031613678
89	0x3d76fbd5	0.06029876
90	0xbbb4d4af	-0.005518518
91	0x3d54560b	0.05183987
92	0xbd119ced	-0.035550047
93	0x3b8e8ed8	0.0043505244
94	0xbd131b33	-0.03591461
95	0xbd4d91ba	-0.050187804
96	0x3d448250	0.04797584
97	0xbd2357ea	-0.039878763
98	0xbd565ac9	-0.052332673
99	0xbd46e7b4	-0.048560813
100	0xbd2d8c11	-0.042369906
101	0xbc3da95c	-0.011576023
102	0xbd468f63	-0.048476588
103	0xbbfeadfa	-0.0077722045
104	0xbb7de8d7	-0.003874352
105	0x3d1e3658	0.038626045
106	0xbc49b20e	-0.012310518
107	0x3d860a34	0.06544915
108	0x3d4cc9fa	0.049997307
109	0xbc0f24b3	-0.008736777
110	0x3d5913dc	0.052997455
111	0x3bfa3cba	0.0076366337
112	0x3d0ad249	0.03389195
113	0x3d15412a	0.0364391
114	0xbd0c29d4	-0.034219578
115	0xbd5281a1	-0.051393155
116	0xbb1bf495	-0.0023796905
117	0x3c53414b	0.012893985
118	0x3c8fc969	0.017552095
119	0xbd9bbd87	-0.07604509
120	0x3d9699a6	0.07353525
121	0x3d015754	0.031577423
122	0x3d64e437	0.055881705
123	0x3d0d68b4	0.03452368
124	0x3d37997b	0.044824105
125	0xbd7cfc0a	-0.0617638
126	0xbd026a36	-0.031839572
127	0x3c88f85b	0.016719988
128	0x3b8008cf	0.0039073
129	0xbd2bda78	-0.041956395
130	0xbd1384f7	-0.036015477
131	0x3d4aad44	0.049481645
132	0xbd14223b	-0.036165457
133	0x3b4543fb	0.0030100334
134	0x3d520812	0.051277228
135	0x3d77420d	0.060365725
136	0xbc826de1	-0.015921535
137	0xbcd67ace	-0.026181605
138	0xbc406914	-0.011743803
139	0x3c54d008	0.012989052
140	0xbd6738ad	-0.056450535
141	0xbba2bc09	-0.004966263
142	0xbd634a7e	-0.055490963
143	0x3d0be447	0.03415325
144	0xbba0e900	-0.0049105883
145	0xbd744917	-0.059640016
146	0x3d11a670	0.035559118
147	0xbd2010b8	-0.039078444
148	0x3cfa1cea	0.030531365
149	0xbd04a6d8	-0.032385677
150	0xbd23cd62	-0.03999079
151	0xbc956f43	-0.01824153
152	0xb98048c7	-0.00024468286
153	0x3d06588d	0.032799292
154	0x3d153ee0	0.036436915
155	0x361b0040	2.3096945e-06
156	0x3d143a66	0.036188506
157	0xbca26d9f	-0.019827662
158	0x3b2c7a5d	0.0026318051
159	0xbd20ff3d	-0.039305914
160	0x3cbb22c6	0.02284373
161	0x3d943cf3	0.07238188
162	0xbd30ce04	-0.04316522
163	0xbd16e1c4	-0.0368364
164	0x3d072a52	0.032999344
165	0xbb4be342	-0.0031110798
166	0x3a201738	0.00061069755
167	0xbd14753a	-0.03624461
168	0x3d102116	0.035187803
169	0x3d3e81d8	0.046510547
170	0x3c8e64df	0.017382083
171	0xbd8180db	-0.06323405
172	0x3d544f09	0.051833186
173	0x3cf20970	0.029545516
174	0x3c57dc62	0.013175102
175	0xbcfdd5bb	-0.030985704
176	0xbd9c1281	-0.07620717
177	0xbd4d3cbb	-0.050106745
178	0xbd654f95	-0.0559841
179	0xbd6642aa	-0.05621592
180	0x3c14ff09	0.009094008
181	0xbd064a6b	-0.032785814
182	0xbd8d8568	-0.06910211
183	0xbd097826	-0.033561848
184	0x3ca129e3	0.019673293
185	0xbd5ab532	-0.053395458
186	0xbd5b8e9e	-0.053602807
187	0x3d26fe00	0.040769577
188	0xbd062824	-0.032753125
189	0xbdc6bfa9	-0.09704525
190	0xbd5e875e	-0.054328315
191	0x3cf70de8	0.030157998
192	0xbb7dfaf5	-0.0038754318
193	0xbc622ef6	-0.013805142
194	0xbd49012e	-0.04907339
195	0x3cd1460c	0.025546096
196	0x3c5097f1	0.012731538
197	0xbd4a5b94	-0.049403742
198	0x3d008105	0.031373043
199	0xbd4a4de1	-0.049390677
200	0x3d7dd216	0.06196793
201	0xbd141cbc	-0.036160216
202	0xbc503600	-0.012708187
203	0xbd294189	-0.041322265
204	0x3d84cedd	0.064847685
205	0x3da28eda	0.07937403
206	0x3d8b9365	0.06815223
207	0x3d811d94	0.0630447
208	0xbccdbe5b	-0.025115183
209	0xbc8373b6	-0.016046386
210	0x3d959f3d	0.07305763
211	0x3a600a6b	0.0008546474
212	0x3d93a424	0.07209042
213	0x3bf42597	0.00745077
214	0x3d807912	0.06273092
215	0x3cbcc7d9	0.023044514
216	0xbd6a2720	-0.05716622
217	0x3cbcc89c	0.023044877
218	0xbc05a608	-0.008157261
219	0xbd7b3b18	-0.061335653
220	0x3b3dee46	0.0028981133
221	0x3bd4a7e7	0.006489742
222	0x3ce26a52	0.027638588
223	0x3d93de16	0.07220094
224	0x3cccd2f4	0.025002934
225	0xbbb87364	-0.00562899
226	0xbca5c6ee	-0.020236459
227	0x3c3c862c	0.011506598
228	0xbcb75fe3	-0.02238459
229	0x3cf66652	0.030078087
230	0x3d2c7bff	0.04211044
231	0xbd05562c	-0.032552883
232	0x3d64ff65	0.055907626
233	0x3d0531d0	0.032518208
234	0x3d9f65f1	0.07783116
235	0x3c49a539	0.012307459
236	0x3ce41da7	0.02784617
237	0xbd50d19b	-0.050981145
238	0x3d12a550	0.035802186
239	0x3cfa9afd	0.030591482
240	0x3d2b1f03	0.041777622
241	0x3c9ecef5	0.019385794
242	0x3cd7b8c2	0.026333217
243	0x3da1bd05	0.07897381
244	0xbc5890bd	-0.013218102
245	0xbd053c26	-0.032528065
246	0xbbd23824	-0.006415384
247	0xbc8a1efb	-0.016860476
248	0xbcee1487	-0.029062523
249	0xbd252660	-0.0403198
250	0x3bd40c96	0.006471227
251	0xbd1ef792	-0.03881032
252	0xbcc56a16	-0.024098437
253	0xbd1d6c8d	-0.0384336
254	0xbc76b4e4	-0.015057776
255	0x3d719d4a	0.058987893

sequential_2/conv2d_3/Conv2D f4 [64, 3, 3, 64]
0	0x3b96c1a0	0.0046007186
1	0xbcb7b359	-0.022424387
2	0xbd44dada	-0.048060276
3	0xbd684ea7	-0.056715634
4	0xbcfec212	-0.0310984
5	0xbd9ad118	-0.07559413
6	0x3d1aa502	0.03775502
7	0x3d049cb3	0.032376003
8	0x3d360e84	0.044447437
9	0xbd3d10ae	-0.046158485
10	0xbd8bafa4	-0.0682061
11	0x3c632ffb	0.01386642
12	0x3d547b75	0.05187555
13	0xbd23b772	-0.03996987
14	0x3d04e092	0.03244073
15	0x3c9c8a14	0.01910881
16	0x3cde250d	0.027117277
17	0x3d75e12c	0.060029194
18	0xbd95a71c	-0.07307264
19	0x3d859039	0.06521649
20	0xbd7b19f8	-0.061304063
21	0x3c036967	0.008020735
22	0xbd16ae85	-0.03678753
23	0xbc919bff	-0.01777458
24	0x3bda4076	0.0066605164
25	0x3d483e28	0.0488874
26	0xbd5df267	-0.05418625
27	0x3d787c78	0.060665578
28	0xbcf24f26	-0.029578757
29	0xbb6f3002	-0.003649712
30	0x3c8bc500	0.01706171
31	0x3c94a2e7	0.018144084
32	0xbd2909f4	-0.041269258
33	0xbd2ca3b6	-0.042148314
34	0xbcc62c45	-0.024191031
35	0xbd747ceb	-0.059689444
36	0xbd8f081a	-0.06983967
37	0xbd58ada3	-0.052899968
38	0x3b0deb59	0.002165517
39	0xbd40bb3d	-0.047053564
40	0xbd23d6a3	-0.039999615
41	0x3c975c63	0.01847667
42	0x3c7bb090	0.01536192
43	0xbd816d50	-0.06319678
44	0x3cf08ac2	0.02936304
45	0xbb2fb020	-0.002680786
46	0xbd81bef5	-0.0633525
47	0xbd371e6f	-0.044706758
48	0xbd868749	-0.06568772
49	0x3cf17312	0.029473815
50	0x3b5b44f6	0.0033457852
51	0x3d39f5d5	0.04540046
52	0x3bc888c1	0.006119818
53	0x3c676e49	0.014125415
54	0xbd559a14	-0.052148893
55	0x3d2f6d39	0.042828772
56	0xbd871e81	-0.06597615
57	0xbd61046e	-0.054935865
58	0xbd0bf846	-0.03417232
59	0xbcbd18af	-0.02308306
60	0xbd89d05d	-0.06729195
61	0x3cccad64	0.024985023
62	0x3d2f6dc0	0.042829275
63	0xbc9deb00	-0.019277096
64	0xbd84bb9e	-0.06481098
65	0xbd92f839	-0.07176251
66	0xbd28b4cc	-0.041188046
67	0xbd3a9634	-0.0455534
68	0x3d80742d	0.06272159
69	0x3cf52179	0.029923188
70	0xbd153465	-0.03642692
71	0x3d908d60	0.07058215
72	0xbcf90533	-0.030397987
73	0xbc3af495	-0.011410852
74	0x3d3eea66	0.04661026
75	0xbd92455b	-0.07142135
76	0x3c938d97	0.018011851
77	0xbd3aeb17	-0.045634355
78	0xbd3281cf	-0.043580826
79	0xbd2ff78d	-0.042960692
80	0x3c6a5064	0.014301393
81	0xbbb0fdb1	-0.005401336
82	0x3cfa1790	0.030528814
83	0x3d73eebd	0.05955385
84	0x3d7e0386	0.06201508
85	0xbce8d4c2	-0.028421763
86	0xbcd925e6	-0.02650733
87	0x3d54f306	0.051989578
88	0x3c2317bd	0.00995439
89	0x3ccc2648	0.024920598
90	0x3c407e1e	0.011748819
91	0x3c80f914	0.01574377
92	0xbd952b41	-0.07283641
93	0x3bfe7540	0.007765442
94	0x3bf6eb83	0.0075353994
95	0x3b239f1f	0.002496667
96	0xbd986e13	-0.0744287
97	0xbcb2099d	-0.0217331
98	0x3d2d45c5	0.042302866
99	0x3cd2cd84	0.025732763
100	0x3b9cb370	0.004782133
101	0x3c8855e4	0.016642518
102	0xbd9e8196	-0.0773956
103	0x3d6494bf	0.055805918
104	0x3d55ca69	0.052194986
105	0xbd8897e5	-0.066695966
106	0x3d3d99b2	0.046289153
107	0x3cd3dcf0	0.025862187
108	0x3d761924	0.06008257
109	0xbc65ec90	-0.014033452
110	0x3d59e856	0.05320009
111	0xbd4588a3	-0.04822601
112	0x3c91221c	0.01771646
113	0x3c168322	0.009186538
114	0x3ca3c3d0	0.019990832
115	0xbbdeb2d7	-0.0067962217
116	0xbd9b2ec9	-0.07577283
117	0xbd991b42	-0.07475902
118	0x3d81d615	0.06339661
119	0xbd5f706e	-0.05455058
120	0xbbcbb7ba	-0.0062169703
121	0xbd85a522	-0.06525637
122	0x3d1b60ba	0.037934043
123	0x3d73bd59	0.059506748
124	0xbd8dee56	-0.069302246
125	0x3d84123f	0.06448793
126	0xbd8ada80	-0.06779957
127	0x3ca02b78	0.019551978
128	0xbd81f8da	-0.06346293
129	0xbd908739	-0.07057042
130	0x3d36a153	0.044587445
131	0x3c2e26ec	0.010629397
132	0x3d606b55	0.05478986
133	0xbd4026f8	-0.046912163
134	0x3c13c763	0.0090197055
135	0x3cadf5a3	0.021235293
136	0x3d131891	0.0359121
137	0x3d55dc6a	0.052212156
138	0x3cafc32c	0.02145537
139	0xbd10498a	-0.035226382
140	0x3d66c0f9	0.056336377
141	0xbc0b43ef	-0.008500083
142	0xbbc2c697	-0.005944084
143	0x3d867c7d	0.06566713
144	0xbd36e823	-0.044654977
145	0xbcf0871d	-0.029361302
146	0x3d05a92b	0.032632034
147	0x3d305277	0.043047395
148	0xbccd9549	-0.025095599
149	0xbd464efd	-0.048415173
150	0xbc5540e0	-0.013015956
151	0x3cb86422	0.022508685
152	0x3d130e64	0.035902396
153	0xbd8e236e	-0.069403514
154	0x3c844d83	0.016150242
155	0xbd2d305a	-0.04228244
156	0x3d72cb9a	0.0592762
157	0x3d83f32d	0.064428665
158	0x3d22adfa	0.0397167
159	0x3d68d29d	0.05684148
160	0xbd2c9c2f	-0.042141136
161	0x3d09cec3	0.03364445
162	0x3d114a71	0.035471383
163	0x3cfbe134	0.030747034
164	0xbbd03af3	-0.0063546835
165	0xbd686ba8	-0.056743294
166	0x3cc3ffeb	0.023925742
167	0xbd89c4c9	-0.06726987
168	0x3ce67adb	0.028134754
169	0xbd06ee07	-0.032941844
170	0xbd6c1374	-0.05763574
171	0xbb9fab20	-0.0048726946
172	0xbd391159	-0.04518256
173	0x3d7108c4	0.05884625
174	0x3c0b0ae8	0.008486487
175	0xbd0c08ec	-0.034188196
176	0x3d8ab444	0.06772664
177	0x3a614d7d	0.00085946155
178	0x3b710c56	0.0036781034
179	0xbce7b099	-0.02828245
180	0x3d008a59	0.03138194
181	0x3cf007e5	0.02930064
182	0x3d8da6de	0.06916593
183	0x3bca89ae	0.0061809635
184	0xbd9a4b4b	-0.07533892
185	0xbd7fff17	-0.062499132
186	0xbcad0cea	-0.021124322
187	0xbd0420e7	-0.03225794
188	0xbd35129f	-0.04420721
189	0xbd10070e	-0.035162978
190	0x3d3a05e8	0.04541579
191	0xbd50ec65	-0.051006693
192	0xbd27e718	-0.040991873
193	0xbb2e4d36	-0.0026596314
194	0x3d815909	0.0631581
195	0xbd55a121	-0.052155618
196	0xbc0f0f13	-0.008731621
197	0x3d70e3c4	0.058810964
198	0x3d8cc06a	0.068726376
199	0x3d63e0e1	0.055634383
200	0xbd537375	-0.05162378
201	0x3c16243a	0.0091639105
202	0xbc328b98	-0.01089754
203	0xbc6650bb	-0.014057334
204	0x39042e14	0.00012605666
205	0xbd09d769	-0.033652697
206	0xbd856351	-0.06513084
207	0xbd07d8eb	-0.033165853
208	0xbd847193	-0.06466975
209	0xbcec70c2	-0.02886236
210	0xbbe40a37	-0.0069592255
211	0x3d78e24f	0.0607627
212	0xbb9d5279	-0.0048010913
213	0xbc5291a0	-0.0128521025
214	0xbcbe9723	-0.023265427
215	0xbd8f95e7	-0.070110135
216	0xbd5d9afd	-0.054102886
217	0xbd3769a4	-0.04477848
218	0x3d3d1f36	0.046172343
219	0xbc349d04	-0.011023764
220	0x3ca29b0d	0.019849325
221	0xbccd65c2	-0.025072936
222	0xbd88eceb	-0.066858135
223	0x3d400cdd	0.046887267
224	0x3c139331	0.009007261
225	0xbd5ce175	-0.05392595
226	0x3c66a87b	0.014078255
227	0x3d86e7db	0.06587192
228	0x3d869e72	0.0657319
229	0x3d7f60e6	0.06234827
230	0xbd95f89f	-0.07322811
231	0xbd994ea1	-0.074857004
232	0xbd83dae0	-0.064382315
233	0x3b0a7eb8	0.002113266
234	0xbcd3b881	-0.025844814
235	0x3d2b65e6	0.041845225
236	0xbd11aed4	-0.03556712
237	0x3b9d9310	0.004808791
238	0xbd9d870f	-0.07691776
239	0xbd69b1b8	-0.05705425
240	0xbd042cdb	-0.03226934
241	0xbd71a449	-0.058994565
242	0x3c86a609	0.016436594
243	0x3b066686	0.0020507886
244	0xbbfe1868	-0.0077543743
245	0xbce051f8	-0.027382836
246	0xbc425878	-0.011861913
247	0x3d88e4cf	0.06684267
248	0xbb72357b	-0.0036958146
249	0xbc48b844	-0.012250964
250	0x3d1961a0	0.037446618
251	0x3c68c3d9	0.01420685
252	0xbd048702	-0.032355316
253	0x3d6f9b82	0.058497913
254	0x3d908e3e	0.070583805
255	0x3a86be3e	0.0010280085

sequential_2/conv2d_4/Conv2D f4 [64, 3, 3, 64]
0	0xbd18e3f2	-0.03732676
1	0xbd729e88	-0.05923322
2	0x3d99d1f8	0.075107515
3	0xbd648d16	-0.055798613
4	0x3d59dc7f	0.053188797
5	0x3c88b8dd	0.016689712
6	0x3b943e5f	0.004524037
7	0x3d15cb88	0.036571056
8	0xbcd85a7a	-0.02641033
9	0xbd6471da	-0.05577264
10	0x3d447342	0.04796148
11	0x3c0be45b	0.008538331
12	0xbd22ff0d	-0.039794017
13	0x3c9e3981	0.01931453
14	0xbb5b858a	-0.0033496344
15	0xbccf3f00	-0.025298595
16	0x3c93f274	0.018059947
17	0xbd23646d	-0.039890695
18	0xbcbad2dc	-0.022805624
19	0xbd92e31e	-0.071722254
20	0x3c299970	0.010351524
21	0x3ca96f19	0.020682858
22	0x3d1a86ad	0.037726093
23	0xbd43e969	-0.04783002
24	0x3d5fc54a	0.05463151
25	0xbd56eb97	-0.05247077
26	0x3b7cfa92	0.00386015
27	0xbd57834d	-0.052615453
28	0xbd336e78	-0.043806523
29	0x3cfff9d3	0.031247055
30	0x3d28b246	0.04118564
31	0xb8285440	-4.0132785e-05
32	0x3d21da89	0.039515052
33	0x3d7502d9	0.05981717
34	0xbd77dcf3	-0.060513448
35	0x3d612d86	0.054975055
36	0x3d2ddb08	0.042445213
37	0xbd21892e	-0.039437465
38	0xbc6f53de	-0.014607398
39	0xbd487502	-0.048939712
40	0x3ba09af9	0.0049012867
41	0x3d50e5ea	0.051000513
42	0xbcb55122	-0.022133414
43	0xbc9e9fa9	-0.019363241
44	0x3c580943	0.013185802
45	0x3ca5bac5	0.02023066
46	0x3b184d60	0.0023239478
47	0xbc05019b	-0.008118059
48	0x3d6d00f2	0.05786223
49	0x3d6b75b0	0.057485282
50	0xbd3b9796	-0.04579886
51	0xbd6dcbec	-0.058055803
52	0x3b52b03c	0.00321485
53	0x3d5c10cf	0.053726967
54	0xbcaa72c8	-0.020806685
55	0x3d345ddc	0.044034824
56	0xbd61fdbc	-0.05517362
57	0xbd77fb53	-0.060542416
58	0xbbea1069	-0.0071430695
59	0x3d99b4c0	0.075051785
60	0x3d81c5a8	0.06336528
61	0xbd6d2f68	-0.05790654
62	0xbd381e2b	-0.044950645
63	0xbca063fc	-0.019578926
64	0x3b881aa9	0.0041535688
65	0x3c2b4b9b	0.0104550375
66	0xbc042c4d	-0.008067203
67	0xbc6665c0	-0.014062345
68	0xbcbe824a	-0.023255486
69	0x3d7877d8	0.060661167
70	0xbd03d640	-0.032186747
71	0xbc4dc9c2	-0.01256031
72	0x3d8aa1d9	0.06769151
73	0x3cec4964	0.02884359
74	0x3d94524e	0.07242261
75	0x3cc59c22	0.024122301
76	0x3d90224b	0.07037791
77	0x3d4ae931	0.049538795
78	0x3d181d6f	0.037137445
79	0x3cb30aa4	0.02185566
80	0xbdb005ab	-0.08594831
81	0xbd53780c	-0.051628157
82	0x3ca03763	0.01955766
83	0xbd8329f3	-0.064044856
84	0x3d1d0205	0.038332004
85	0xbcf16395	-0.02946643
86	0x3cefaddf	0.029257713
87	0x3d71a24d	0.058992673
88	0xbc63a05e	-0.013893215
89	0x3d755ee7	0.05990496
90	0x3c3eaa84	0.011637334
91	0x39b116a0	0.00033776928
92	0xbcdc1949	-0.026867526
93	0x3cb34fb5	0.021888593
94	0xbc9cf210	-0.019158393
95	0xbd3c9a9d	-0.04604589
96	0x3c0b1d19	0.008490824
97	0x3d541ef2	0.051787324
98	0x3d02af81	0.031905655
99	0xbca364fb	-0.019945612
100	0xbd1c4bc5	-0.038158197
101	0xbd241000	-0.04005432
102	0xbd5454c7	-0.051838662
103	0xbc32e12d	-0.010917944
104	0x3d35f5a4	0.044423714
105	0x3d421686	0.04738476
106	0x3d631b61	0.055446032
107	0x3d3cafdf	0.04606616
108	0xbd168fbd	-0.036758173
109	0xbd2a21fd	-0.04153632
110	0x3d9131af	0.070895545
111	0x3ce770d2	0.02825204
112	0x3d99db13	0.07512488
113	0x3d2b1390	0.041766703
114	0xbc167033	-0.009182024
115	0xbd484e80	-0.04890299
116	0xbcf7e0d2	-0.03025857
117	0xbd993693	-0.07481112
118	0xbcc843a1	-0.02444631
119	0x392efaee	0.00016687412
120	0xbd556bd1	-0.052104775
121	0xbd3c0eb0	-0.045912445
122	0x3d1c21af	0.03811806
123	0x3d4c9ad4	0.049952343
124	0xbc12ff31	-0.008971975
125	0x3d275283	0.040850174
126	0xbbabda22	-0.0052445093
127	0xbd068a01	-0.032846455
128	0x3ca0f3b0	0.01964745
129	0x3d470b20	0.048594594
130	0x3d56eb97	0.05247077
131	0x3d2ed96d	0.042687822
132	0x3d8c09c6	0.06837802
133	0x3daa2c0e	0.08309184
134	0x3c1cd87c	0.009573098
135	0xbbdc4a0e	-0.006722695
136	0x3ca2a95e	0.019856151
137	0x3d65802e	0.056030445
138	0x3d9205df	0.07130026
139	0x3c60caeb	0.013720254
140	0x3d62b020	0.055343747
141	0xbc11e197	-0.0089038825
142	0xbc9d3f0f	-0.019195108
143	0x3ac0cbe1	0.0014709198
144	0x39edea92	0.0004537893
145	0x3d80a154	0.06280771
146	0x3d0fe1ee	0.035127573
147	0x3a10c8d3	0.0005523089
148	0xbd26e01a	-0.040741064
149	0xbb0d24b8	-0.0021536779
150	0xbd066e38	-0.032819957
151	0x3b78962d	0.0037931309
152	0xbd8372ad	-0.06418357
153	0xbd2e7f96	-0.042602144
154	0x3d075080	0.033035755
155	0xbdafd7db	-0.08586093
156	0xbd883700	-0.066511154
157	0x3c7eae22	0.015544446
158	0x3bd0e32d	0.0063747377
159	0x3d93261e	0.07185005
160	0x3bf405cc	0.00744698
161	0xbd8306d3	-0.06397786
162	0xbd64a285	-0.055819053
163	0xbd1a891a	-0.037728406
164	0xbd363bda	-0.044490673
165	0xbbc85cc6	-0.006114575
166	0x3be592e2	0.007006035
167	0x3d7bf108	0.061509162
168	0xbcdb6b74	-0.026784636
169	0xbc459553	-0.012059527
170	0x3d3538a9	0.04424349
171	0x3c6b68df	0.014368265
172	0x3c832a5d	0.016011411
173	0xbb5f03c9	-0.0034029356
174	0x3d8d2202	0.06891252
175	0xbcd68a99	-0.026189135
176	0xbb31a100	-0.002710402
177	0x3d815329	0.0631469
178	0xbd64822e	-0.05578821
179	0x3d20b3d9	0.039234016
180	0x3d3ffac2	0.04687
181	0x3bd9e343	0.006649406
182	0x3d8ccd0d	0.06875048
183	0xbd53bcf4	-0.05169387
184	0x38d39b28	0.00010090164
185	0xbc79631a	-0.015221382
186	0xbc096370	-0.008385524
187	0xbd827504	-0.06369975
188	0x3d91291a	0.070879176
189	0x3bd373b3	0.0064530014
190	0x3d92a16d	0.07159696
191	0xbcd809bf	-0.026371835
192	0xbd7e11ca	-0.062028684
193	0x3d8ac7dc	0.067764014
194	0xbc9ddcbe	-0.019270297
195	0x3d6b3162	0.057420142
196	0x3bbe6f8e	0.005811638
197	0xbc519c65	-0.012793635
198	0x3d0a21bc	0.033723578
199	0x3c768992	0.015047448
200	0xbd401577	-0.04689547
201	0x3cd67114	0.026176967
202	0x3d484186	0.048890613
203	0x3c040b26	0.008059299
204	0xbd8dfca1	-0.06932951
205	0x3ac64ba7	0.0015128747
206	0x3d02e98d	0.031961013
207	0xbd608e79	-0.054823373
208	0xbce467cb	-0.027881524
209	0xbd430e0d	-0.04762082
210	0x3d47a38d	0.04873996
211	0xbc6a9667	-0.014318085
212	0xbd8f3cd8	-0.06994027
213	0x3bbc3f29	0.005744834
214	0x3b8f08ad	0.004365048
215	0xbd53038a	-0.051517047
216	0xbc6ac177	-0.014328352
217	0xbce3f054	-0.027824558
218	0x3d506edf	0.050886985
219	0x3cd578d8	0.0260586
220	0xbd1c855f	-0.03821313
221	0x3cfe5aec	0.031049214
222	0x3d3e73cd	0.046497155
223	0x3bb7d67f	0.0056102867
224	0xbd02086a	-0.031746306
225	0xbd8aa79e	-0.06770252
226	0x3d297517	0.04137143
227	0xbc8e9fd4	-0.017410196
228	0xbcf4106e	-0.02979299
229	0xbd747138	-0.059678286
230	0x3c263e18	0.01014664
231	0x3c649dfa	0.01395368
232	0xbd129166	-0.035783194
233	0x3d8d05e9	0.06885893
234	0x3d8a9b08	0.06767851
235	0xbc5a7217	-0.013332865
236	0x3c26ce43	0.010181013
237	0xbc593318	-0.013256811
238	0xbcdbbef3	-0.02682445
239	0x3c88f5b2	0.01671872
240	0xbd84d5fb	-0.06486126
241	0xbb433f4c	-0.0029792367
242	0xbc8bf95b	-0.017086675
243	0xbc8693be	-0.01642787
244	0xbd804e9e	-0.06264995
245	0xbd9391f2	-0.07205571
246	0xbcfb1cf1	-0.030653449
247	0x3d83e509	0.06440169
248	0x3c92f6aa	0.017939884
249	0xbbcfd7f2	-0.0063428814
250	0x3c60cb46	0.013720339
251	0x3d6df79e	0.058097474
252	0xbd6772ee	-0.05650609
253	0xbcbc54a0	-0.022989571
254	0xb91cb708	-0.00014945504
255	0xbd43d1e6	-0.047807597
