app/src/main/ml/WheatDisease.tflite (tflite, 741828 bytes, 16 tensors)

sequential_2/conv2d/Relu;sequential_2/conv2d/BiasAdd;sequential_2/conv2d/Conv2D;sequential_2/conv2d/BiasAdd/ReadVariableOp f4 [32, 3, 3, 3]
000000 ec 97 e3 38 81 b4 cd 39 38 8f 0c 39 90 42 dc b9
       0.00010852501 0.00039235133 0.00013404794 -0.00042011263
000010 01 b8 a7 38 3a 38 09 ba 9d d7 fd 39 d5 fd e1 39
       7.997454e-05 -0.00052345137 0.00048416565 0.00043104464
000020 06 94 b8 b9 e0 1e bc 38 17 9f 8d 39 d1 ae 3d 39
       -0.000352055 8.9702895e-05 0.00027012147 0.00018089569
000030 12 95 66 39 5f 15 d4 39 6b eb a3 39 76 38 2c 39
       0.00021990042 0.00040451714 0.00031265183 0.00016424232
000040 1e c5 b0 b8 81 11 9f 39 d0 3f 9a 39 aa 30 a2 39
       -8.42905e-05 0.00030339885 0.00029420713 0.00030935305
000050 96 16 b9 39 b2 ec df b9 c4 5a c7 39 ba 26 b9 b9
       0.00035302778 -0.00042710226 0.00038023863 -0.00035314803
000060 aa 1c a5 b9 68 df 71 39 9a 65 8b 39 08 a0 98 39
       -0.0003149261 0.00023066776 0.00026587845 0.00029110932
000070 ff 88 2e b9 65 bc 3e 39 7e 48 87 b9 3a b9 45 39
       -0.00016644968 0.00018189994 -0.00025803217 0.00018856386
000080 7e aa 83 b9 ea 6c 91 39 89 5e af 38 78 30 a8 39
       -0.00025113294 0.00027737702 8.362259e-05 0.0003207957
000090 42 4c 9a b9 73 e9 63 b9 a3 71 8a b9 74 53 8a 37
       -0.00029429985 -0.00021735374 -0.00026406077 1.6489743e-05
0000a0 a2 81 73 39 ee a4 5b b9 e5 56 0d ba 4d d7 ac 36
       0.00023222578 -0.00020946909 -0.00053916714 5.1510638e-06
0000b0 32 20 e3 39 0f ff 88 39 1a e5 dc b9 4e 5e 18 b9
       0.000433208 0.00026129975 -0.00042132364 -0.00014530981
0000c0 ad 63 c2 b9 22 3a a9 b8 73 55 4a 38 01 69 64 38
       -0.00037076828 -8.069376e-05 4.8240134e-05 5.445723e-05
0000d0 98 00 2b 39 e3 fb 8c b9 e5 25 9c 39 39 a8 0b 39
       0.00016308052 -0.0002689055 0.00029782872 0.00013318741
0000e0 d5 cc a8 b9 1c 87 9a b8 20 6f 39 39 2b b3 d4 39
       -0.0003219607 -7.368458e-05 0.00017684372 0.00040569282
0000f0 78 15 28 39 37 da 40 36 6f 3e 19 39 9c 53 02 ba
       0.00016029726 2.8737247e-06 0.00014614475 -0.0004971565
000100 5b db d7 b8 ae d7 0a 3a 0e bf ca b9 fc ff 81 39
       -0.00010292857 0.0005296421 -0.0003867079 0.0002479552
000110 e0 cc 00 b9 6a 24 9d b9 01 1f df 39 43 83 cc b9
       -0.00012283353 -0.00029972504 0.00042556974 -0.0003900771
000120 c5 17 23 39 78 d0 df b9 4c e6 aa b9 41 63 f8 b8
       0.00015553746 -0.00042689196 -0.0003259651 -0.00011844049
000130 1b 47 de 39 a3 fc 8b 39 61 7a 0c ba 85 f7 cb 38
       0.00042396117 0.00026700375 -0.0005358812 9.7258984e-05
000140 34 52 d0 39 bb c2 9d 38 0c 31 ca b9 cd 10 88 39
       0.00039734098 7.522615e-05 -0.00038564985 0.0002595246
000150 ae 5b 00 ba 73 be ef b8 75 f4 2e b7 48 8b fa b9
       -0.0004896474 -0.00011431882 -1.0428125e-05 -0.00047787488
000160 e2 86 28 b9 05 73 c4 b9 aa b1 b5 b8 02 d1 2a 38
       -0.00016071976 -0.0003746973 -8.663845e-05 4.0725812e-05
000170 0e 97 50 b9 f7 0b cb b9 c6 60 df 39 8e e3 d4 39
       -0.00019892698 -0.00038728092 0.00042605976 0.00040605332
000180 71 f2 7e b9 48 47 b7 b8 31 6e f4 39 bc 7f e1 b9
       -0.00024313644 -8.739397e-05 0.00046621406 -0.00043010514
000190 f6 66 ca 39 28 e7 2d b8 66 a5 b5 b8 1f 17 0c ba
       0.00038605154 -4.1461695e-05 -8.6615604e-05 -0.00053440215
0001a0 49 48 75 b8 e9 06 ca b9 5c e2 01 ba dc b4 08 ba
       -5.8479873e-05 -0.0003853359 -0.00049546896 -0.00052149384
0001b0 36 7a f1 39 87 57 c4 39 68 b8 d5 b7 35 7e c8 39
       0.00046058156 0.00037449246 -2.547745e-05 0.00038241004
0001c0 92 ae 25 b7 a9 7d 67 39 87 47 01 ba 31 77 9a 38
       -9.875412e-06 0.00022076689 -0.0004931618 7.3654934e-05
0001d0 92 fd f6 b9 7e 2f 04 ba 08 9d 89 b8 9f 1c 08 ba
       -0.000471097 -0.0005042477 -6.5619184e-05 -0.0005192253
0001e0 24 89 84 b9 6a a3 ee 39 db 7e 0a ba da a4 00 ba
       -0.0002527918 0.0004551665 -0.0005283185 -0.00049073773
0001f0 6e b6 16 3a da 9f c1 b9 83 95 e2 39 3d 82 52 b9
       0.000574923 -0.00036930927 0.00043217474 -0.00020075678
000200 ad 83 b0 b8 08 cb fb 39 04 b8 39 39 0c 6d 33 b8
       -8.4168605e-05 0.0004802572 0.00017711526 -4.2778483e-05
000210 a4 ed 3d b9 22 4d db 38 2e 07 08 39 3e e4 ce b8
       -0.00018112973 0.00010457101 0.00012972645 -9.865359e-05
000220 95 c9 d9 39 2c 38 05 3a 84 85 14 b9 9a e1 5c b8
       0.00041539656 0.00050819176 -0.00014164118 -5.2662195e-05
000230 a0 e3 17 b9 a3 df eb b9 cd ac cc b9 3a 71 78 39
       -0.00014485279 -0.00044989315 -0.0003903866 0.00023693303
000240 1c 91 06 3a 5a d4 88 b9 82 dc 41 38 45 ce a0 b9
       0.00051333173 -0.00026098156 4.622015e-05 -0.0003067126
000250 b6 f5 62 b9 d6 d4 b3 b9 7a 8d d7 39 4b a4 36 b8
       -0.00021644574 -0.00034300116 0.00041113404 -4.354519e-05
000260 99 f3 51 39 89 06 04 3a ac 5b 75 39 f0 34 87 39
       0.0002002254 0.0005036374 0.00023399171 0.00025788648
000270 06 de 45 37 0d 06 ac 39 29 77 fe b9 58 98 47 39
       1.1793809e-05 0.00032810905 -0.00048535437 0.00019034871
000280 17 33 9d b9 f4 66 d7 b9 6d 2c c5 b8 67 87 12 ba
       -0.00029983438 -0.00041084702 -9.401967e-05 -0.00055896345
000290 3a 97 3f 39 88 0c d1 39 05 8b b7 38 b5 79 1b 39
       0.00018271516 0.00039872923 8.7520144e-05 0.00014827291
0002a0 c0 c3 59 b9 1d 28 8a 39 94 5d 51 b8 45 e8 99 39
       -0.00020767655 0.00026351298 -4.9916634e-05 0.00029355488
0002b0 46 c4 8a 38 56 8b a6 39 0f be ca b9 d2 53 c5 39
       6.6169116e-05 0.000317658 -0.00038670047 0.0003763722
0002c0 8a 56 32 b9 2c 8c 06 3a c4 bf f2 b9 0e d6 c5 39
       -0.00017007641 0.00051325816 -0.00046300713 0.0003773425
0002d0 13 4d 01 3a 1d b0 3d b8 f2 4c 9b b9 90 a8 9b b9
       0.00049324444 -4.522513e-05 -0.00029621233 -0.00029689493
0002e0 78 17 08 ba 18 1a 8a b9 ad 35 a5 39 a7 87 9b b9
       -0.00051914854 -0.00026340852 0.00031511244 -0.00029664973
0002f0 e8 9b c9 39 03 be 09 b9 77 b6 20 ba df 11 c6 b9
       0.00038453867 -0.00013136123 -0.0006130705 -0.00037778818
000300 d1 52 c9 39 7d cc 8e 39 47 cc dd b9 28 eb 97 b9
       0.0003839941 0.00027236706 -0.00042304603 -0.0002897617
000310 1d 4b 8d 39 cd 1a 53 b9 51 d2 d2 b8 e2 f6 db b9
       0.0002694958 -0.00020132512 -0.00010052755 -0.00041954877
000320 a9 88 8b 39 7c 19 6e b8 fd d1 47 39 7e ed de b8
       0.00026613966 -5.6767356e-05 0.00019056346 -0.00010630021
000330 38 1d 44 39 2d 1c 11 b8 35 ba 50 38 52 33 11 b9
       0.00018702901 -3.4596935e-05 4.9764483e-05 -0.00013847396
000340 49 7e cf 39 d0 17 70 b9 76 a7 f3 37 3a 93 2c 39
       0.00039576206 -0.00022897054 2.9045837e-05 0.00016458044
000350 a1 29 ff 39 11 f9 8c b8 79 7d c8 b9 da 84 02 ba
       0.00048668406 -6.7221124e-05 -0.00038240457 -0.0004978903
000360 4a f1 e0 b9 bd 4c 01 3a ce 29 4f b9 94 fa cb 39
       -0.00042904384 0.00049323944 -0.00019756632 0.00038905872
000370 28 5c 0c 39 16 54 43 39 a7 46 ea b9 11 69 e2 39
       0.00013385771 0.00018627974 -0.00044684598 0.0004318436
000380 fb ef 12 b9 76 10 2c b9 39 a6 d2 b9 ea 1f 0b 39
       -0.00014013045 -0.0001640933 -0.00040178167 0.00013267962
000390 3a 0c 82 39 0f 14 f2 b9 aa 01 83 b9 b0 70 90 b8
       0.00024804642 -0.00046172782 -0.00024987507 -6.887445e-05
0003a0 ea 69 a4 39 54 bb a8 39 6e e3 2e 39 97 ee db 39
       0.0003135943 0.00032183027 0.00016678657 0.00041948698
0003b0 83 80 f0 39 23 55 b5 b9 d8 5e a4 b9 0a 20 1e 39
       0.00045872116 -0.00034586442 -0.00031351182 0.0001507999
0003c0 23 0d 5e b9 a4 fc 31 b8 a6 c6 67 b9 31 4c cf b9
       -0.00021176464 -4.243538e-05 -0.00022103879 -0.00039538884
0003d0 11 a2 74 b9 38 ee 01 38 a4 d4 f4 b9 f6 b0 06 ba
       -0.00023330028 3.0977855e-05 -0.00046697736 -0.00051380636
0003e0 33 23 63 b9 67 d9 e2 b8 8a 5f e5 39 40 e3 e9 b9
       -0.0002166152 -0.00010817014 0.00043749466 -0.00044610538
0003f0 b7 a6 4c b9 c6 a7 4b 39 14 a3 95 b9 b0 c6 90 b9
       -0.00019517062 0.00019422089 -0.00028540997 -0.00027613854

sequential_2/conv2d/BiasAdd/ReadVariableOp f4 [32]
000000 c9 31 db bc 3f 4e a8 bc c0 43 1b ba 00 00 00 00
       -0.026757138 -0.020545123 -0.00059228763 0.0
000010 14 cc ec bb 10 02 9b bc 4c 90 cf bc bb a2 74 bc
       -0.0072264764 -0.018921882 -0.02533736 -0.014931376
000020 b6 42 7f 3a d5 2b dd 3c d5 63 5f bc d1 17 06 3c
       0.0009737419 0.02699844 -0.013634642 0.008184389
000030 be 4b 01 3c d6 f7 a1 3c 2e 19 bb bb ce 54 5e bc
       0.0078915935 0.019771498 -0.0057097888 -0.013570024
000040 13 19 57 bc 82 28 8b 3b 00 00 00 00 75 4d 01 3d
       -0.013128537 0.0042467723 0.0 0.03156801
000050 86 40 00 bc bf ec 7f bc 90 7c 66 3b 78 9d f3 3c
       -0.007827884 -0.0156204095 0.003516946 0.029738173
000060 f0 cf 35 bd 5f 7a 1f bc 78 88 10 bd 4a 57 e0 b9
       -0.044387758 -0.009733765 -0.035286397 -0.00042789645
000070 bc 93 96 bb 6c ef 8c bc 87 e6 a2 bc 01 6c 27 3c
       -0.004595248 -0.017204009 -0.019885315 0.010218621

sequential_2/conv2d_1/BiasAdd/ReadVariableOp f4 [64]
000000 a7 02 0e 3b c1 e7 90 bb 6b ac 4e bc ad 91 2e bc
       0.0021669061 -0.0044221585 -0.01261435 -0.010654849
000010 35 3e c5 bb 4d d8 95 bc c9 46 e3 3b 9e 5c c9 bc
       -0.0060193785 -0.018291617 0.0069359285 -0.024580296
000020 e4 b6 2c bc 24 f6 09 bd 54 55 05 bc 3c 01 12 bc
       -0.010541651 -0.033682004 -0.00813802 -0.008911427
000030 57 08 3c 3c e4 29 29 bb 2d 72 0c 3d e3 bc ae 3c
       0.011476598 -0.0025812322 0.034288574 0.021330303
000040 dc 25 22 bd ad 6a ba bc e3 ec fb bb 1b b1 48 bc
       -0.039586887 -0.022755945 -0.007688151 -0.0122492565
000050 de e1 76 3c 53 5c 97 bc b1 91 b0 bb 34 e2 0b 3d
       0.015068499 -0.01847664 -0.0053884615 0.03415127
000060 06 97 dc bb 08 ea 1d bc a5 22 4e 3c 8a 17 8d 3a
       -0.0067318706 -0.009638317 0.012581502 0.0010764461
000070 86 83 63 3c 08 82 09 3c 8f 6e d5 bb 7c 62 89 3c
       0.013886338 0.008392818 -0.0065134238 0.016770594
000080 94 98 52 bc a7 0b 94 3c 8c 5d c3 ba eb b7 0b 3c
       -0.01285376 0.018071963 -0.0014905198 0.008527736
000090 f8 12 4d bc 80 41 59 3c 93 bf 2f bc fa bb 2e 3b
       -0.0125167295 0.013260245 -0.010726827 0.0026662336
0000a0 75 05 0d bc 28 e4 0c 3c f1 41 ce bc f3 a2 fe 3b
       -0.008607258 0.008599319 -0.025177928 0.00777089
0000b0 b0 8a b8 3b 66 0d 82 3a 65 8a d6 bb e9 40 6c 3a
       0.005631767 0.0009922206 -0.0065472596 0.0009012358
0000c0 7d bd 09 3d 28 fa 01 bd d5 e3 51 3b db ea 83 bc
       0.033627976 -0.03173271 0.0032026668 -0.016103199
0000d0 86 8c 8a bc a9 31 2d bb d7 b5 06 bd 3a db a1 bc
       -0.01691271 -0.0026427305 -0.03288826 -0.019757856
0000e0 b9 df df bb 64 b1 80 bb 01 ff 09 bc ed 91 88 bc
       -0.0068320897 -0.0039273966 -0.008422614 -0.016671145
0000f0 91 95 5a ba f8 74 55 3c ca c8 a9 bb 74 92 05 bd
       -0.0008338327 0.013028376 -0.0051814066 -0.03261037

sequential_2/conv2d_2/BiasAdd/ReadVariableOp f4 [64]
000000 19 9a e6 bc 3c 52 cf bb 3b 36 d7 3a a6 c1 ef bc
       -0.028149651 -0.006326942 0.001641936 -0.029267143
000010 03 c3 ce bb 9b 19 81 bb ca 31 96 ba 6d d8 23 3b
       -0.0063098683 -0.00393982 -0.001145893 0.0025000826
000020 90 f3 d7 b7 52 b3 2c 3b 47 e5 0b 3b 92 b8 e5 39
       -2.5743415e-05 0.0026352 0.0021346377 0.000438158
000030 c0 d4 ad ba 5a bf 9f 3a 56 29 bc ba fa d0 fc bb
       -0.0013262257 0.0012187765 -0.0014355581 -0.0077153416
000040 03 70 c5 bc 82 18 c6 bb 42 73 3c 3b 32 5b 90 39
       -0.024101263 -0.006045402 0.0028755222 0.00027533766
000050 1f 6a 85 bb 26 75 ad bb 98 0a 1a bb bb ad 0a bb
       -0.0040714885 -0.005293506 -0.002350485 -0.002116068
000060 05 29 d6 bb 71 18 85 bc 19 9e 98 bc 91 87 03 bc
       -0.0065356516 -0.016247006 -0.018630074 -0.008027927
000070 30 35 97 bb ae e7 8a bb 7c 7b e2 bb df 47 6c 3c
       -0.0046144947 -0.004239044 -0.006911693 0.014421432
000080 b4 21 34 bb 2e 32 07 bd 77 1c 19 ba 3c c4 c6 bb
       -0.002748591 -0.03300684 -0.00058407284 -0.0060658734
000090 5f bd 21 bc 5a 6e 30 bc cd e0 10 bd 75 a4 ea bb
       -0.00987181 -0.010768497 -0.035370637 -0.007160718
0000a0 bb db 4c 3a ed 0b 96 bc 4e 43 57 3c c4 60 b6 bc
       0.0007814725 -0.018316234 0.013138605 -0.022262938
0000b0 36 5c a9 bb d9 ff b8 bb 4a 48 fd 3a fd 52 26 bc
       -0.005168463 -0.005645734 0.0019323912 -0.010151622
0000c0 d9 54 af 3b 9b aa 09 3b 1d 5a a1 bb 5a 44 41 3c
       0.005350691 0.002100623 -0.0049240724 0.011796081
0000d0 0d c9 1b 3c 50 40 c6 3b 2f 3d 94 bb 7b 7a b3 bb
       0.009508383 0.006050147 -0.004523895 -0.0054772473
0000e0 ce b2 b9 bb a0 db e9 3b cf e3 cc bb 2a cb 56 ba
       -0.005667067 0.007136777 -0.006252743 -0.0008193726
0000f0 3a 14 c3 bb 5a 94 11 bc d6 54 38 b8 05 0e 9c bc
       -0.005953339 -0.008885467 -4.3948028e-05 -0.019049654

sequential_2/conv2d_3/BiasAdd/ReadVariableOp f4 [64]
000000 aa 3d da bb 9d 80 3b bc 1c 68 71 bc 18 93 54 bc
       -0.006660183 -0.011444238 -0.014734294 -0.012974523
000010 e0 76 12 bc 49 86 83 bc a0 c0 e0 37 5b 37 31 bc
       -0.008939475 -0.016055243 2.6792579e-05 -0.01081642
000020 cc 37 32 bc 43 b9 c8 bb 07 a0 a5 bb 6c a2 0c bc
       -0.010877561 -0.0061256005 -0.005054477 -0.008583646
000030 0b 9e 12 bc d2 72 19 bc dc 25 c2 bc d9 8f f5 bb
       -0.008948813 -0.009365754 -0.023699693 -0.0074939546
000040 74 2b bf bc 48 19 11 3d 86 0f ab bc d5 a5 c3 bb
       -0.02333615 0.0354245 -0.020881426 -0.0059706965
000050 30 43 e4 bb f5 9a a6 3b 3e e3 9a 3b 16 6f 12 bc
       -0.006966017 0.0050843903 0.0047267964 -0.008937618
000060 ec af 14 3c 8a 37 53 3b a3 45 43 bc 23 ee 0e bc
       0.009075146 0.0032229149 -0.011918458 -0.008723768
000070 b0 50 08 3a 67 36 b0 3b ea e5 34 3b c3 b2 5f 3b
       0.00052000117 0.005377579 0.002760286 0.003413365
000080 3c 5a b1 bb 39 9c 91 3b 22 36 fd b9 55 9b 49 bc
       -0.005412368 0.004443672 -0.00048296252 -0.0123051
000090 13 fb 4b bb 59 4a bd bc 56 ef 05 bc 5e 0d f6 bb
       -0.0031124994 -0.02310674 -0.008174738 -0.0075089177
0000a0 56 af 94 bc 23 4d a9 b9 0e 2c f7 bc e3 5d 1e bc
       -0.018150013 -0.00032291663 -0.030172374 -0.009665939
0000b0 6d 3d f7 3b 23 c0 ad 3b a6 10 b5 bc 74 08 31 bc
       0.0075451643 0.0053024455 -0.022102665 -0.010805238
0000c0 61 0d 12 bc 01 64 79 bc b5 a2 ad bb b3 eb c7 bb
       -0.008914323 -0.015221597 -0.005298937 -0.0061010956
0000d0 90 f4 90 3c 8c 11 da bb 96 8f 5f ba 06 d8 87 bc
       0.017694741 -0.006654924 -0.0008528171 -0.0165825
0000e0 67 5f 28 bc 93 7c be 3c f3 fb db bb db b3 90 bb
       -0.010276652 0.023252761 -0.0067133843 -0.0044159717
0000f0 bc 05 6e 3c 62 8b a1 bb 79 21 0c 3c 5a 30 30 3a
       0.014527734 -0.004929946 0.008552902 0.0006721072

sequential_2/conv2d_4/BiasAdd/ReadVariableOp f4 [64]
000000 00 00 00 00 b1 67 b4 3c 44 89 a2 bb f1 ff d3 bb
       0.0 0.0220221 -0.004960211 -0.0064697196
000010 9d 35 aa bb 4f df 30 3c 99 c5 cc bc 5a 2b bc bb
       -0.0051943795 0.010795428 -0.024996566 -0.0057424726
000020 94 f7 1a bc 8b 14 ca bb 46 da d3 bc 10 b6 cb bb
       -0.009458441 -0.0061669997 -0.025860917 -0.006216772
000030 28 39 3d bc 5f 84 7e bb 7c d5 af bb ed aa 24 3c
       -0.011549272 -0.0038836224 -0.0053660255 0.0100505175
000040 9b 97 61 bb 4c c5 08 ba fe b7 c4 bb cb 34 97 bc
       -0.003442264 -0.0005217388 -0.006003379 -0.01845779
000050 0d ed 7d bb 01 54 24 3c 82 80 41 3c 02 d1 15 bc
       -0.003874603 0.010029794 0.011810424 -0.00914407
000060 4c b8 a7 3c ed 74 83 3c c8 40 44 3c cf f0 91 ba
       0.020473622 0.016046965 0.011978336 -0.0011134389
000070 13 2f a7 ba e1 a6 6f 3c 5f 5e 0f 3d 8e 84 b9 bb
       -0.0012755118 0.014627189 0.03500211 -0.0056615537
000080 12 c8 a3 bb e1 de cb bb cb e8 80 bb b1 da eb bc
       -0.0049982155 -0.0062216376 -0.003934001 -0.028790804
000090 d1 bf 0d bc dc 6e ba 3b fd 3c bb bc 02 9a 8b 3a
       -0.00865169 0.005689485 -0.02285623 0.0010650756
0000a0 03 f7 f6 bb 70 fa fa 3b 48 32 ff 39 a5 29 b9 ba
       -0.0075367703 0.007659249 0.00048674853 -0.0014126791
0000b0 34 a2 2b bc 92 7f 0f bb d3 c0 a2 3a 0f 99 da 3b
       -0.010475684 -0.0021896106 0.0012417085 0.006671078
0000c0 fd 32 82 bc cc af e9 bb 79 8e 58 bc 1c 98 c2 bc
       -0.015893454 -0.0071315523 -0.013217562 -0.023754172
0000d0 96 17 ab bc 0a fd 31 3c d2 9d 8d b9 31 90 a4 bc
       -0.02088527 0.010863552 -0.000270112 -0.020088287
0000e0 dd b2 50 bc 1b 46 08 bc b3 8f c4 bb a1 0a 04 bc
       -0.012737957 -0.008317496 -0.0059985756 -0.008059175
0000f0 06 18 33 ba 3b b4 81 bc 4b 75 44 bb 4e c5 76 bc
       -0.0006831888 -0.01583301 -0.0029977139 -0.01506169

sequential_2/conv2d_5/BiasAdd/ReadVariableOp f4 [64]
000000 75 73 91 bc d1 90 20 bc 50 46 6a bc 4d b1 f6 bb
       -0.01775525 -0.009800152 -0.01429899 -0.00752846
000010 b4 5d d4 bb 7d 7c c1 bb 2a 93 2a bc f1 20 e0 bb
       -0.006480897 -0.0059047327 -0.010411063 -0.0068398644
000020 b6 0b 41 bb c7 4b d6 3c b1 37 18 bc 23 ec cc 3a
       -0.0029456443 0.02615918 -0.009290622 0.0015634339
000030 fe b3 a3 3a 59 56 92 bb 73 da 3c bc 10 7e 8b bc
       0.0012489555 -0.00446586 -0.011526692 -0.017027885
000040 88 c6 ba bc 23 67 08 bb 97 9c d3 bb 42 fd db 3b
       -0.022799745 -0.0020813427 -0.006457876 0.0067135403
000050 40 09 b6 3b 8f 54 bc bb 6e 8b a9 bb 37 2d eb 3c
       0.005555302 -0.005747385 -0.005174092 0.028708084
000060 06 7a 08 bc c0 93 2d bc 58 43 64 bb a0 32 a6 3a
       -0.008329874 -0.010594308 -0.003483018 0.0012679882
000070 08 1f 54 bb 00 00 00 00 f7 c4 6d 3c e8 47 d3 bb
       -0.003236713 0.0 0.014512292 -0.006447781
000080 2b 94 9f 3c 89 7d d2 bb e9 9b 1b bc 48 0b 25 bc
       0.019479832 -0.0064236564 -0.009497621 -0.01007349
000090 fc 9a 52 3c 53 c4 c4 bb b0 af c4 bb 50 29 27 bc
       0.012854334 -0.006004849 -0.006002389 -0.010202721
0000a0 c2 f8 f5 bc 07 6a c4 bb 24 ac 90 3b 36 c5 c4 bb
       -0.030025844 -0.0059940848 0.004415052 -0.0060049547
0000b0 b0 41 8d bc c4 d4 3e bb 76 d3 e4 bb f4 12 a4 bc
       -0.017243236 -0.0029118517 -0.006983216 -0.020028569
0000c0 3f d0 c2 bc 83 44 39 ba a6 58 da bb 4e 6a c5 bb
       -0.02378094 -0.0007067399 -0.0066633997 -0.0060246354
0000d0 cd e9 91 bb 35 41 ce bb 49 05 17 3c d9 fb 42 bc
       -0.00445292 -0.0062943944 0.009217569 -0.0119008655
0000e0 2f 08 c6 bb 80 84 d3 bb 32 40 16 bc 2b 94 c6 bb
       -0.006043456 -0.006455004 -0.009170579 -0.0060601435
0000f0 fa 74 0e bc c1 df bb bb 5b 8f c4 bb b2 b4 3f bc
       -0.008694882 -0.0057334607 -0.0059985346 -0.011700796

sequential_2/conv2d_1/Conv2D f4 [64, 3, 3, 32]
000000 51 3c 65 3d b8 62 49 bd 99 3b 67 3d aa 7b 21 3d
       0.055965725 -0.04916641 0.05645332 0.039424576
000010 df 54 be 3d 8b f1 1d bd 7c 99 22 bc b2 60 6e bd
       0.092935316 -0.03856043 -0.009924289 -0.058197685
000020 84 7b 6d bd ab fe 80 3d 6d 84 b3 3d 7d 25 8e 3d
       -0.05797912 0.06298574 0.087654926 0.06940744
000030 77 9e 59 3d 41 9a f6 3c 4a 51 dc bc 97 ad 8d 3a
       0.05312964 0.03010285 -0.02689423 0.001080918
000040 4e 3e 7d 3d b9 60 b9 3d c0 78 dd ba b2 e2 ef 3c
       0.061826997 0.090516515 -0.0016896948 0.029282901
000050 38 bb 57 3d d9 e2 18 3d f3 f0 a8 3d ab ff 9b bd
       0.05266878 0.037325714 0.082490824 -0.07617124
000060 0d 55 96 3c 66 f6 69 3d d1 92 5b bd a1 f8 81 bd
       0.018351102 0.05711975 -0.053606812 -0.0634625
000070 48 c6 ea b7 e4 f9 9f 3d 74 98 89 bd 8c 72 4e 3d
       -2.7987306e-05 0.07811335 -0.06718531 0.05040221
000080 81 79 e2 bc 68 ad 6f bd 0e c6 51 bd eb 0f 68 bd
       -0.027645828 -0.058514982 -0.05121427 -0.056655806
000090 69 7d c1 3d c0 50 a0 bc 5f fc 9a bd 5b 1b a6 3d
       0.09447748 -0.019569755 -0.07567667 0.081106864
0000a0 6d 1f 69 bd 1b 3a 2b 3d d3 c0 97 bd 78 d9 86 bd
       -0.056914736 0.04180346 -0.07409825 -0.065844476
0000b0 de c7 55 bc fe a1 5c 3c cd f1 3b bd af 9a 1a bd
       -0.01304814 0.013466356 -0.045884896 -0.037745174
0000c0 d2 61 84 bd 66 2d 6e bd b0 54 12 3d f4 52 92 3c
       -0.0646397 -0.058148764 0.035725296 0.01786182
0000d0 7d 9e ab 3c ee b1 b5 3a 23 c8 44 3d cd 13 57 bc
       0.020949597 0.0013862231 0.048042428 -0.0131272795
0000e0 f8 83 8f bd ad f0 d6 3d 25 e2 a2 3c 0a 14 58 bd
       -0.07007593 0.10495124 0.019883225 -0.052753486
0000f0 95 d5 11 bd 11 eb 81 3d 83 74 c5 3c 36 6b ba 3b
       -0.03560408 0.063436635 0.024103409 0.00568905
000100 a6 18 24 3d 9c 42 0c bc d8 92 39 3d 4c 44 fa 3c
       0.04006257 -0.008560803 0.045306057 0.030550145
000110 e4 e9 a8 3d ed b6 0a bc 65 64 dd 3b 3e 8b 68 3b
       0.08247736 -0.0084664645 0.0067563527 0.0035483385
000120 d9 45 db 3c 7a 3c 27 bd 0b 09 89 3d 03 10 af 3c
       0.026766704 -0.04082916 0.06691178 0.02136994
000130 b9 84 e9 bc fb 30 c6 3c 04 06 2d bd 68 f5 a8 bc
       -0.02850567 0.024193278 -0.042242065 -0.020624831
000140 0c 5c 5e 3d a8 69 63 3c 4e ec 91 bd c6 b4 db 3d
       0.054287 0.013880171 -0.0712515 0.10727839
000150 6e f8 74 bc 80 46 10 3d 24 58 31 bd af f6 75 3d
       -0.014951808 0.035223484 -0.043296948 0.06004971
000160 f3 03 35 3d 98 8e 02 3d a3 fc af bd 11 cc 3d 3d
       0.04419322 0.03187427 -0.085931085 0.04633719
000170 43 35 5d bd db ed 05 bd 8f 6b 24 bd d9 8a 77 bd
       -0.054005872 -0.03269754 -0.04014164 -0.06043515
000180 59 0c 56 3d e4 24 d5 bc 7a a9 54 bd e0 29 80 bd
       0.05225787 -0.026018567 -0.051919438 -0.06257987
000190 0e 16 3f 3d ba ed 3d 3d 97 3c a0 bb b8 61 eb 3c
       0.046651892 0.04636929 -0.0048900354 0.02873312
0001a0 7e 41 62 3d 11 96 f6 bc fe 1c 52 3c b4 86 ff 3c
       0.05523824 -0.030100854 0.012824295 0.031192161
0001b0 5c e0 8d bd a4 88 8a bd cc a0 be 3c c8 01 e0 3c
       -0.06927559 -0.067643434 0.023270033 0.0273446
0001c0 4e 89 a0 bd 57 db 1f bd 7b 5c 8d 3d 5f af f2 3b
       -0.07838689 -0.03902754 0.06902405 0.00740616
0001d0 5c eb 14 3d 77 86 73 bd 9f ed f8 3c 77 63 85 bd
       0.03635727 -0.059454408 0.030386744 -0.06513112
0001e0 2b 2f 8d bd b3 ca 84 bc 2a 7d 16 3c 6d 2b b7 3d
       -0.06893762 -0.016209936 0.009185115 0.0894383
0001f0 09 8f 6c bd 65 d3 4a bc 4e bb a1 3d 2f 4a 63 bd
       -0.057753596 -0.012379502 0.07897054 -0.05549067
000200 6c 88 4f bc 6f b9 19 bd 7f 4b 3e bd 9b 20 87 bd
       -0.012666803 -0.03753036 -0.046458717 -0.06598016
000210 6e 68 ef bc 34 a5 81 3d 43 31 b1 bc ba 99 f6 3b
       -0.0292246 0.06330338 -0.021629935 0.00752565
000220 fb 67 9c bd de aa 0a bc b8 a1 a2 bd 43 5f a7 3d
       -0.0763702 -0.0084635895 -0.07941002 0.081724666
000230 90 9d 8b 3c ed 28 ae 3c 2b 1f 2f 3d e3 f9 8a 3d
       0.017042905 0.02125975 0.042754333 0.06785943
000240 45 81 9b bd 9f c2 c8 3b 60 4f 51 bd b6 ff b9 bc
       -0.075930156 0.0061267163 -0.05110109 -0.02270494
000250 e6 88 aa bc 6a d8 a2 bc 0a b6 c6 3c 1a 3c 1b bc
       -0.020817231 -0.019878585 0.024256725 -0.009474779
000260 ae 54 dd bb 97 33 af 3d ba 7a 55 3d c3 fb 2d 3d
       -0.0067544794 0.08554762 0.052118994 0.042476427
000270 48 c6 a3 3c 9e 16 8e 3d 86 80 ad bb 45 e7 aa 3d
       0.019992009 0.06937908 -0.005294862 0.083448924
000280 3a 72 83 bd 62 bc c7 bc e1 4f d0 bd 40 af 00 3d
       -0.06418271 -0.02438182 -0.10171486 0.03141713
000290 4a 5b a4 3d 79 39 81 3a 4e bb 7b 3c bf 91 cc 3a
       0.080252245 0.0009859047 0.015364481 0.00156074
0002a0 42 20 6d 3c dd 51 c6 3b 1f 3b 3a bd e4 14 ea 3b
       0.014473023 0.0060522393 -0.04546654 0.0071436036
0002b0 e0 d0 3a 3d cb 46 6a bd 1c 89 d5 3c 06 79 9a bd
       0.045609355 -0.05719642 0.026066355 -0.07542615
0002c0 56 f2 fc 3c 08 b6 c2 3d 58 1e 49 bc 56 93 b7 3d
       0.030877274 0.09507376 -0.012275301 0.08963649
0002d0 b2 6a 8a 3d 15 bb 69 bd 75 f6 80 bd a0 21 ab bd
       0.06758632 -0.05706318 -0.06297008 -0.08356023
0002e0 b8 87 ae bd 25 c2 d8 bc 4b 56 2d 3d f9 21 40 bd
       -0.0852198 -0.026459763 0.042318624 -0.0469074
0002f0 1b 6a 5c bc fb cf 81 3d df 99 62 bd f2 5a 7b bd
       -0.013453032 0.06338497 -0.055322524 -0.06136603
000300 36 b3 53 bd a5 d1 82 bd 1f 44 9c bd 0e 3f a2 bd
       -0.05168458 -0.06387643 -0.076301806 -0.07922183
000310 33 a6 bf 3d 1b c9 1a bd ad d1 b0 bd 9d b1 93 3d
       0.09357872 -0.037789445 -0.086337425 0.072116114
000320 ea ef 2e bd 0b fb 9b bb 40 ba 04 bd 10 d1 02 3d
       -0.04270927 -0.0047601513 -0.032404184 0.03193766
000330 db e3 8c bd 26 5e 22 3d 79 3e 9e bc ab 5e 89 3d
       -0.068793975 0.03964057 -0.019316899 0.067075096
000340 cc 26 d5 3b 5f a6 26 3d cb a0 93 3d 41 6a 9e 3d
       0.006504869 0.040686008 0.07208403 0.0773511
000350 aa ec aa 3d e7 33 5b 3d 1f a2 81 3c 2d 5d 5b 3d
       0.08345921 0.053516295 0.015824376 0.053555656
000360 76 11 b7 39 49 a0 95 3d 90 20 73 3d 86 de c7 bc
       0.0003491749 0.073059626 0.059357226 -0.0243981
000370 e2 5b 35 3d c5 68 15 3d 7f 57 89 bd e9 35 8c bd
       0.04427708 0.03647687 -0.06706142 -0.0684622
000380 bd 77 5f bd 29 4c 88 3c 91 80 79 3c ba 49 09 3d
       -0.05455755 0.016637878 0.0152284065 0.033517577
000390 c3 82 3f 3b 2c 30 b0 ba 4d df 1f bc 5f d3 a9 3b
       0.0029222227 -0.0013442091 -0.009757829 0.005182668
0003a0 c1 04 c5 bd aa 34 e6 bb 3f 6e 97 bd fd d1 32 3d
       -0.09620047 -0.007025321 -0.07394075 0.04365729
0003b0 47 35 99 3d 14 8d 0b 3d 78 ab 9c bd 44 c9 a7 3d
       0.07480865 0.03407009 -0.076498926 0.08192685
0003c0 9b 73 1e 3d 84 0f 86 3d 4c a6 c5 bc c4 6c 4d bc
       0.03868447 0.06545928 -0.024127148 -0.012538139
0003d0 bb 7c 80 3d 14 62 a0 3d 34 97 9e bd 28 9f 9e 3d
       0.062737904 0.07831207 -0.077436835 0.077452004
0003e0 f3 28 2e 3d 62 60 11 bd 4a 85 60 ba 84 3b 8c 3d
       0.04251952 -0.03549231 -0.00085647835 0.06847289
0003f0 15 3f d0 3c 84 ed 24 bd 9a 15 68 3b 4e ba a3 3d
       0.025420705 -0.040265575 0.0035413266 0.07994519

sequential_2/conv2d_2/Conv2D f4 [64, 3, 3, 64]
000000 3f 5d 25 bd 0e 2f db 3c e6 df 60 3d 05 1e ee 3c
       -0.04037213 0.026755836 0.054901026 0.029067049
000010 f7 3d 14 3d 84 0c 1d bd 6d d3 b4 bc 9b 35 58 3d
       0.036191907 -0.038342014 -0.022073472 0.052785497
000020 b6 47 41 3d 69 1c 16 3d 09 d6 d1 3c 04 a1 19 bd
       0.04718753 0.036648188 0.025614755 -0.037507072
000030 5e 1a 5d 3d 80 67 41 3d b6 63 cf bb 5f 05 a0 bd
       0.053980224 0.047217846 -0.006329025 -0.078135245
000040 cd cb 66 3c 39 03 bf 3a 92 b6 23 3d 7d ea 0b bd
       0.014086676 0.0014573104 0.039969034 -0.034159172
000050 fb a1 f8 3c 7c 0d 2d 3d 1e 19 12 bc 87 f2 9a bc
       0.030350676 0.042249188 -0.008917121 -0.018914474
000060 0a 25 97 bd 1e 50 cd 3b 61 6d 0f bc 8a 3a b3 bb
       -0.073801115 0.006265654 -0.008754105 -0.005469625
000070 69 ca 8f bc 66 a9 49 3d 8c f6 fd bc 9b e9 96 bc
       -0.017552571 0.049233817 -0.031001352 -0.018421939
000080 df 54 70 bd eb ed 0f bd 44 3d 66 bd c0 bc c4 bc
       -0.05867469 -0.035139006 -0.05621077 -0.024015784
000090 78 d5 1c 3d 82 71 63 bc 68 19 c3 bd a1 15 82 bd
       0.038289517 -0.013882043 -0.0952633 -0.06351782
0000a0 e5 3c 84 bd e5 35 b6 3c 67 25 15 3d b0 17 00 bd
       -0.06456927 0.022242496 0.036412623 -0.03127259
0000b0 b9 b4 da bc 3f d0 a5 bc c9 f7 8c 3c 56 69 66 3d
       -0.026697503 -0.020240901 0.017207997 0.0562528
0000c0 2b 1c 52 3d 68 d6 7e 3d bf c9 a9 bd be 0c 86 bd
       0.051296394 0.062216192 -0.08290433 -0.06545399
0000d0 63 fa 2c 3d 11 03 6b bd cd 92 93 3d b1 a8 e1 bc
       0.042230975 -0.05737597 0.072057344 -0.027546259
0000e0 22 b2 03 3d ca ee 4f bd ab bc 1d 3c 42 2d 9d 3c
       0.032152303 -0.050764836 0.0096275015 0.01918662
0000f0 93 53 a8 3d 82 26 4a 3c 7c 0b 2c 3d 55 d9 e0 3b
       0.082190655 0.012338283 0.04200314 0.0068618455
000100 8d 7e 9c bd 9c b9 88 3d 75 0c ee 3c d8 13 90 bd
       -0.07641325 0.06676027 0.029058674 -0.07035035
000110 a5 60 aa 3c e7 93 cd bc 58 99 2b 3d db 0f 7e bc
       0.020798037 -0.02509494 0.041894287 -0.01550671
000120 da 6e 82 3d 05 6a ab 3c fa 1c d1 3c 51 3b 33 bd
       0.063687995 0.020924577 0.025526512 -0.04375774
000130 c9 6b 33 bb 45 c0 41 bd b4 ba d0 bc 90 d3 af 3d
       -0.0027377477 -0.047302503 -0.025479652 0.08585274
000140 ea 03 15 bd 16 d5 85 3d 43 4d 5b bd 37 c8 b3 3d
       -0.036380686 0.065347835 -0.05354048 0.08778422
000150 f0 c6 ef ba 04 3c 17 bd 9f d8 80 3d 38 bd 88 3d
       -0.0018293541 -0.03692247 0.06291317 0.066767156
000160 48 2a 84 3d e0 32 7d bb 63 d7 4b bb e6 61 9f 3b
       0.06453377 -0.003863506 -0.0031103722 0.0048639653
000170 7e 1f c9 bc eb 40 89 3b 6f ce 6c bd 8c 8a 8a 3c
       -0.02455115 0.004188647 -0.057814058 0.016911767
000180 a6 bb 4f 3d 5c 12 a6 3a aa 06 ea bc f2 38 04 3d
       0.050716065 0.0012670266 -0.02856763 0.03228087
000190 9e 81 7c 3d ff f5 78 bd e3 3d 5f 3b 03 c7 c3 3c
       0.06164705 -0.060781475 0.0034063987 0.023898607
0001a0 5d 8d 38 bc 26 c3 00 bd 8b e8 d7 3b 40 08 a6 bc
       -0.011264172 -0.031436108 0.0065890006 -0.020267606
0001b0 f1 82 bd 3c 4c 57 15 bc 2d 94 d1 3c 4a 4c 77 3c
       0.023133727 -0.0091150515 0.025583351 0.015093872
0001c0 a4 41 a8 bc b0 ec 3a 3d b1 51 23 bd 2b 84 bf 3c
       -0.020539112 0.04563588 -0.03987283 0.023378452
0001d0 3e 1c aa bc 0d e2 1e bd fe b2 91 3d a3 43 9d 3d
       -0.02076542 -0.038789798 0.07114218 0.07678916
0001e0 3b 73 b9 bc 63 5a 8b 3d e5 3e 01 3d 6f 43 e2 3c
       -0.022637954 0.06804349 0.03155412 0.027620045
0001f0 f6 94 84 3d 2c ca f0 3c a0 5a 18 bc 45 6b 1a 3d
       0.064737245 0.029393278 -0.00929895 0.037699956
000200 95 63 cf bc c9 78 72 3c 64 af 3c bd f0 b9 1e bd
       -0.02531604 0.014799305 -0.046065703 -0.038751543
000210 e1 26 e5 bc 45 96 43 3d ae 4c 7e bc 4c 8b 04 3d
       -0.02797264 0.04775073 -0.015521212 0.032359406
000220 d0 af 5b 3d 7d f4 8d 3d 57 00 c8 3c 8a 73 b2 3b
       0.053634465 0.06931398 0.024414225 0.0054459022
000230 58 db 26 bd dc 32 3a bd f4 48 f4 bb da 72 8d bc
       -0.040736526 -0.04545866 -0.0074549858 -0.01726668
000240 f5 9f 9c 3d ed d8 65 3d 26 14 2a bc 71 58 80 bc
       0.07647697 0.05611508 -0.01038078 -0.015667172
000250 5b af 8e bd 7b ac da 3c 1c be 19 bd 98 43 90 3c
       -0.0696704 0.026693573 -0.037534818 0.017610356
000260 c1 d0 31 bd 4f b7 9a 3b b6 e2 04 bd 2e c6 c4 ba
       -0.043411974 0.004721559 -0.03244277 -0.0015012675
000270 6e 9f 45 3d 06 fd 2c bb 3c c9 9e bb c9 6f 84 3d
       0.048247747 -0.002639593 -0.0048457664 0.06466634
000280 96 b8 de bc e6 ad 98 bc 5b 6a b7 3c 67 07 a0 3c
       -0.027187627 -0.018637609 0.022389581 0.01953478
000290 b9 17 4b bc e4 bc 01 bb 2b 1c c5 bd e4 17 7c bd
       -0.012395793 -0.0019796425 -0.09624513 -0.06154622
0002a0 fd 6d 36 bd 1a 13 b8 bc 4d 0c 6b 3d 0a 1c 53 bc
       -0.044538487 -0.022470046 0.057384778 -0.012885103
0002b0 14 8c 31 bc ee 3a 0e bd 1f 86 38 3c b9 34 80 bd
       -0.01083662 -0.03472417 0.011262446 -0.06260056
0002c0 9c 7a c6 bc 3a ca a6 3d 52 6c f2 3c 4d 09 0c 3d
       -0.024228387 0.081440404 0.029592667 0.034188557
0002d0 d0 17 b1 3c 50 cb f1 bc 23 ba 55 bc e7 4a 51 3d
       0.0216178 -0.029515892 -0.013044867 0.051096823
0002e0 dd ba 68 bd 4f 1d dc bc d1 f4 83 bc 89 98 1a bd
       -0.05681883 -0.026869444 -0.016107948 -0.037743125
0002f0 c9 d0 27 3d 4a 75 83 3d c2 f8 28 bd a2 5a 80 bc
       0.040970597 0.064188555 -0.04125286 -0.015668217
000300 b8 e9 7d bd 4d 97 93 bc 09 8b 1c 3d a5 46 4c bd
       -0.06199047 -0.018016482 0.03821853 -0.04987206
000310 25 5e 11 3d 18 f5 25 bd a9 f9 e9 bc 74 76 c1 bc
       0.035490174 -0.040516943 -0.02856143 -0.023616053
000320 a3 26 14 bd a8 aa 3e 3d f2 54 0c 3b 9c 0a 1b bd
       -0.03616966 0.04654947 0.0021412936 -0.037851915
000330 15 19 b2 3c 8a 50 1b bd 0d 50 ed 3c 5d 3b 5c 3d
       0.021740476 -0.037918605 0.028968835 0.05376755
000340 6e 5a 88 3d f8 be 1c 3b e9 aa 59 bd e4 43 40 3d
       0.06657873 0.0023917537 -0.05314151 0.046939746
000350 38 ef 34 3d 50 c4 41 bd 15 c8 6c bd 92 4b 76 3d
       0.04417345 -0.04730636 -0.057808 0.060130663
000360 30 17 2a bd f4 2c a1 3c c1 ba 5b bd bd 22 0b 3d
       -0.04152602 0.019674756 -0.0536449 0.033968676
000370 5d c5 3d bd 5f 76 3e 3c f3 74 62 bc 40 95 2a 3d
       -0.0463308 0.011624902 -0.013821828 0.041646242
000380 1c 53 55 bc 8e 61 87 bd 9e eb dd bc b6 a8 0a 3d
       -0.013020303 -0.06610404 -0.02708989 0.0338523
000390 2c b1 2b bd 3b ac 32 bd 74 76 32 bd 29 87 8f bd
       -0.04191701 -0.043621283 -0.043569997 -0.07008202
0003a0 60 ca 42 bc 8b 43 61 3c e7 5d 52 3c 52 f5 f2 3c
       -0.01188907 0.013749014 0.012839771 0.029657993
0003b0 51 c8 0e 3d 49 2b 9f bd 5a be 5c bd 38 ab e8 bb
       0.034859005 -0.07771928 -0.05389247 -0.007100489
0003c0 62 a4 90 bd 1b c6 8e 3c 4f 98 2c bc 1b 25 02 bc
       -0.070626035 0.017428448 -0.01053436 -0.007943417
0003d0 1d 12 83 bd 8c 5d 16 bc e0 2b fd bc aa 03 3a 3d
       -0.06399939 -0.009177577 -0.03090471 0.04541365
0003e0 34 23 61 bd 10 40 ad 3c 9f 25 32 bd 5f 26 96 bd
       -0.054965213 0.021148711 -0.04349291 -0.073315375
0003f0 f2 1f 11 bd 36 db 3f bd ea 67 f5 bc 3b 24 c8 3d
       -0.035430856 -0.046839915 -0.029956777 0.097725354

sequential_2/conv2d_3/Conv2D f4 [64, 3, 3, 64]
000000 8c 3d 12 3d 7f 3e 36 3d d0 e0 d9 ba 02 ca bb bc
       0.035703227 0.044493195 -0.0016622785 -0.022923473
000010 83 1d 70 bd 44 c2 05 bc 0a de dd 3c 14 cc d7 3c
       -0.058621895 -0.008163992 0.027083416 0.02634243
000020 59 39 1f 3d a6 16 87 bd a6 d7 92 bc 04 cf d9 bb
       0.03887305 -0.06596117 -0.017925095 -0.0066469926
000030 39 00 5e 3c ef 39 8c 3c 72 a7 0b bd 1e 4c 34 3d
       0.013549858 0.017117469 -0.034095235 0.044017904
000040 ca cf 50 bd f5 6e 84 3d 45 ae ce 3b 26 1e ac 3b
       -0.050979413 0.06466476 0.0063073956 0.0052526174
000050 2f 39 4e 3d 49 ca 80 bc fc dd 29 3d 1c 23 d1 ba
       0.050347503 -0.015721457 0.041471466 -0.0015955898
000060 88 4a 35 bd 38 5c be 3b 12 ca 17 bd bd a0 02 3d
       -0.04426053 0.005809333 -0.037057944 0.031891573
000070 c6 8a 8e bc d4 dd 7e 3b d4 27 4a 3c fc 29 7c 3c
       -0.017400157 0.0038889544 0.012338597 0.015390869
000080 eb 20 a3 3c 9c ea 1a bd 4d a6 e2 3c ef af 58 bd
       0.019913157 -0.037821397 0.027667189 -0.05290216
000090 63 52 2b 3d 02 9c 77 bd 11 69 87 3c 47 d6 94 bb
       0.041826617 -0.060451515 0.016529592 -0.0045421454
0000a0 69 18 56 3d 52 ec 73 3d cb 6c ff 3c 7a 0e e1 bc
       0.052269373 0.059551544 0.031179806 -0.027472723
0000b0 cf 06 a1 bd 13 35 18 3d d5 fd 83 3d 28 5e 81 3c
       -0.07862627 0.03715999 0.06444899 0.015791968
0000c0 19 ad 33 bd 05 7f 89 3d a3 b5 53 3d 54 9d 3a 3c
       -0.04386625 0.0671368 0.051686894 0.011390049
0000d0 1d 95 3a 3d d7 05 82 3c 28 32 a8 3d ff 8d 1b 3d
       0.04555236 0.015871925 0.082126915 0.037977215
0000e0 78 71 8f 3d 4e 1e 64 bd cf 3b f9 39 78 0e bf bc
       0.07004064 -0.055692963 0.00047537542 -0.023322329
0000f0 14 99 92 3d a3 40 9c bd e4 72 72 3b 3b 17 06 3d
       0.071581036 -0.07629516 0.003699475 0.032736998
000100 09 f8 e1 3c 0e 84 f9 3c 91 02 b9 bc 86 36 b3 3b
       0.027584093 0.030458476 -0.022584232 0.005469146
000110 42 7e e6 bc b5 51 96 bc 47 59 5e 3c 19 76 4b bc
       -0.028136376 -0.018349508 0.01357109 -0.012418293
000120 3f 8e 70 bd 98 31 e4 bc ad 1f 13 3d 5a d7 24 bd
       -0.058729406 -0.02785568 0.03591888 -0.040244438
000130 fb c3 cf 3c 54 41 31 3c 60 44 88 bd 24 a6 7a bc
       0.025362005 0.010818798 -0.066536665 -0.0152984
000140 a6 f0 1e 3c dc 74 0b 3d 87 f6 37 3d cb 1a 6f 3d
       0.00970093 0.034046993 0.04491284 0.05837516
000150 e3 8b 9a 3d 99 0f 7c 3d 26 c0 8f 3c ef c5 db bc
       0.075462125 0.061538313 0.017547678 -0.02682778
000160 da d9 61 3c df fe 33 3c ef ff 59 3b d7 f6 d7 bc
       0.01378485 0.010986059 0.003326412 -0.02636282
000170 3e 55 87 3d 60 f1 9c 3d b2 dc 2c bb 7a 6b 36 3d
       0.066080555 0.07663226 -0.0026376662 0.04453609
000180 5a a9 64 3d e8 d4 16 3b 6b 8f 01 3d a7 50 d6 3c
       0.05582557 0.0023015086 0.031630915 0.026161505
000190 32 46 09 3c 42 fb 79 bd ac a9 a5 bd f1 24 51 3d
       0.008378552 -0.061030634 -0.08089003 0.05106062
0001a0 6e 94 76 bc e4 02 63 3c 47 7e 8c 3d e2 eb 64 3d
       -0.015050037 0.01385567 0.06860023 0.055889018
0001b0 79 7d 39 bb 98 b9 ce 3c c1 79 89 3d b9 31 cd bc
       -0.0028303547 0.025234982 0.06712676 -0.025048124
0001c0 7a 1e 90 bd bb 66 3c bd 20 6e 82 bd 80 e1 f1 bc
       -0.07037063 -0.04599641 -0.06368661 -0.029526472
0001d0 c0 47 2d 3b fd 16 36 3d 56 b8 95 3d 76 a0 38 3d
       0.0026440471 0.044455517 0.0731055 0.045074902
0001e0 2c fe 89 bd 2f f3 4d 3d d6 ea 9e 3c f8 15 2b 3d
       -0.067379326 0.050280746 0.019399088 0.041768998
0001f0 2a ab 69 bd 05 c5 68 3d 96 64 1e ba 90 3b b4 3c
       -0.057048 0.056828517 -0.000604221 0.022001058
000200 e9 6b 42 3d e0 3e 9c bd 4c 96 48 bc 75 a4 4d 3d
       0.047466192 -0.0762918 -0.012242865 0.050205667
000210 d9 2e 65 bd ec e2 aa 3c 97 39 97 bd bb 91 03 3c
       -0.05595288 0.020860158 -0.07384031 0.00803035
000220 35 e6 8f bd ee 31 5d 3c e8 a3 d4 bc cd b0 85 3b
       -0.070263304 0.013500674 -0.025957063 0.004079914
000230 67 07 4b 3b e3 32 97 3a d5 b8 33 bd 5f 52 c4 bc
       0.0030979754 0.0011535551 -0.04387744 -0.023965059
000240 d3 3c 3b bc 89 f9 33 3d f9 d4 b3 bc 8b 1d f6 bb
       -0.011428076 0.043939147 -0.02195214 -0.007510846
000250 07 85 a8 3d 6b 38 75 bd 59 24 0a bd 07 90 9d bd
       0.08228498 -0.059868257 -0.03372607 -0.07693487
000260 6f 99 1f 3d af 44 3a 3d 6e 47 86 bd 75 f0 74 bd
       0.038964685 0.045475658 -0.06556593 -0.05979963
000270 c0 d9 a5 3c 5b c3 31 bd 08 b8 3a 3b ec d6 62 bd
       0.020245433 -0.043399196 0.0028491039 -0.055380747
000280 c3 80 c2 3b 9e 77 09 bd 8c 30 ed bc fb 41 82 bd
       0.0059357597 -0.03356134 -0.028953813 -0.06360241
000290 68 9c 97 bc 7e ac 49 3b e4 0e a6 bd 77 c1 79 bd
       -0.018507197 0.003077298 -0.08108309 -0.060975518
0002a0 0a ca 53 3c 23 1a ff bc 0d eb 87 3d 8d b7 c0 ba
       0.012926588 -0.031140393 0.06636629 -0.001470314
0002b0 c7 fa 6c ba 99 b1 1b bd c6 94 00 bc db fa 07 bd
       -0.0009040054 -0.038011167 -0.00784797 -0.03319822
0002c0 25 57 e7 bb 73 cf 07 3a 48 b0 1d 3c 15 6d 99 bc
       -0.007059949 0.00051807537 0.009624548 -0.018728772
0002d0 bf 06 00 bd ce b3 8b 3d c8 58 68 bd 45 11 3c bc
       -0.031256434 0.068214044 -0.056725293 -0.011478727
0002e0 0a 78 87 bb 6d a7 4c 3d 6b 79 37 3d f4 a7 75 bc
       -0.004134183 0.049964357 0.044793528 -0.014993656
0002f0 3d 01 00 bd 71 40 30 3d ed ab 96 3d a5 46 31 bd
       -0.03125118 0.043030206 0.07357011 -0.043280263
000300 2f 14 4b bd 71 c2 79 3d 96 5b e5 3c a1 81 94 3b
       -0.049579795 0.06097645 0.027997773 0.0045320545
000310 2e 0d 74 bd 40 43 6c bd 94 dc 8c 3d 0d 81 95 bd
       -0.05958288 -0.057681322 0.068780094 -0.07300005
000320 3a 85 8c bb f7 75 dd bc 95 01 92 3d f9 f5 d1 bc
       -0.004288343 -0.02703379 0.07129208 -0.025629984
000330 d5 33 16 bd 69 c4 0a 3d d3 92 45 3d ad c8 5e 3d
       -0.036670525 0.033878718 0.048235726 0.054390598
000340 b3 74 16 3d b5 fc e0 bc 25 36 86 3d 8a a8 07 3d
       0.036732387 -0.02746425 0.06553296 0.033119716
000350 4b a4 92 bc cc 1d e1 3b fa 4d 91 3d 8a 01 1b bd
       -0.017900607 0.006870007 0.07094951 -0.037843265
000360 93 aa 00 bd fa e2 fb bc 12 57 93 bc 72 c9 9c 3d
       -0.031412672 -0.03074788 -0.017985854 0.0765561
000370 4e d8 dd bc b9 ff 0e 3d d6 82 70 bd aa a0 64 bc
       -0.027080681 0.034911845 -0.058718525 -0.013954321
000380 6e a4 80 bd cb 28 43 3c b8 10 63 bd b2 7a 85 3d
       -0.062813625 0.011911581 -0.055435866 0.06517543
000390 d8 45 65 3d 61 26 87 bd 48 88 50 bc 40 ed e8 39
       0.05597481 -0.06599117 -0.0127278045 0.00044427253
0003a0 b7 7e d1 bc 82 aa 86 3c d6 d6 c6 3c 57 18 80 3d
       -0.025573118 0.016438726 0.024272364 0.062546425
0003b0 2a ac 4d ba ac be 07 bc aa c8 e2 3c a6 07 38 3d
       -0.0007845784 -0.008285206 0.027683575 0.04492917
0003c0 11 83 33 bb e0 82 69 bc 52 b0 b3 bc f9 90 ce 3c
       -0.0027391354 -0.014252394 -0.021934662 0.025215613
0003d0 3a 0c 37 3d 19 a4 48 ba 45 7a bd 3d c0 54 89 3d
       0.044689395 -0.0007653847 0.09251837 0.06705618
0003e0 00 ae 2c 3d a2 f2 03 bd fd b3 cf bc 43 31 05 bd
       0.042158127 -0.032213815 -0.02535438 -0.032517683
0003f0 12 73 1d bc f6 e1 92 bd 55 68 2a 3d 0d 0f 7e 3d
       -0.009609954 -0.07172005 0.041603405 0.062026072

sequential_2/conv2d_4/Conv2D f4 [64, 3, 3, 64]
000000 5d a0 02 bd f4 85 0a 3d fa 89 3f bd 7c ef 8a 3d
       -0.031891216 0.033819154 -0.046762444 0.06783959
000010 40 f7 4a 3d 40 b6 d7 3b 00 07 25 3a 90 44 96 3c
       0.049552202 0.006583005 0.00062952936 0.01834324
000020 4e dd 92 3d d9 c7 76 bd fc 0d 64 bd 2e dd 87 3d
       0.07171117 -0.060249183 -0.0556774 0.066339836
000030 f0 a1 b8 bb 98 f1 14 bc 80 21 48 3d f6 a2 83 bd
       -0.005634539 -0.009090804 0.048860073 -0.06427567
000040 ec 0d c6 3c 30 68 1c 3c a8 f1 63 bd 1a d8 d5 bc
       0.02417656 0.009546325 -0.055650383 -0.026104022
000050 80 f6 38 bd 64 c1 93 bc 32 1e 82 bd 00 e8 e6 bb
       -0.045156956 -0.018036552 -0.063534155 -0.0070466995
000060 90 ae 3c 3c f7 ee 78 bd 83 27 7a bd 00 35 81 ba
       0.011516228 -0.06077477 -0.061072838 -0.0009857714
000070 a0 c2 6a bc 04 16 a2 3c 00 f9 61 bd 02 e4 0c bd
       -0.014328629 0.019785888 -0.055169106 -0.034397133
000080 92 1a c1 bc 00 3f d9 3b 00 73 9b bb 9a b1 8f bd
       -0.02357224 0.0066298246 -0.0047439337 -0.07016297
000090 f2 96 86 bd e0 49 d5 bb a8 76 60 bc 10 22 33 bd
       -0.06571759 -0.0065090507 -0.013700165 -0.043733656
0000a0 c0 11 c0 3b 60 0f 8d 3d 1a 44 8a 3d 42 9f 8c bd
       0.005861491 0.06887698 0.067512706 -0.068663135
0000b0 20 47 fc bb 20 73 2e 3d 7e 21 20 3d b8 61 04 3d
       -0.0076989084 0.04259026 0.03909444 0.032319754
0000c0 09 92 80 bd 04 51 62 3d 69 f4 90 bd e8 20 db 3c
       -0.06277854 0.055253044 -0.070778675 0.02674909
0000d0 cf 43 3a bd 28 a4 0b bc 80 ca 72 bd b4 aa a3 bc
       -0.045474824 -0.008523025 -0.05927515 -0.019978859
0000e0 00 72 57 bd ae 90 8f 3d 74 4d f9 bc d0 a5 98 3c
       -0.052598953 0.07010017 -0.03043244 0.018633753
0000f0 30 40 f6 3c d4 e2 37 bc bc 29 6c 3d dd 94 16 bd
       0.030059904 -0.011223514 0.05765699 -0.03676306
000100 3a 0b 92 bd 5a 83 01 3d fa 85 f2 bc 80 67 78 3a
       -0.071310475 0.031619407 -0.0296049 0.0009475872
000110 a0 67 5d bb c4 a0 3d bd 1c 7e df 3c a0 eb a2 3b
       -0.003378369 -0.046295896 0.027281813 0.0049719363
000120 2a c4 80 3d 9c 95 e1 3c e8 1a 0a 3d c4 b9 9a 3c
       0.06287415 0.02753716 0.033717066 0.018887408
000130 93 2c 0e bd 04 08 93 3d 98 46 bb 3c aa 77 25 3d
       -0.034710478 0.07179263 0.02286081 0.040397324
000140 8f ff 56 bd 45 d1 8b bd e0 a9 a9 3c b0 b6 90 bb
       -0.052489813 -0.06827024 0.020710886 -0.0044163093
000150 96 3c 30 3d 72 02 42 bd c0 29 26 bb 80 e9 8c ba
       0.04302653 -0.047365613 -0.0025354475 -0.0010750741
000160 bb e9 74 bd 8a 23 11 bd e0 7f 12 3c 00 04 7b 3a
       -0.059793215 -0.035434283 0.008941621 0.0009575486
000170 40 02 cb ba de 61 50 bd 3e 7d 84 3d 7c ae 6c 3d
       -0.0015488341 -0.050874583 0.064692006 0.05778359
000180 6e 0c 48 3d da ac 8a bd a8 e3 68 3d 80 4b 7b 3b
       0.04883998 -0.0677125 0.056857735 0.0038344562
000190 31 43 34 bd a4 19 b2 3c aa 03 1b bd 24 0b 24 3d
       -0.04400939 0.021740742 -0.03784529 0.040049687
0001a0 70 e8 48 bd 6a 62 ac bc 4a 40 3a bd 14 fd 3c bc
       -0.049049795 -0.021043021 -0.045471467 -0.011534948
0001b0 7c 69 d8 3c 00 25 40 3c 8e ce 55 bd 10 0c d9 bb
       0.026417486 0.0117275715 -0.05219894 -0.0066237524
0001c0 c4 af 65 3d fc fc 2c 3d 40 63 cc bb 10 4c b0 3b
       0.056075826 0.042233452 -0.0062374175 0.005380161
0001d0 e8 bb cd 3c 7e ca 4f 3d 3e 7b a8 bc 90 33 3d 3c
       0.025114015 0.05073022 -0.020566579 0.011547938
0001e0 90 e4 e3 3c d0 38 2f 3d 36 6f 81 3d 92 96 a5 bc
       0.027818948 0.04277879 0.0632004 -0.0202134
0001f0 30 25 69 3d 62 bb 30 3d d8 a1 03 3d b0 4b c1 3b
       0.05692023 0.043147452 0.032136768 0.005898915
000200 e4 37 4a 3d 69 2c 8b bd c8 af 83 bd a0 c9 c9 3c
       0.049369708 -0.0679558 -0.06430012 0.024632275
000210 80 ce 03 bc 16 bc 93 bd ea 7e 87 bd a0 68 62 bc
       -0.008044839 -0.07213609 -0.06616004 -0.01381889
000220 3e cd ad bc 80 d7 35 bd 8e 17 3c bd c2 23 30 bd
       -0.021216031 -0.04439497 -0.0459209 -0.04300285
000230 a0 7f 25 bc d4 55 50 bd ae cd 15 3d 14 ea 63 3d
       -0.010101229 -0.050863102 0.036573105 0.055643156
000240 70 40 08 3d 40 71 85 3b c0 e6 15 3c 9e 68 a8 bc
       0.033264577 0.0040723383 0.009149253 -0.020557698
000250 50 92 cd 3c 14 f9 6b 3d 58 ef 18 bc e8 87 5e 3d
       0.025094181 0.057610586 -0.009334408 0.05432883
000260 90 e5 c7 bb 00 7d 32 3c 96 e1 e8 bc e8 a7 73 3c
       -0.006100364 0.01089406 -0.02842788 0.014871575
000270 84 c3 8b bc e8 c9 1c bc 18 bd 92 3d a0 50 01 bc
       -0.017061003 -0.009569623 0.07164973 -0.007892758
000280 82 89 22 3d 00 a3 39 3c e0 73 2c 3c 28 82 1d 3d
       0.03968192 0.011330366 0.010525674 0.038454205
000290 80 cd 04 bc 42 7b f8 bc 00 69 71 bb 6c 77 04 3d
       -0.008105636 -0.030332211 -0.0036836267 0.032340452
0002a0 e4 7c df 3c c1 24 80 bd 00 bf 99 3a 5c 6c ab bc
       0.027281232 -0.0625701 0.0011729896 -0.020925693
0002b0 e6 44 40 3d 1c ef 47 bd 74 91 14 bd 90 13 df 3b
       0.046940707 -0.048812017 -0.036271527 0.006807752
0002c0 e4 de 71 3d 3c a6 d9 3c c0 cd 96 bc 56 74 98 bc
       0.059050456 0.026568525 -0.018408656 -0.01861016
0002d0 b6 8f 1f 3d b8 87 54 3d 84 fe 73 bc 04 09 cc 3c
       0.038955413 0.051887244 -0.014892224 0.024906643
0002e0 cb 13 33 bd 18 c0 f7 bc 8c 2d 93 3c f8 8c 3b 3d
       -0.043720048 -0.030242965 0.017966054 0.045788735
0002f0 e0 c6 89 bb 82 53 3a 3d 3e e6 e8 bc a0 67 ba bc
       -0.004204616 0.045489796 -0.0284301 -0.02275449
000300 30 2a eb bb e0 46 8f 3d ec ef 85 bd e4 d6 bd 3c
       -0.00717666 0.0699594 -0.06539902 0.023173757
000310 70 78 ee 3b 64 dc 90 3d c0 70 fd bb 9c 75 f7 3c
       0.007277541 0.07073286 -0.007734388 0.030207448
000320 47 36 6d bd 52 79 84 bd 90 85 87 3d f0 3c 14 bc
       -0.05791309 -0.064684525 0.06617272 -0.009047732
000330 6a b3 8c bd 0c 5f af 3c ea 02 0b 3d fd 5d 93 bd
       -0.06870158 0.021407627 0.033938326 -0.07195661
000340 6d 94 58 bd 0c ae 8f bd 3e d0 df bc 80 7b 8b 3b
       -0.052875925 -0.07015619 -0.027320977 0.0042566657
000350 70 76 26 3c 12 e4 c5 bc cc f6 cd 3c 70 7f 3c 3c
       0.010160074 -0.024156604 0.025142096 0.011504993
000360 40 66 1c 3d 6c 9f 19 bd b4 e9 bc 3c cd 02 04 bd
       0.03818345 -0.037505552 0.023060657 -0.032229234
000370 d6 e7 82 3d 72 46 3f bd b7 d8 72 bd d3 1d 8b bd
       0.063918754 -0.04669804 -0.059288707 -0.06792798
000380 70 fc 20 3d b0 45 d8 bc c9 9d 87 bd 90 a9 a3 bb
       0.039303243 -0.026400417 -0.06621892 -0.0049945787
000390 c0 61 61 bb 73 72 6f bd 14 d3 95 3c 70 6f eb 3c
       -0.003439054 -0.058458757 0.018289126 0.028739661
0003a0 89 4e 2d bd e8 ae 67 bc 7a 0f af bc d0 b6 28 3d
       -0.042311225 -0.014140822 -0.021369684 0.04118997
0003b0 94 fe 63 bc 08 d0 bd bc 00 f0 cd bb 70 7c 9d 3c
       -0.013915677 -0.023170486 -0.0062847137 0.019224375
0003c0 c4 2a 73 3d 54 cc b6 bc 76 58 31 bd f0 84 7d 3c
       0.059366956 -0.022314228 -0.043297254 0.015473589
0003d0 70 57 29 3c 44 96 d6 3c b6 34 26 3d f4 49 46 bd
       0.010335788 0.0261947 0.040577613 -0.04841037
0003e0 40 a4 f7 3b 1b 38 8f bd cc bf d0 3c d0 b0 7f 3d
       0.007557422 -0.06993123 0.02548208 0.06242448
0003f0 d2 26 77 bd 1c 93 81 3d 00 ae f3 39 f0 ab 94 3b
       -0.060339756 0.06326887 0.00046478212 0.004537098
